…
W0108 19:50:13.563879   473 utils.cpp:177] BVLC BatchNormLayer without ScaleLayer detected: 21, it will be converted to NVCaffe Format.
I0108 19:50:13.563946   473 net.cpp:323] The NetState phase (1) differed from the phase (0) specified by a rule in layer data
I0108 19:50:13.563961   473 net.cpp:52] Initializing net from parameters:
state {
  phase: TEST
}
layer {
  name: "data"
  type: "Data"
  top: "data"
  top: "label"
  include {
    phase: TEST
  }
  transform_param {
    mirror: false
    crop_size: 227
    mean_value: 106
    mean_value: 116
    mean_value: 124
  }
  data_param {
    source: "input/lmdb/valid_lmdb"
    batch_size: 50
    backend: LMDB
  }
}
layer {
  name: "conv1"
  type: "Convolution"
  bottom: "data"
  top: "conv1"
  param {
    lr_mult: 1
    decay_mult: 1
  }
  param {
    lr_mult: 2
    decay_mult: 0
  }
  convolution_param {
    num_output: 96
    pad: 1
    kernel_size: 11
    stride: 4
    weight_filler {
      type: "gaussian"
      std: 0.01
    }
    bias_filler {
      type: "constant"
      value: 0
    }
  }
}
layer {
  name: "bn1"
  type: "BatchNorm"
  bottom: "conv1"
  top: "bn1"
  param {
    lr_mult: 0
  }
  param {
    lr_mult: 0
  }
  param {
    lr_mult: 0
  }
  batch_norm_param {
    use_global_stats: false
  }
}
layer {
  name: "relu1"
  type: "ReLU"
  bottom: "bn1"
  top: "relu1"
}
layer {
  name: "pool1"
  type: "Pooling"
  bottom: "relu1"
  top: "pool1"
  pooling_param {
    pool: MAX
    kernel_size: 3
    stride: 2
  }
}
layer {
  name: "conv2"
  type: "Convolution"
  bottom: "pool1"
  top: "conv2"
  param {
    lr_mult: 1
    decay_mult: 1
  }
  param {
    lr_mult: 2
    decay_mult: 0
  }
  convolution_param {
    num_output: 256
    pad: 2
    kernel_size: 5
    group: 1
    weight_filler {
      type: "gaussian"
      std: 0.01
    }
    bias_filler {
      type: "constant"
      value: 1
    }
  }
}
layer {
  name: "bn2"
  type: "BatchNorm"
  bottom: "conv2"
  top: "bn2"
  param {
    lr_mult: 0
  }
  param {
    lr_mult: 0
  }
  param {
    lr_mult: 0
  }
  batch_norm_param {
    use_global_stats: false
  }
}
layer {
  name: "relu2"
  type: "ReLU"
  bottom: "bn2"
  top: "relu2"
}
layer {
  name: "pool2"
  type: "Pooling"
  bottom: "relu2"
  top: "pool2"
  pooling_param {
    pool: MAX
    kernel_size: 3
    stride: 2
  }
}
layer {
  name: "conv3"
  type: "Convolution"
  bottom: "pool2"
  top: "conv3"
  param {
    lr_mult: 1
    decay_mult: 1
  }
  param {
    lr_mult: 2
    decay_mult: 0
  }
  convolution_param {
    num_output: 384
    pad: 1
    kernel_size: 3
    weight_filler {
      type: "gaussian"
      std: 0.01
    }
    bias_filler {
      type: "constant"
      value: 0
    }
  }
}
layer {
  name: "relu3"
  type: "ReLU"
  bottom: "conv3"
  top: "relu3"
}
layer {
  name: "conv4"
  type: "Convolution"
  bottom: "relu3"
  top: "conv4"
  param {
    lr_mult: 1
    decay_mult: 1
  }
  param {
    lr_mult: 2
    decay_mult: 0
  }
  convolution_param {
    num_output: 384
    pad: 1
    kernel_size: 3
    group: 1
    weight_filler {
      type: "gaussian"
      std: 0.01
    }
    bias_filler {
      type: "constant"
      value: 1
    }
  }
}
layer {
  name: "relu4"
  type: "ReLU"
  bottom: "conv4"
  top: "relu4"
}
layer {
  name: "conv5"
  type: "Convolution"
  bottom: "relu4"
  top: "conv5"
  param {
    lr_mult: 1
    decay_mult: 1
  }
  param {
    lr_mult: 2
    decay_mult: 0
  }
  convolution_param {
    num_output: 256
    pad: 1
    kernel_size: 3
    group: 1
    weight_filler {
      type: "gaussian"
      std: 0.01
    }
    bias_filler {
      type: "constant"
      value: 1
    }
  }
}
layer {
  name: "relu5"
  type: "ReLU"
  bottom: "conv5"
  top: "relu5"
}
layer {
  name: "pool5"
  type: "Pooling"
  bottom: "relu5"
  top: "pool5"
  pooling_param {
    pool: MAX
    kernel_size: 3
    stride: 2
  }
}
layer {
  name: "fc6"
  type: "InnerProduct"
  bottom: "pool5"
  top: "fc6"
  param {
    lr_mult: 1
    decay_mult: 1
  }
  param {
    lr_mult: 2
    decay_mult: 0
  }
  inner_product_param {
    num_output: 4096
    weight_filler {
      type: "gaussian"
      std: 0.005
    }
    bias_filler {
      type: "constant"
      value: 1
    }
  }
}
layer {
  name: "relu6"
  type: "ReLU"
  bottom: "fc6"
  top: "relu6"
}
layer {
  name: "drop6"
  type: "Dropout"
  bottom: "relu6"
  top: "drop6"
  dropout_param {
    dropout_ratio: 0.5
  }
}
layer {
  name: "fc7"
  type: "InnerProduct"
  bottom: "drop6"
  top: "fc7"
  param {
    lr_mult: 1
    decay_mult: 1
  }
  param {
    lr_mult: 2
    decay_mult: 0
  }
  inner_product_param {
    num_output: 4096
    weight_filler {
      type: "gaussian"
      std: 0.005
    }
    bias_filler {
      type: "constant"
      value: 1
    }
  }
}
layer {
  name: "bn7"
  type: "BatchNorm"
  bottom: "fc7"
  top: "bn7"
  param {
    lr_mult: 0
  }
  param {
    lr_mult: 0
  }
  param {
    lr_mult: 0
  }
  batch_norm_param {
    use_global_stats: false
  }
}
layer {
  name: "relu7"
  type: "ReLU"
  bottom: "bn7"
  top: "relu7"
}
layer {
  name: "drop7"
  type: "Dropout"
  bottom: "relu7"
  top: "drop7"
  dropout_param {
    dropout_ratio: 0.5
  }
}
layer {
  name: "fc8"
  type: "InnerProduct"
  bottom: "drop7"
  top: "fc8"
  param {
    lr_mult: 1
    decay_mult: 1
  }
  param {
    lr_mult: 2
    decay_mult: 0
  }
  inner_product_param {
    num_output: 2
    weight_filler {
      type: "gaussian"
      std: 0.01
    }
    bias_filler {
      type: "constant"
      value: 0
    }
  }
}
layer {
  name: "accuracy"
  type: "Accuracy"
  bottom: "fc8"
  bottom: "label"
  top: "accuracy"
  include {
    phase: TEST
  }
}
layer {
  name: "loss"
  type: "SoftmaxWithLoss"
  bottom: "fc8"
  bottom: "label"
  top: "loss"
}
layer {
  name: "accuracy-top1"
  type: "Accuracy"
  bottom: "fc8"
  bottom: "label"
  top: "top-1"
  include {
    phase: TEST
  }
}
I0108 19:50:13.564561   473 layer_factory.hpp:77] Creating layer data
I0108 19:50:13.564622   473 internal_thread.cpp:27] Starting internal thread(s) on GPU 0
I0108 19:50:13.566587   473 net.cpp:94] Creating Layer data
I0108 19:50:13.566601   473 net.cpp:409] data -> data
I0108 19:50:13.566610   473 net.cpp:409] data -> label
I0108 19:50:13.568145   508 db_lmdb.cpp:35] Opened lmdb input/lmdb/valid_lmdb
I0108 19:50:13.568151   508 db_lmdb.cpp:38] Items count: 4000
I0108 19:50:13.568164   508 data_reader.cpp:124] TEST: reading data using 1 channel(s)
I0108 19:50:13.568946   473 data_layer.cpp:78] ReshapePrefetch 50, 3, 227, 227
I0108 19:50:13.569160   473 data_layer.cpp:83] output data size: 50,3,227,227
I0108 19:50:13.676231   473 internal_thread.cpp:27] Starting internal thread(s) on GPU 0
I0108 19:50:13.676329   473 net.cpp:144] Setting up data
I0108 19:50:13.676338   473 net.cpp:151] Top shape: 50 3 227 227 (7729350)
I0108 19:50:13.676347   473 net.cpp:151] Top shape: 50 (50)
I0108 19:50:13.676350   473 net.cpp:159] Memory required for data: 30917600
I0108 19:50:13.676354   473 layer_factory.hpp:77] Creating layer label_data_1_split
I0108 19:50:13.676362   473 net.cpp:94] Creating Layer label_data_1_split
I0108 19:50:13.676386   473 net.cpp:435] label_data_1_split <- label
I0108 19:50:13.676409   473 net.cpp:409] label_data_1_split -> label_data_1_split_0
I0108 19:50:13.676417   473 net.cpp:409] label_data_1_split -> label_data_1_split_1
I0108 19:50:13.676424   473 net.cpp:409] label_data_1_split -> label_data_1_split_2
I0108 19:50:13.676479   473 net.cpp:144] Setting up label_data_1_split
I0108 19:50:13.676484   473 net.cpp:151] Top shape: 50 (50)
I0108 19:50:13.676498   473 net.cpp:151] Top shape: 50 (50)
I0108 19:50:13.676501   473 net.cpp:151] Top shape: 50 (50)
I0108 19:50:13.676506   473 net.cpp:159] Memory required for data: 30918200
I0108 19:50:13.676508   473 layer_factory.hpp:77] Creating layer conv1
I0108 19:50:13.676519   473 net.cpp:94] Creating Layer conv1
I0108 19:50:13.676524   473 net.cpp:435] conv1 <- data
I0108 19:50:13.676529   473 net.cpp:409] conv1 -> conv1
I0108 19:50:13.677428   473 net.cpp:144] Setting up conv1
I0108 19:50:13.677436   473 net.cpp:151] Top shape: 50 96 55 55 (14520000)
I0108 19:50:13.677441   473 net.cpp:159] Memory required for data: 88998200
I0108 19:50:13.677453   473 layer_factory.hpp:77] Creating layer bn1
I0108 19:50:13.677469   473 net.cpp:94] Creating Layer bn1
I0108 19:50:13.677474   473 net.cpp:435] bn1 <- conv1
I0108 19:50:13.677480   473 net.cpp:409] bn1 -> bn1
I0108 19:50:13.678011   473 net.cpp:144] Setting up bn1
I0108 19:50:13.678018   473 net.cpp:151] Top shape: 50 96 55 55 (14520000)
I0108 19:50:13.678023   473 net.cpp:159] Memory required for data: 147078200
I0108 19:50:13.678033   473 layer_factory.hpp:77] Creating layer relu1
I0108 19:50:13.678040   473 net.cpp:94] Creating Layer relu1
I0108 19:50:13.678043   473 net.cpp:435] relu1 <- bn1
I0108 19:50:13.678047   473 net.cpp:409] relu1 -> relu1
I0108 19:50:13.678069   473 net.cpp:144] Setting up relu1
I0108 19:50:13.678076   473 net.cpp:151] Top shape: 50 96 55 55 (14520000)
I0108 19:50:13.678081   473 net.cpp:159] Memory required for data: 205158200
I0108 19:50:13.678083   473 layer_factory.hpp:77] Creating layer pool1
I0108 19:50:13.678088   473 net.cpp:94] Creating Layer pool1
I0108 19:50:13.678092   473 net.cpp:435] pool1 <- relu1
I0108 19:50:13.678097   473 net.cpp:409] pool1 -> pool1
I0108 19:50:13.678124   473 net.cpp:144] Setting up pool1
I0108 19:50:13.678130   473 net.cpp:151] Top shape: 50 96 27 27 (3499200)
I0108 19:50:13.678134   473 net.cpp:159] Memory required for data: 219155000
I0108 19:50:13.678138   473 layer_factory.hpp:77] Creating layer conv2
I0108 19:50:13.678145   473 net.cpp:94] Creating Layer conv2
I0108 19:50:13.678149   473 net.cpp:435] conv2 <- pool1
I0108 19:50:13.678155   473 net.cpp:409] conv2 -> conv2
I0108 19:50:13.685248   473 net.cpp:144] Setting up conv2
I0108 19:50:13.685264   473 net.cpp:151] Top shape: 50 256 27 27 (9331200)
I0108 19:50:13.685271   473 net.cpp:159] Memory required for data: 256479800
I0108 19:50:13.685281   473 layer_factory.hpp:77] Creating layer bn2
I0108 19:50:13.685289   473 net.cpp:94] Creating Layer bn2
I0108 19:50:13.685294   473 net.cpp:435] bn2 <- conv2
I0108 19:50:13.685300   473 net.cpp:409] bn2 -> bn2
I0108 19:50:13.685811   473 net.cpp:144] Setting up bn2
I0108 19:50:13.685817   473 net.cpp:151] Top shape: 50 256 27 27 (9331200)
I0108 19:50:13.685823   473 net.cpp:159] Memory required for data: 293804600
I0108 19:50:13.685832   473 layer_factory.hpp:77] Creating layer relu2
I0108 19:50:13.685838   473 net.cpp:94] Creating Layer relu2
I0108 19:50:13.685842   473 net.cpp:435] relu2 <- bn2
I0108 19:50:13.685847   473 net.cpp:409] relu2 -> relu2
I0108 19:50:13.685863   473 net.cpp:144] Setting up relu2
I0108 19:50:13.685866   473 net.cpp:151] Top shape: 50 256 27 27 (9331200)
I0108 19:50:13.685870   473 net.cpp:159] Memory required for data: 331129400
I0108 19:50:13.685874   473 layer_factory.hpp:77] Creating layer pool2
I0108 19:50:13.685881   473 net.cpp:94] Creating Layer pool2
I0108 19:50:13.685884   473 net.cpp:435] pool2 <- relu2
I0108 19:50:13.685889   473 net.cpp:409] pool2 -> pool2
I0108 19:50:13.685914   473 net.cpp:144] Setting up pool2
I0108 19:50:13.685917   473 net.cpp:151] Top shape: 50 256 13 13 (2163200)
I0108 19:50:13.685921   473 net.cpp:159] Memory required for data: 339782200
I0108 19:50:13.685925   473 layer_factory.hpp:77] Creating layer conv3
I0108 19:50:13.685932   473 net.cpp:94] Creating Layer conv3
I0108 19:50:13.685935   473 net.cpp:435] conv3 <- pool2
I0108 19:50:13.685940   473 net.cpp:409] conv3 -> conv3
I0108 19:50:13.696084   473 net.cpp:144] Setting up conv3
I0108 19:50:13.696116   473 net.cpp:151] Top shape: 50 384 13 13 (3244800)
I0108 19:50:13.696125   473 net.cpp:159] Memory required for data: 352761400
I0108 19:50:13.696133   473 layer_factory.hpp:77] Creating layer relu3
I0108 19:50:13.696139   473 net.cpp:94] Creating Layer relu3
I0108 19:50:13.696144   473 net.cpp:435] relu3 <- conv3
I0108 19:50:13.696151   473 net.cpp:409] relu3 -> relu3
I0108 19:50:13.696171   473 net.cpp:144] Setting up relu3
I0108 19:50:13.696177   473 net.cpp:151] Top shape: 50 384 13 13 (3244800)
I0108 19:50:13.696182   473 net.cpp:159] Memory required for data: 365740600
I0108 19:50:13.696185   473 layer_factory.hpp:77] Creating layer conv4
I0108 19:50:13.696194   473 net.cpp:94] Creating Layer conv4
I0108 19:50:13.696198   473 net.cpp:435] conv4 <- relu3
I0108 19:50:13.696203   473 net.cpp:409] conv4 -> conv4
I0108 19:50:13.710542   473 net.cpp:144] Setting up conv4
I0108 19:50:13.710561   473 net.cpp:151] Top shape: 50 384 13 13 (3244800)
I0108 19:50:13.710568   473 net.cpp:159] Memory required for data: 378719800
I0108 19:50:13.710595   473 layer_factory.hpp:77] Creating layer relu4
I0108 19:50:13.710602   473 net.cpp:94] Creating Layer relu4
I0108 19:50:13.710608   473 net.cpp:435] relu4 <- conv4
I0108 19:50:13.710615   473 net.cpp:409] relu4 -> relu4
I0108 19:50:13.710636   473 net.cpp:144] Setting up relu4
I0108 19:50:13.710639   473 net.cpp:151] Top shape: 50 384 13 13 (3244800)
I0108 19:50:13.710644   473 net.cpp:159] Memory required for data: 391699000
I0108 19:50:13.710646   473 layer_factory.hpp:77] Creating layer conv5
I0108 19:50:13.710654   473 net.cpp:94] Creating Layer conv5
I0108 19:50:13.710657   473 net.cpp:435] conv5 <- relu4
I0108 19:50:13.710662   473 net.cpp:409] conv5 -> conv5
I0108 19:50:13.721084   473 net.cpp:144] Setting up conv5
I0108 19:50:13.721101   473 net.cpp:151] Top shape: 50 256 13 13 (2163200)
I0108 19:50:13.721109   473 net.cpp:159] Memory required for data: 400351800
I0108 19:50:13.721118   473 layer_factory.hpp:77] Creating layer relu5
I0108 19:50:13.721125   473 net.cpp:94] Creating Layer relu5
I0108 19:50:13.721129   473 net.cpp:435] relu5 <- conv5
I0108 19:50:13.721135   473 net.cpp:409] relu5 -> relu5
I0108 19:50:13.721158   473 net.cpp:144] Setting up relu5
I0108 19:50:13.721160   473 net.cpp:151] Top shape: 50 256 13 13 (2163200)
I0108 19:50:13.721164   473 net.cpp:159] Memory required for data: 409004600
I0108 19:50:13.721168   473 layer_factory.hpp:77] Creating layer pool5
I0108 19:50:13.721174   473 net.cpp:94] Creating Layer pool5
I0108 19:50:13.721176   473 net.cpp:435] pool5 <- relu5
I0108 19:50:13.721196   473 net.cpp:409] pool5 -> pool5
I0108 19:50:13.721220   473 net.cpp:144] Setting up pool5
I0108 19:50:13.721225   473 net.cpp:151] Top shape: 50 256 6 6 (460800)
I0108 19:50:13.721230   473 net.cpp:159] Memory required for data: 410847800
I0108 19:50:13.721233   473 layer_factory.hpp:77] Creating layer fc6
I0108 19:50:13.721241   473 net.cpp:94] Creating Layer fc6
I0108 19:50:13.721244   473 net.cpp:435] fc6 <- pool5
I0108 19:50:13.721249   473 net.cpp:409] fc6 -> fc6
I0108 19:50:14.061691   473 net.cpp:144] Setting up fc6
I0108 19:50:14.061714   473 net.cpp:151] Top shape: 50 4096 (204800)
I0108 19:50:14.061723   473 net.cpp:159] Memory required for data: 411667000
I0108 19:50:14.061733   473 layer_factory.hpp:77] Creating layer relu6
I0108 19:50:14.061739   473 net.cpp:94] Creating Layer relu6
I0108 19:50:14.061743   473 net.cpp:435] relu6 <- fc6
I0108 19:50:14.061748   473 net.cpp:409] relu6 -> relu6
I0108 19:50:14.061774   473 net.cpp:144] Setting up relu6
I0108 19:50:14.061776   473 net.cpp:151] Top shape: 50 4096 (204800)
I0108 19:50:14.061780   473 net.cpp:159] Memory required for data: 412486200
I0108 19:50:14.061784   473 layer_factory.hpp:77] Creating layer drop6
I0108 19:50:14.061794   473 net.cpp:94] Creating Layer drop6
I0108 19:50:14.061813   473 net.cpp:435] drop6 <- relu6
I0108 19:50:14.061817   473 net.cpp:409] drop6 -> drop6
I0108 19:50:14.061841   473 net.cpp:144] Setting up drop6
I0108 19:50:14.061844   473 net.cpp:151] Top shape: 50 4096 (204800)
I0108 19:50:14.061866   473 net.cpp:159] Memory required for data: 413305400
I0108 19:50:14.061868   473 layer_factory.hpp:77] Creating layer fc7
I0108 19:50:14.061875   473 net.cpp:94] Creating Layer fc7
I0108 19:50:14.061878   473 net.cpp:435] fc7 <- drop6
I0108 19:50:14.061884   473 net.cpp:409] fc7 -> fc7
I0108 19:50:14.206321   473 net.cpp:144] Setting up fc7
I0108 19:50:14.206342   473 net.cpp:151] Top shape: 50 4096 (204800)
I0108 19:50:14.206349   473 net.cpp:159] Memory required for data: 414124600
I0108 19:50:14.206359   473 layer_factory.hpp:77] Creating layer bn7
I0108 19:50:14.206367   473 net.cpp:94] Creating Layer bn7
I0108 19:50:14.206372   473 net.cpp:435] bn7 <- fc7
I0108 19:50:14.206378   473 net.cpp:409] bn7 -> bn7
I0108 19:50:14.206857   473 net.cpp:144] Setting up bn7
I0108 19:50:14.206864   473 net.cpp:151] Top shape: 50 4096 (204800)
I0108 19:50:14.206868   473 net.cpp:159] Memory required for data: 414943800
I0108 19:50:14.206876   473 layer_factory.hpp:77] Creating layer relu7
I0108 19:50:14.206881   473 net.cpp:94] Creating Layer relu7
I0108 19:50:14.206885   473 net.cpp:435] relu7 <- bn7
I0108 19:50:14.206889   473 net.cpp:409] relu7 -> relu7
I0108 19:50:14.206907   473 net.cpp:144] Setting up relu7
I0108 19:50:14.206912   473 net.cpp:151] Top shape: 50 4096 (204800)
I0108 19:50:14.206915   473 net.cpp:159] Memory required for data: 415763000
I0108 19:50:14.206919   473 layer_factory.hpp:77] Creating layer drop7
I0108 19:50:14.206925   473 net.cpp:94] Creating Layer drop7
I0108 19:50:14.206929   473 net.cpp:435] drop7 <- relu7
I0108 19:50:14.206933   473 net.cpp:409] drop7 -> drop7
I0108 19:50:14.206974   473 net.cpp:144] Setting up drop7
I0108 19:50:14.206979   473 net.cpp:151] Top shape: 50 4096 (204800)
I0108 19:50:14.206984   473 net.cpp:159] Memory required for data: 416582200
I0108 19:50:14.206987   473 layer_factory.hpp:77] Creating layer fc8
I0108 19:50:14.206993   473 net.cpp:94] Creating Layer fc8
I0108 19:50:14.206997   473 net.cpp:435] fc8 <- drop7
I0108 19:50:14.207002   473 net.cpp:409] fc8 -> fc8
I0108 19:50:14.207168   473 net.cpp:144] Setting up fc8
I0108 19:50:14.207173   473 net.cpp:151] Top shape: 50 2 (100)
I0108 19:50:14.207178   473 net.cpp:159] Memory required for data: 416582600
I0108 19:50:14.207183   473 layer_factory.hpp:77] Creating layer fc8_fc8_0_split
I0108 19:50:14.207190   473 net.cpp:94] Creating Layer fc8_fc8_0_split
I0108 19:50:14.207193   473 net.cpp:435] fc8_fc8_0_split <- fc8
I0108 19:50:14.207197   473 net.cpp:409] fc8_fc8_0_split -> fc8_fc8_0_split_0
I0108 19:50:14.207203   473 net.cpp:409] fc8_fc8_0_split -> fc8_fc8_0_split_1
I0108 19:50:14.207209   473 net.cpp:409] fc8_fc8_0_split -> fc8_fc8_0_split_2
I0108 19:50:14.207242   473 net.cpp:144] Setting up fc8_fc8_0_split
I0108 19:50:14.207247   473 net.cpp:151] Top shape: 50 2 (100)
I0108 19:50:14.207252   473 net.cpp:151] Top shape: 50 2 (100)
I0108 19:50:14.207257   473 net.cpp:151] Top shape: 50 2 (100)
I0108 19:50:14.207260   473 net.cpp:159] Memory required for data: 416583800
I0108 19:50:14.207263   473 layer_factory.hpp:77] Creating layer accuracy
I0108 19:50:14.207270   473 net.cpp:94] Creating Layer accuracy
I0108 19:50:14.207273   473 net.cpp:435] accuracy <- fc8_fc8_0_split_0
I0108 19:50:14.207278   473 net.cpp:435] accuracy <- label_data_1_split_0
I0108 19:50:14.207283   473 net.cpp:409] accuracy -> accuracy
…
I0108 19:54:57.110186  2043 net.cpp:323] The NetState phase (0) differed from the phase (1) specified by a rule in layer accuracy
I0108 19:54:57.110190  2043 net.cpp:323] The NetState phase (0) differed from the phase (1) specified by a rule in layer accuracy-top1
I0108 19:54:57.110194  2043 net.cpp:52] Initializing net from parameters:
state {
  phase: TRAIN
}
layer {
  name: "data"
  type: "Data"
  top: "data"
  top: "label"
  include {
    phase: TRAIN
  }
  transform_param {
    mirror: true
    crop_size: 227
    mean_value: 106
    mean_value: 116
    mean_value: 124
  }
  data_param {
    source: "input/lmdb/train_lmdb"
    batch_size: 256
    backend: LMDB
  }
}
layer {
  name: "conv1"
  type: "Convolution"
  bottom: "data"
  top: "conv1"
  param {
    lr_mult: 1
    decay_mult: 1
    compression: PRUNE
  }
  param {
    lr_mult: 2
    decay_mult: 0
    compression: PRUNE
  }
  convolution_param {
    num_output: 96
    pad: 1
    kernel_size: 11
    stride: 4
    weight_filler {
      type: "gaussian"
      std: 0.01
    }
    bias_filler {
      type: "constant"
      value: 0
    }
  }
}
layer {
  name: "bn1"
  type: "BatchNorm"
  bottom: "conv1"
  top: "bn1"
  param {
    lr_mult: 0
    compression: PRUNE
  }
  param {
    lr_mult: 0
    compression: PRUNE
  }
  param {
    lr_mult: 0
    compression: PRUNE
  }
  batch_norm_param {
    use_global_stats: false
  }
}
layer {
  name: "relu1"
  type: "ReLU"
  bottom: "bn1"
  top: "relu1"
}
layer {
  name: "pool1"
  type: "Pooling"
  bottom: "relu1"
  top: "pool1"
  pooling_param {
    pool: MAX
    kernel_size: 3
    stride: 2
  }
}
layer {
  name: "conv2"
  type: "Convolution"
  bottom: "pool1"
  top: "conv2"
  param {
    lr_mult: 1
    decay_mult: 1
    compression: PRUNE
  }
  param {
    lr_mult: 2
    decay_mult: 0
    compression: PRUNE
  }
  convolution_param {
    num_output: 256
    pad: 2
    kernel_size: 5
    group: 1
    weight_filler {
      type: "gaussian"
      std: 0.01
    }
    bias_filler {
      type: "constant"
      value: 1
    }
  }
}
layer {
  name: "bn2"
  type: "BatchNorm"
  bottom: "conv2"
  top: "bn2"
  param {
    lr_mult: 0
    compression: PRUNE
  }
  param {
    lr_mult: 0
    compression: PRUNE
  }
  param {
    lr_mult: 0
    compression: PRUNE
  }
  batch_norm_param {
    use_global_stats: false
  }
}
layer {
  name: "relu2"
  type: "ReLU"
  bottom: "bn2"
  top: "relu2"
}
layer {
  name: "pool2"
  type: "Pooling"
  bottom: "relu2"
  top: "pool2"
  pooling_param {
    pool: MAX
    kernel_size: 3
    stride: 2
  }
}
layer {
  name: "conv3"
  type: "Convolution"
  bottom: "pool2"
  top: "conv3"
  param {
    lr_mult: 1
    decay_mult: 1
    compression: PRUNE
  }
  param {
    lr_mult: 2
    decay_mult: 0
    compression: PRUNE
  }
  convolution_param {
    num_output: 384
    pad: 1
    kernel_size: 3
    weight_filler {
      type: "gaussian"
      std: 0.01
    }
    bias_filler {
      type: "constant"
      value: 0
    }
  }
}
layer {
  name: "relu3"
  type: "ReLU"
  bottom: "conv3"
  top: "relu3"
}
layer {
  name: "conv4"
  type: "Convolution"
  bottom: "relu3"
  top: "conv4"
  param {
    lr_mult: 1
    decay_mult: 1
    compression: PRUNE
  }
  param {
    lr_mult: 2
    decay_mult: 0
    compression: PRUNE
  }
  convolution_param {
    num_output: 384
    pad: 1
    kernel_size: 3
    group: 1
    weight_filler {
      type: "gaussian"
      std: 0.01
    }
    bias_filler {
      type: "constant"
      value: 1
    }
  }
}
layer {
  name: "relu4"
  type: "ReLU"
  bottom: "conv4"
  top: "relu4"
}
layer {
  name: "conv5"
  type: "Convolution"
  bottom: "relu4"
  top: "conv5"
  param {
    lr_mult: 1
    decay_mult: 1
    compression: PRUNE
  }
  param {
    lr_mult: 2
    decay_mult: 0
    compression: PRUNE
  }
  convolution_param {
    num_output: 256
    pad: 1
    kernel_size: 3
    group: 1
    weight_filler {
      type: "gaussian"
      std: 0.01
    }
    bias_filler {
      type: "constant"
      value: 1
    }
  }
}
layer {
  name: "relu5"
  type: "ReLU"
  bottom: "conv5"
  top: "relu5"
}
layer {
  name: "pool5"
  type: "Pooling"
  bottom: "relu5"
  top: "pool5"
  pooling_param {
    pool: MAX
    kernel_size: 3
    stride: 2
  }
}
layer {
  name: "fc6"
  type: "InnerProduct"
  bottom: "pool5"
  top: "fc6"
  param {
    lr_mult: 1
    decay_mult: 1
  }
  param {
    lr_mult: 2
    decay_mult: 0
  }
  inner_product_param {
    num_output: 4096
    weight_filler {
      type: "gaussian"
      std: 0.005
    }
    bias_filler {
      type: "constant"
      value: 1
    }
  }
}
layer {
  name: "relu6"
  type: "ReLU"
  bottom: "fc6"
  top: "relu6"
}
layer {
  name: "drop6"
  type: "Dropout"
  bottom: "relu6"
  top: "drop6"
  dropout_param {
    dropout_ratio: 0.5
  }
}
layer {
  name: "fc7"
  type: "InnerProduct"
  bottom: "drop6"
  top: "fc7"
  param {
    lr_mult: 1
    decay_mult: 1
  }
  param {
    lr_mult: 2
    decay_mult: 0
  }
  inner_product_param {
    num_output: 4096
    weight_filler {
      type: "gaussian"
      std: 0.005
    }
    bias_filler {
      type: "constant"
      value: 1
    }
  }
}
layer {
  name: "bn7"
  type: "BatchNorm"
  bottom: "fc7"
  top: "bn7"
  param {
    lr_mult: 0
    compression: PRUNE
  }
  param {
    lr_mult: 0
    compression: PRUNE
  }
  param {
    lr_mult: 0
    compression: PRUNE
  }
  batch_norm_param {
    use_global_stats: false
  }
}
layer {
  name: "relu7"
  type: "ReLU"
  bottom: "bn7"
  top: "relu7"
}
layer {
  name: "drop7"
  type: "Dropout"
  bottom: "relu7"
  top: "drop7"
  dropout_param {
    dropout_ratio: 0.5
  }
}
layer {
  name: "fc8"
  type: "InnerProduct"
  bottom: "drop7"
  top: "fc8"
  param {
    lr_mult: 1
    decay_mult: 1
  }
  param {
    lr_mult: 2
    decay_mult: 0
  }
  inner_product_param {
    num_output: 2
    weight_filler {
      type: "gaussian"
      std: 0.01
    }
    bias_filler {
      type: "constant"
      value: 0
    }
  }
}
layer {
  name: "loss"
  type: "SoftmaxWithLoss"
  bottom: "fc8"
  bottom: "label"
  top: "loss"
}
I0108 19:54:57.110424  2043 layer_factory.hpp:77] Creating layer data
I0108 19:54:57.110584  2043 internal_thread.cpp:27] Starting internal thread(s) on GPU 0
I0108 19:54:57.112262  2043 net.cpp:94] Creating Layer data
I0108 19:54:57.112275  2043 net.cpp:409] data -> data
I0108 19:54:57.112287  2043 net.cpp:409] data -> label
I0108 19:54:57.113540  2080 db_lmdb.cpp:35] Opened lmdb input/lmdb/train_lmdb
I0108 19:54:57.113561  2080 db_lmdb.cpp:38] Items count: 20000
I0108 19:54:57.113582  2080 data_reader.cpp:124] TRAIN: reading data using 1 channel(s)
I0108 19:54:57.113839  2043 data_layer.cpp:78] ReshapePrefetch 256, 3, 227, 227
I0108 19:54:57.113924  2043 data_layer.cpp:83] output data size: 256,3,227,227
I0108 19:54:57.591315  2043 internal_thread.cpp:27] Starting internal thread(s) on GPU 0
I0108 19:54:57.591400  2043 net.cpp:144] Setting up data
I0108 19:54:57.591405  2043 net.cpp:151] Top shape: 256 3 227 227 (39574272)
I0108 19:54:57.591429  2043 net.cpp:151] Top shape: 256 (256)
I0108 19:54:57.591434  2043 net.cpp:159] Memory required for data: 158298112
I0108 19:54:57.591439  2043 layer_factory.hpp:77] Creating layer conv1
I0108 19:54:57.591449  2043 net.cpp:94] Creating Layer conv1
I0108 19:54:57.591462  2043 net.cpp:435] conv1 <- data
I0108 19:54:57.591468  2043 net.cpp:409] conv1 -> conv1
I0108 19:54:57.592092  2043 net.cpp:144] Setting up conv1
I0108 19:54:57.592098  2043 net.cpp:151] Top shape: 256 96 55 55 (74342400)
I0108 19:54:57.592104  2043 net.cpp:159] Memory required for data: 455667712
I0108 19:54:57.592114  2043 layer_factory.hpp:77] Creating layer bn1
I0108 19:54:57.592123  2043 net.cpp:94] Creating Layer bn1
I0108 19:54:57.592125  2043 net.cpp:435] bn1 <- conv1
I0108 19:54:57.592130  2043 net.cpp:409] bn1 -> bn1
I0108 19:54:57.592648  2043 net.cpp:144] Setting up bn1
I0108 19:54:57.592653  2043 net.cpp:151] Top shape: 256 96 55 55 (74342400)
I0108 19:54:57.592658  2043 net.cpp:159] Memory required for data: 753037312
I0108 19:54:57.592665  2043 layer_factory.hpp:77] Creating layer relu1
I0108 19:54:57.592670  2043 net.cpp:94] Creating Layer relu1
I0108 19:54:57.592674  2043 net.cpp:435] relu1 <- bn1
I0108 19:54:57.592679  2043 net.cpp:409] relu1 -> relu1
I0108 19:54:57.592694  2043 net.cpp:144] Setting up relu1
I0108 19:54:57.592696  2043 net.cpp:151] Top shape: 256 96 55 55 (74342400)
I0108 19:54:57.592700  2043 net.cpp:159] Memory required for data: 1050406912
I0108 19:54:57.592705  2043 layer_factory.hpp:77] Creating layer pool1
I0108 19:54:57.592710  2043 net.cpp:94] Creating Layer pool1
I0108 19:54:57.592712  2043 net.cpp:435] pool1 <- relu1
I0108 19:54:57.592717  2043 net.cpp:409] pool1 -> pool1
I0108 19:54:57.592738  2043 net.cpp:144] Setting up pool1
I0108 19:54:57.592741  2043 net.cpp:151] Top shape: 256 96 27 27 (17915904)
I0108 19:54:57.592746  2043 net.cpp:159] Memory required for data: 1122070528
I0108 19:54:57.592749  2043 layer_factory.hpp:77] Creating layer conv2
I0108 19:54:57.592756  2043 net.cpp:94] Creating Layer conv2
I0108 19:54:57.592759  2043 net.cpp:435] conv2 <- pool1
I0108 19:54:57.592764  2043 net.cpp:409] conv2 -> conv2
I0108 19:54:57.607954  2043 net.cpp:144] Setting up conv2
I0108 19:54:57.607967  2043 net.cpp:151] Top shape: 256 256 27 27 (47775744)
I0108 19:54:57.607975  2043 net.cpp:159] Memory required for data: 1313173504
I0108 19:54:57.608000  2043 layer_factory.hpp:77] Creating layer bn2
I0108 19:54:57.608007  2043 net.cpp:94] Creating Layer bn2
I0108 19:54:57.608011  2043 net.cpp:435] bn2 <- conv2
I0108 19:54:57.608016  2043 net.cpp:409] bn2 -> bn2
I0108 19:54:57.608588  2043 net.cpp:144] Setting up bn2
I0108 19:54:57.608597  2043 net.cpp:151] Top shape: 256 256 27 27 (47775744)
I0108 19:54:57.608603  2043 net.cpp:159] Memory required for data: 1504276480
I0108 19:54:57.608611  2043 layer_factory.hpp:77] Creating layer relu2
I0108 19:54:57.608618  2043 net.cpp:94] Creating Layer relu2
I0108 19:54:57.608621  2043 net.cpp:435] relu2 <- bn2
I0108 19:54:57.608625  2043 net.cpp:409] relu2 -> relu2
I0108 19:54:57.608642  2043 net.cpp:144] Setting up relu2
I0108 19:54:57.608649  2043 net.cpp:151] Top shape: 256 256 27 27 (47775744)
I0108 19:54:57.608655  2043 net.cpp:159] Memory required for data: 1695379456
I0108 19:54:57.608659  2043 layer_factory.hpp:77] Creating layer pool2
I0108 19:54:57.608716  2043 net.cpp:94] Creating Layer pool2
I0108 19:54:57.608741  2043 net.cpp:435] pool2 <- relu2
I0108 19:54:57.608754  2043 net.cpp:409] pool2 -> pool2
I0108 19:54:57.608882  2043 net.cpp:144] Setting up pool2
I0108 19:54:57.608897  2043 net.cpp:151] Top shape: 256 256 13 13 (11075584)
I0108 19:54:57.608911  2043 net.cpp:159] Memory required for data: 1739681792
I0108 19:54:57.608919  2043 layer_factory.hpp:77] Creating layer conv3
I0108 19:54:57.608976  2043 net.cpp:94] Creating Layer conv3
I0108 19:54:57.608985  2043 net.cpp:435] conv3 <- pool2
I0108 19:54:57.608996  2043 net.cpp:409] conv3 -> conv3
I0108 19:54:57.627166  2043 net.cpp:144] Setting up conv3
I0108 19:54:57.627193  2043 net.cpp:151] Top shape: 256 384 13 13 (16613376)
I0108 19:54:57.627213  2043 net.cpp:159] Memory required for data: 1806135296
I0108 19:54:57.627228  2043 layer_factory.hpp:77] Creating layer relu3
I0108 19:54:57.627243  2043 net.cpp:94] Creating Layer relu3
I0108 19:54:57.627260  2043 net.cpp:435] relu3 <- conv3
I0108 19:54:57.627275  2043 net.cpp:409] relu3 -> relu3
I0108 19:54:57.627337  2043 net.cpp:144] Setting up relu3
I0108 19:54:57.627349  2043 net.cpp:151] Top shape: 256 384 13 13 (16613376)
I0108 19:54:57.627360  2043 net.cpp:159] Memory required for data: 1872588800
I0108 19:54:57.627367  2043 layer_factory.hpp:77] Creating layer conv4
I0108 19:54:57.627382  2043 net.cpp:94] Creating Layer conv4
I0108 19:54:57.627388  2043 net.cpp:435] conv4 <- relu3
I0108 19:54:57.627398  2043 net.cpp:409] conv4 -> conv4
I0108 19:54:57.654783  2043 net.cpp:144] Setting up conv4
I0108 19:54:57.654811  2043 net.cpp:151] Top shape: 256 384 13 13 (16613376)
I0108 19:54:57.654826  2043 net.cpp:159] Memory required for data: 1939042304
I0108 19:54:57.654848  2043 layer_factory.hpp:77] Creating layer relu4
I0108 19:54:57.654876  2043 net.cpp:94] Creating Layer relu4
I0108 19:54:57.654886  2043 net.cpp:435] relu4 <- conv4
I0108 19:54:57.654897  2043 net.cpp:409] relu4 -> relu4
I0108 19:54:57.654944  2043 net.cpp:144] Setting up relu4
I0108 19:54:57.654955  2043 net.cpp:151] Top shape: 256 384 13 13 (16613376)
I0108 19:54:57.654964  2043 net.cpp:159] Memory required for data: 2005495808
I0108 19:54:57.654970  2043 layer_factory.hpp:77] Creating layer conv5
I0108 19:54:57.654986  2043 net.cpp:94] Creating Layer conv5
I0108 19:54:57.654992  2043 net.cpp:435] conv5 <- relu4
I0108 19:54:57.655000  2043 net.cpp:409] conv5 -> conv5
I0108 19:54:57.669008  2043 net.cpp:144] Setting up conv5
I0108 19:54:57.669034  2043 net.cpp:151] Top shape: 256 256 13 13 (11075584)
I0108 19:54:57.669044  2043 net.cpp:159] Memory required for data: 2049798144
I0108 19:54:57.669055  2043 layer_factory.hpp:77] Creating layer relu5
I0108 19:54:57.669064  2043 net.cpp:94] Creating Layer relu5
I0108 19:54:57.669070  2043 net.cpp:435] relu5 <- conv5
I0108 19:54:57.669082  2043 net.cpp:409] relu5 -> relu5
I0108 19:54:57.669133  2043 net.cpp:144] Setting up relu5
I0108 19:54:57.669144  2043 net.cpp:151] Top shape: 256 256 13 13 (11075584)
I0108 19:54:57.669162  2043 net.cpp:159] Memory required for data: 2094100480
I0108 19:54:57.669168  2043 layer_factory.hpp:77] Creating layer pool5
I0108 19:54:57.669179  2043 net.cpp:94] Creating Layer pool5
I0108 19:54:57.669188  2043 net.cpp:435] pool5 <- relu5
I0108 19:54:57.669199  2043 net.cpp:409] pool5 -> pool5
I0108 19:54:57.669248  2043 net.cpp:144] Setting up pool5
I0108 19:54:57.669255  2043 net.cpp:151] Top shape: 256 256 6 6 (2359296)
I0108 19:54:57.669262  2043 net.cpp:159] Memory required for data: 2103537664
I0108 19:54:57.669267  2043 layer_factory.hpp:77] Creating layer fc6
I0108 19:54:57.669284  2043 net.cpp:94] Creating Layer fc6
I0108 19:54:57.669293  2043 net.cpp:435] fc6 <- pool5
I0108 19:54:57.669303  2043 net.cpp:409] fc6 -> fc6
I0108 19:54:58.039837  2043 net.cpp:144] Setting up fc6
I0108 19:54:58.039870  2043 net.cpp:151] Top shape: 256 4096 (1048576)
I0108 19:54:58.039885  2043 net.cpp:159] Memory required for data: 2107731968
I0108 19:54:58.039901  2043 layer_factory.hpp:77] Creating layer relu6
I0108 19:54:58.039912  2043 net.cpp:94] Creating Layer relu6
I0108 19:54:58.039925  2043 net.cpp:435] relu6 <- fc6
I0108 19:54:58.039935  2043 net.cpp:409] relu6 -> relu6
I0108 19:54:58.039965  2043 net.cpp:144] Setting up relu6
I0108 19:54:58.039974  2043 net.cpp:151] Top shape: 256 4096 (1048576)
I0108 19:54:58.039983  2043 net.cpp:159] Memory required for data: 2111926272
I0108 19:54:58.039989  2043 layer_factory.hpp:77] Creating layer drop6
I0108 19:54:58.040007  2043 net.cpp:94] Creating Layer drop6
I0108 19:54:58.040030  2043 net.cpp:435] drop6 <- relu6
I0108 19:54:58.040036  2043 net.cpp:409] drop6 -> drop6
I0108 19:54:58.040071  2043 net.cpp:144] Setting up drop6
I0108 19:54:58.040077  2043 net.cpp:151] Top shape: 256 4096 (1048576)
I0108 19:54:58.040084  2043 net.cpp:159] Memory required for data: 2116120576
I0108 19:54:58.040089  2043 layer_factory.hpp:77] Creating layer fc7
I0108 19:54:58.040097  2043 net.cpp:94] Creating Layer fc7
I0108 19:54:58.040102  2043 net.cpp:435] fc7 <- drop6
I0108 19:54:58.040109  2043 net.cpp:409] fc7 -> fc7
I0108 19:54:58.199179  2043 net.cpp:144] Setting up fc7
I0108 19:54:58.199203  2043 net.cpp:151] Top shape: 256 4096 (1048576)
I0108 19:54:58.199216  2043 net.cpp:159] Memory required for data: 2120314880
I0108 19:54:58.199229  2043 layer_factory.hpp:77] Creating layer bn7
I0108 19:54:58.199240  2043 net.cpp:94] Creating Layer bn7
I0108 19:54:58.199249  2043 net.cpp:435] bn7 <- fc7
I0108 19:54:58.199259  2043 net.cpp:409] bn7 -> bn7
I0108 19:54:58.199808  2043 net.cpp:144] Setting up bn7
I0108 19:54:58.199816  2043 net.cpp:151] Top shape: 256 4096 (1048576)
I0108 19:54:58.199828  2043 net.cpp:159] Memory required for data: 2124509184
I0108 19:54:58.199842  2043 layer_factory.hpp:77] Creating layer relu7
I0108 19:54:58.199852  2043 net.cpp:94] Creating Layer relu7
I0108 19:54:58.199858  2043 net.cpp:435] relu7 <- bn7
I0108 19:54:58.199867  2043 net.cpp:409] relu7 -> relu7
I0108 19:54:58.199887  2043 net.cpp:144] Setting up relu7
I0108 19:54:58.199898  2043 net.cpp:151] Top shape: 256 4096 (1048576)
I0108 19:54:58.199906  2043 net.cpp:159] Memory required for data: 2128703488
I0108 19:54:58.199909  2043 layer_factory.hpp:77] Creating layer drop7
I0108 19:54:58.199915  2043 net.cpp:94] Creating Layer drop7
I0108 19:54:58.199919  2043 net.cpp:435] drop7 <- relu7
I0108 19:54:58.199928  2043 net.cpp:409] drop7 -> drop7
I0108 19:54:58.199950  2043 net.cpp:144] Setting up drop7
I0108 19:54:58.199954  2043 net.cpp:151] Top shape: 256 4096 (1048576)
I0108 19:54:58.199959  2043 net.cpp:159] Memory required for data: 2132897792
I0108 19:54:58.199962  2043 layer_factory.hpp:77] Creating layer fc8
I0108 19:54:58.199971  2043 net.cpp:94] Creating Layer fc8
I0108 19:54:58.199976  2043 net.cpp:435] fc8 <- drop7
I0108 19:54:58.199983  2043 net.cpp:409] fc8 -> fc8
I0108 19:54:58.200139  2043 net.cpp:144] Setting up fc8
I0108 19:54:58.200145  2043 net.cpp:151] Top shape: 256 2 (512)
I0108 19:54:58.200150  2043 net.cpp:159] Memory required for data: 2132899840
I0108 19:54:58.200158  2043 layer_factory.hpp:77] Creating layer loss
I0108 19:54:58.200165  2043 net.cpp:94] Creating Layer loss
I0108 19:54:58.200170  2043 net.cpp:435] loss <- fc8
I0108 19:54:58.200176  2043 net.cpp:435] loss <- label
I0108 19:54:58.200181  2043 net.cpp:409] loss -> loss
I0108 19:54:58.200187  2043 layer_factory.hpp:77] Creating layer loss
…
(c) Copyright 2016–2019 Xilinx, Inc. All rights reserved.

I0109 03:00:37.621917  9556 net.cpp:323] The NetState phase (1) differed from the phase (0) specified by a rule in layer data
I0109 03:00:37.622138  9556 net.cpp:52] Initializing net from parameters:
state {
  phase: TEST
}
layer {
  name: "data"
  type: "Data"
  top: "data"
  top: "label"
  include {
    phase: TEST
  }
  transform_param {
    mirror: false
    crop_size: 227
    mean_value: 106
    mean_value: 116
    mean_value: 124
  }
  data_param {
    source: "input/lmdb/valid_lmdb"
    batch_size: 50
    backend: LMDB
  }
}
layer {
  name: "conv1"
  type: "Convolution"
  bottom: "data"
  top: "conv1"
  param {
    lr_mult: 1
    decay_mult: 1
  }
  param {
    lr_mult: 2
    decay_mult: 0
  }
  convolution_param {
    num_output: 78
    pad: 1
    kernel_size: 11
    stride: 4
    weight_filler {
      type: "gaussian"
      std: 0.01
    }
    bias_filler {
      type: "constant"
      value: 0
    }
  }
}
layer {
  name: "bn1"
  type: "BatchNorm"
  bottom: "conv1"
  top: "bn1"
  param {
    lr_mult: 0
  }
  param {
    lr_mult: 0
  }
  param {
    lr_mult: 0
  }
  batch_norm_param {
    use_global_stats: false
  }
}
layer {
  name: "relu1"
  type: "ReLU"
  bottom: "bn1"
  top: "relu1"
}
layer {
  name: "pool1"
  type: "Pooling"
  bottom: "relu1"
  top: "pool1"
  pooling_param {
    pool: MAX
    kernel_size: 3
    stride: 2
  }
}
layer {
  name: "conv2"
  type: "Convolution"
  bottom: "pool1"
  top: "conv2"
  param {
    lr_mult: 1
    decay_mult: 1
  }
  param {
    lr_mult: 2
    decay_mult: 0
  }
  convolution_param {
    num_output: 154
    pad: 2
    kernel_size: 5
    group: 1
    weight_filler {
      type: "gaussian"
      std: 0.01
    }
    bias_filler {
      type: "constant"
      value: 1
    }
  }
}
layer {
  name: "bn2"
  type: "BatchNorm"
  bottom: "conv2"
  top: "bn2"
  param {
    lr_mult: 0
  }
  param {
    lr_mult: 0
  }
  param {
    lr_mult: 0
  }
  batch_norm_param {
    use_global_stats: false
  }
}
layer {
  name: "relu2"
  type: "ReLU"
  bottom: "bn2"
  top: "relu2"
}
layer {
  name: "pool2"
  type: "Pooling"
  bottom: "relu2"
  top: "pool2"
  pooling_param {
    pool: MAX
    kernel_size: 3
    stride: 2
  }
}
layer {
  name: "conv3"
  type: "Convolution"
  bottom: "pool2"
  top: "conv3"
  param {
    lr_mult: 1
    decay_mult: 1
  }
  param {
    lr_mult: 2
    decay_mult: 0
  }
  convolution_param {
    num_output: 40
    pad: 1
    kernel_size: 3
    weight_filler {
      type: "gaussian"
      std: 0.01
    }
    bias_filler {
      type: "constant"
      value: 0
    }
  }
}
layer {
  name: "relu3"
  type: "ReLU"
  bottom: "conv3"
  top: "relu3"
}
layer {
  name: "conv4"
  type: "Convolution"
  bottom: "relu3"
  top: "conv4"
  param {
    lr_mult: 1
    decay_mult: 1
  }
  param {
    lr_mult: 2
    decay_mult: 0
  }
  convolution_param {
    num_output: 40
    pad: 1
    kernel_size: 3
    group: 1
    weight_filler {
      type: "gaussian"
      std: 0.01
    }
    bias_filler {
      type: "constant"
      value: 1
    }
  }
}
layer {
  name: "relu4"
  type: "ReLU"
  bottom: "conv4"
  top: "relu4"
}
layer {
  name: "conv5"
  type: "Convolution"
  bottom: "relu4"
  top: "conv5"
  param {
    lr_mult: 1
    decay_mult: 1
  }
  param {
    lr_mult: 2
    decay_mult: 0
  }
  convolution_param {
    num_output: 26
    pad: 1
    kernel_size: 3
    group: 1
    weight_filler {
      type: "gaussian"
      std: 0.01
    }
    bias_filler {
      type: "constant"
      value: 1
    }
  }
}
layer {
  name: "relu5"
  type: "ReLU"
  bottom: "conv5"
  top: "relu5"
}
layer {
  name: "pool5"
  type: "Pooling"
  bottom: "relu5"
  top: "pool5"
  pooling_param {
    pool: MAX
    kernel_size: 3
    stride: 2
  }
}
layer {
  name: "fc6"
  type: "InnerProduct"
  bottom: "pool5"
  top: "fc6"
  param {
    lr_mult: 1
    decay_mult: 1
  }
  param {
    lr_mult: 2
    decay_mult: 0
  }
  inner_product_param {
    num_output: 4096
    weight_filler {
      type: "gaussian"
      std: 0.005
    }
    bias_filler {
      type: "constant"
      value: 1
    }
  }
}
layer {
  name: "relu6"
  type: "ReLU"
  bottom: "fc6"
  top: "relu6"
}
layer {
  name: "drop6"
  type: "Dropout"
  bottom: "relu6"
  top: "drop6"
  dropout_param {
    dropout_ratio: 0.5
  }
}
layer {
  name: "fc7"
  type: "InnerProduct"
  bottom: "drop6"
  top: "fc7"
  param {
    lr_mult: 1
    decay_mult: 1
  }
  param {
    lr_mult: 2
    decay_mult: 0
  }
  inner_product_param {
    num_output: 4096
    weight_filler {
      type: "gaussian"
      std: 0.005
    }
    bias_filler {
      type: "constant"
      value: 1
    }
  }
}
layer {
  name: "bn7"
  type: "BatchNorm"
  bottom: "fc7"
  top: "bn7"
  param {
    lr_mult: 0
  }
  param {
    lr_mult: 0
  }
  param {
    lr_mult: 0
  }
  batch_norm_param {
    use_global_stats: false
  }
}
layer {
  name: "relu7"
  type: "ReLU"
  bottom: "bn7"
  top: "relu7"
}
layer {
  name: "drop7"
  type: "Dropout"
  bottom: "relu7"
  top: "drop7"
  dropout_param {
    dropout_ratio: 0.5
  }
}
layer {
  name: "fc8"
  type: "InnerProduct"
  bottom: "drop7"
  top: "fc8"
  param {
    lr_mult: 1
    decay_mult: 1
  }
  param {
    lr_mult: 2
    decay_mult: 0
  }
  inner_product_param {
    num_output: 2
    weight_filler {
      type: "gaussian"
      std: 0.01
    }
    bias_filler {
      type: "constant"
      value: 0
    }
  }
}
layer {
  name: "accuracy"
  type: "Accuracy"
  bottom: "fc8"
  bottom: "label"
  top: "accuracy"
  include {
    phase: TEST
  }
}
layer {
  name: "loss"
  type: "SoftmaxWithLoss"
  bottom: "fc8"
  bottom: "label"
  top: "loss"
}
layer {
  name: "accuracy-top1"
  type: "Accuracy"
  bottom: "fc8"
  bottom: "label"
  top: "top-1"
  include {
    phase: TEST
  }
}
I0109 03:00:37.622387  9556 layer_factory.hpp:77] Creating layer data
I0109 03:00:37.623394  9556 internal_thread.cpp:27] Starting internal thread(s) on GPU 0
I0109 03:00:37.623901  9556 net.cpp:94] Creating Layer data
I0109 03:00:37.623910  9556 net.cpp:409] data -> data
I0109 03:00:37.623921  9556 net.cpp:409] data -> label
I0109 03:00:37.626521  9589 db_lmdb.cpp:35] Opened lmdb input/lmdb/valid_lmdb
I0109 03:00:37.626545  9589 db_lmdb.cpp:38] Items count: 4000
I0109 03:00:37.626574  9589 data_reader.cpp:124] TEST: reading data using 1 channel(s)
I0109 03:00:37.626811  9556 data_layer.cpp:78] ReshapePrefetch 50, 3, 227, 227
I0109 03:00:37.626822  9556 data_layer.cpp:83] output data size: 50,3,227,227
I0109 03:00:37.722193  9556 internal_thread.cpp:27] Starting internal thread(s) on GPU 0
I0109 03:00:37.722298  9556 net.cpp:144] Setting up data
I0109 03:00:37.722304  9556 net.cpp:151] Top shape: 50 3 227 227 (7729350)
I0109 03:00:37.722313  9556 net.cpp:151] Top shape: 50 (50)
I0109 03:00:37.722317  9556 net.cpp:159] Memory required for data: 30917600
I0109 03:00:37.722322  9556 layer_factory.hpp:77] Creating layer label_data_1_split
I0109 03:00:37.722330  9556 net.cpp:94] Creating Layer label_data_1_split
I0109 03:00:37.722335  9556 net.cpp:435] label_data_1_split <- label
I0109 03:00:37.722342  9556 net.cpp:409] label_data_1_split -> label_data_1_split_0
I0109 03:00:37.722349  9556 net.cpp:409] label_data_1_split -> label_data_1_split_1
I0109 03:00:37.722354  9556 net.cpp:409] label_data_1_split -> label_data_1_split_2
I0109 03:00:37.722365  9556 net.cpp:144] Setting up label_data_1_split
I0109 03:00:37.722373  9556 net.cpp:151] Top shape: 50 (50)
I0109 03:00:37.722376  9556 net.cpp:151] Top shape: 50 (50)
I0109 03:00:37.722380  9556 net.cpp:151] Top shape: 50 (50)
I0109 03:00:37.722383  9556 net.cpp:159] Memory required for data: 30918200
I0109 03:00:37.722386  9556 layer_factory.hpp:77] Creating layer conv1
I0109 03:00:37.722400  9556 net.cpp:94] Creating Layer conv1
I0109 03:00:37.722405  9556 net.cpp:435] conv1 <- data
I0109 03:00:37.722410  9556 net.cpp:409] conv1 -> conv1
I0109 03:00:37.722744  9556 net.cpp:144] Setting up conv1
I0109 03:00:37.722751  9556 net.cpp:151] Top shape: 50 78 55 55 (11797500)
I0109 03:00:37.722756  9556 net.cpp:159] Memory required for data: 78108200
I0109 03:00:37.722767  9556 layer_factory.hpp:77] Creating layer bn1
I0109 03:00:37.722777  9556 net.cpp:94] Creating Layer bn1
I0109 03:00:37.722781  9556 net.cpp:435] bn1 <- conv1
I0109 03:00:37.722786  9556 net.cpp:409] bn1 -> bn1
I0109 03:00:37.722812  9556 net.cpp:144] Setting up bn1
I0109 03:00:37.722829  9556 net.cpp:151] Top shape: 50 78 55 55 (11797500)
I0109 03:00:37.722834  9556 net.cpp:159] Memory required for data: 125298200
I0109 03:00:37.722843  9556 layer_factory.hpp:77] Creating layer relu1
I0109 03:00:37.722849  9556 net.cpp:94] Creating Layer relu1
I0109 03:00:37.722853  9556 net.cpp:435] relu1 <- bn1
I0109 03:00:37.722857  9556 net.cpp:409] relu1 -> relu1
I0109 03:00:37.722864  9556 net.cpp:144] Setting up relu1
I0109 03:00:37.722868  9556 net.cpp:151] Top shape: 50 78 55 55 (11797500)
I0109 03:00:37.722873  9556 net.cpp:159] Memory required for data: 172488200
I0109 03:00:37.722877  9556 layer_factory.hpp:77] Creating layer pool1
I0109 03:00:37.722882  9556 net.cpp:94] Creating Layer pool1
I0109 03:00:37.722887  9556 net.cpp:435] pool1 <- relu1
I0109 03:00:37.722890  9556 net.cpp:409] pool1 -> pool1
I0109 03:00:37.722898  9556 net.cpp:144] Setting up pool1
I0109 03:00:37.722903  9556 net.cpp:151] Top shape: 50 78 27 27 (2843100)
I0109 03:00:37.722908  9556 net.cpp:159] Memory required for data: 183860600
I0109 03:00:37.722910  9556 layer_factory.hpp:77] Creating layer conv2
I0109 03:00:37.722918  9556 net.cpp:94] Creating Layer conv2
I0109 03:00:37.722920  9556 net.cpp:435] conv2 <- pool1
I0109 03:00:37.722925  9556 net.cpp:409] conv2 -> conv2
I0109 03:00:37.725639  9556 net.cpp:144] Setting up conv2
I0109 03:00:37.725648  9556 net.cpp:151] Top shape: 50 154 27 27 (5613300)
I0109 03:00:37.725654  9556 net.cpp:159] Memory required for data: 206313800
I0109 03:00:37.725662  9556 layer_factory.hpp:77] Creating layer bn2
I0109 03:00:37.725669  9556 net.cpp:94] Creating Layer bn2
I0109 03:00:37.725673  9556 net.cpp:435] bn2 <- conv2
I0109 03:00:37.725678  9556 net.cpp:409] bn2 -> bn2
I0109 03:00:37.725703  9556 net.cpp:144] Setting up bn2
I0109 03:00:37.725708  9556 net.cpp:151] Top shape: 50 154 27 27 (5613300)
I0109 03:00:37.725713  9556 net.cpp:159] Memory required for data: 228767000
I0109 03:00:37.725718  9556 layer_factory.hpp:77] Creating layer relu2
I0109 03:00:37.725723  9556 net.cpp:94] Creating Layer relu2
I0109 03:00:37.725728  9556 net.cpp:435] relu2 <- bn2
I0109 03:00:37.725731  9556 net.cpp:409] relu2 -> relu2
I0109 03:00:37.725737  9556 net.cpp:144] Setting up relu2
I0109 03:00:37.725741  9556 net.cpp:151] Top shape: 50 154 27 27 (5613300)
I0109 03:00:37.725745  9556 net.cpp:159] Memory required for data: 251220200
I0109 03:00:37.725749  9556 layer_factory.hpp:77] Creating layer pool2
I0109 03:00:37.725754  9556 net.cpp:94] Creating Layer pool2
I0109 03:00:37.725759  9556 net.cpp:435] pool2 <- relu2
I0109 03:00:37.725762  9556 net.cpp:409] pool2 -> pool2
I0109 03:00:37.725769  9556 net.cpp:144] Setting up pool2
I0109 03:00:37.725771  9556 net.cpp:151] Top shape: 50 154 13 13 (1301300)
I0109 03:00:37.725776  9556 net.cpp:159] Memory required for data: 256425400
I0109 03:00:37.725780  9556 layer_factory.hpp:77] Creating layer conv3
I0109 03:00:37.725803  9556 net.cpp:94] Creating Layer conv3
I0109 03:00:37.725806  9556 net.cpp:435] conv3 <- pool2
I0109 03:00:37.725811  9556 net.cpp:409] conv3 -> conv3
I0109 03:00:37.726518  9556 net.cpp:144] Setting up conv3
I0109 03:00:37.726526  9556 net.cpp:151] Top shape: 50 40 13 13 (338000)
I0109 03:00:37.726531  9556 net.cpp:159] Memory required for data: 257777400
I0109 03:00:37.726536  9556 layer_factory.hpp:77] Creating layer relu3
I0109 03:00:37.726541  9556 net.cpp:94] Creating Layer relu3
I0109 03:00:37.726545  9556 net.cpp:435] relu3 <- conv3
I0109 03:00:37.726550  9556 net.cpp:409] relu3 -> relu3
I0109 03:00:37.726557  9556 net.cpp:144] Setting up relu3
I0109 03:00:37.726560  9556 net.cpp:151] Top shape: 50 40 13 13 (338000)
I0109 03:00:37.726565  9556 net.cpp:159] Memory required for data: 259129400
I0109 03:00:37.726569  9556 layer_factory.hpp:77] Creating layer conv4
I0109 03:00:37.726575  9556 net.cpp:94] Creating Layer conv4
I0109 03:00:37.726579  9556 net.cpp:435] conv4 <- relu3
I0109 03:00:37.726584  9556 net.cpp:409] conv4 -> conv4
I0109 03:00:37.726733  9556 net.cpp:144] Setting up conv4
I0109 03:00:37.726739  9556 net.cpp:151] Top shape: 50 40 13 13 (338000)
I0109 03:00:37.726752  9556 net.cpp:159] Memory required for data: 260481400
I0109 03:00:37.726760  9556 layer_factory.hpp:77] Creating layer relu4
I0109 03:00:37.726764  9556 net.cpp:94] Creating Layer relu4
I0109 03:00:37.726768  9556 net.cpp:435] relu4 <- conv4
I0109 03:00:37.726773  9556 net.cpp:409] relu4 -> relu4
I0109 03:00:37.726779  9556 net.cpp:144] Setting up relu4
I0109 03:00:37.726783  9556 net.cpp:151] Top shape: 50 40 13 13 (338000)
I0109 03:00:37.726788  9556 net.cpp:159] Memory required for data: 261833400
I0109 03:00:37.726791  9556 layer_factory.hpp:77] Creating layer conv5
I0109 03:00:37.726799  9556 net.cpp:94] Creating Layer conv5
I0109 03:00:37.726802  9556 net.cpp:435] conv5 <- relu4
I0109 03:00:37.726807  9556 net.cpp:409] conv5 -> conv5
I0109 03:00:37.726936  9556 net.cpp:144] Setting up conv5
I0109 03:00:37.726941  9556 net.cpp:151] Top shape: 50 26 13 13 (219700)
I0109 03:00:37.726946  9556 net.cpp:159] Memory required for data: 262712200
I0109 03:00:37.726953  9556 layer_factory.hpp:77] Creating layer relu5
I0109 03:00:37.726958  9556 net.cpp:94] Creating Layer relu5
I0109 03:00:37.726960  9556 net.cpp:435] relu5 <- conv5
I0109 03:00:37.726965  9556 net.cpp:409] relu5 -> relu5
I0109 03:00:37.726971  9556 net.cpp:144] Setting up relu5
I0109 03:00:37.726975  9556 net.cpp:151] Top shape: 50 26 13 13 (219700)
I0109 03:00:37.726980  9556 net.cpp:159] Memory required for data: 263591000
I0109 03:00:37.726984  9556 layer_factory.hpp:77] Creating layer pool5
I0109 03:00:37.726989  9556 net.cpp:94] Creating Layer pool5
I0109 03:00:37.726994  9556 net.cpp:435] pool5 <- relu5
I0109 03:00:37.726997  9556 net.cpp:409] pool5 -> pool5
I0109 03:00:37.727005  9556 net.cpp:144] Setting up pool5
I0109 03:00:37.727007  9556 net.cpp:151] Top shape: 50 26 6 6 (46800)
I0109 03:00:37.727013  9556 net.cpp:159] Memory required for data: 263778200
I0109 03:00:37.727017  9556 layer_factory.hpp:77] Creating layer fc6
I0109 03:00:37.727023  9556 net.cpp:94] Creating Layer fc6
I0109 03:00:37.727027  9556 net.cpp:435] fc6 <- pool5
I0109 03:00:37.727031  9556 net.cpp:409] fc6 -> fc6
I0109 03:00:37.770010  9556 net.cpp:144] Setting up fc6
I0109 03:00:37.770027  9556 net.cpp:151] Top shape: 50 4096 (204800)
I0109 03:00:37.770035  9556 net.cpp:159] Memory required for data: 264597400
I0109 03:00:37.770046  9556 layer_factory.hpp:77] Creating layer relu6
I0109 03:00:37.770053  9556 net.cpp:94] Creating Layer relu6
I0109 03:00:37.770057  9556 net.cpp:435] relu6 <- fc6
I0109 03:00:37.770063  9556 net.cpp:409] relu6 -> relu6
I0109 03:00:37.770074  9556 net.cpp:144] Setting up relu6
I0109 03:00:37.770077  9556 net.cpp:151] Top shape: 50 4096 (204800)
I0109 03:00:37.770082  9556 net.cpp:159] Memory required for data: 265416600
I0109 03:00:37.770085  9556 layer_factory.hpp:77] Creating layer drop6
I0109 03:00:37.770092  9556 net.cpp:94] Creating Layer drop6
I0109 03:00:37.770095  9556 net.cpp:435] drop6 <- relu6
I0109 03:00:37.770099  9556 net.cpp:409] drop6 -> drop6
I0109 03:00:37.770107  9556 net.cpp:144] Setting up drop6
I0109 03:00:37.770109  9556 net.cpp:151] Top shape: 50 4096 (204800)
I0109 03:00:37.770114  9556 net.cpp:159] Memory required for data: 266235800
I0109 03:00:37.770117  9556 layer_factory.hpp:77] Creating layer fc7
I0109 03:00:37.770124  9556 net.cpp:94] Creating Layer fc7
I0109 03:00:37.770128  9556 net.cpp:435] fc7 <- drop6
I0109 03:00:37.770134  9556 net.cpp:409] fc7 -> fc7
I0109 03:00:37.932171  9556 net.cpp:144] Setting up fc7
I0109 03:00:37.932194  9556 net.cpp:151] Top shape: 50 4096 (204800)
I0109 03:00:37.932201  9556 net.cpp:159] Memory required for data: 267055000
I0109 03:00:37.932226  9556 layer_factory.hpp:77] Creating layer bn7
I0109 03:00:37.932235  9556 net.cpp:94] Creating Layer bn7
I0109 03:00:37.932238  9556 net.cpp:435] bn7 <- fc7
I0109 03:00:37.932245  9556 net.cpp:409] bn7 -> bn7
I0109 03:00:37.932341  9556 net.cpp:144] Setting up bn7
I0109 03:00:37.932348  9556 net.cpp:151] Top shape: 50 4096 (204800)
I0109 03:00:37.932366  9556 net.cpp:159] Memory required for data: 267874200
I0109 03:00:37.932386  9556 layer_factory.hpp:77] Creating layer relu7
I0109 03:00:37.932394  9556 net.cpp:94] Creating Layer relu7
I0109 03:00:37.932397  9556 net.cpp:435] relu7 <- bn7
I0109 03:00:37.932401  9556 net.cpp:409] relu7 -> relu7
I0109 03:00:37.932408  9556 net.cpp:144] Setting up relu7
I0109 03:00:37.932411  9556 net.cpp:151] Top shape: 50 4096 (204800)
I0109 03:00:37.932415  9556 net.cpp:159] Memory required for data: 268693400
I0109 03:00:37.932418  9556 layer_factory.hpp:77] Creating layer drop7
I0109 03:00:37.932423  9556 net.cpp:94] Creating Layer drop7
I0109 03:00:37.932426  9556 net.cpp:435] drop7 <- relu7
I0109 03:00:37.932431  9556 net.cpp:409] drop7 -> drop7
I0109 03:00:37.932437  9556 net.cpp:144] Setting up drop7
I0109 03:00:37.932440  9556 net.cpp:151] Top shape: 50 4096 (204800)
I0109 03:00:37.932444  9556 net.cpp:159] Memory required for data: 269512600
I0109 03:00:37.932447  9556 layer_factory.hpp:77] Creating layer fc8
I0109 03:00:37.932452  9556 net.cpp:94] Creating Layer fc8
I0109 03:00:37.932456  9556 net.cpp:435] fc8 <- drop7
I0109 03:00:37.932461  9556 net.cpp:409] fc8 -> fc8
I0109 03:00:37.932571  9556 net.cpp:144] Setting up fc8
I0109 03:00:37.932576  9556 net.cpp:151] Top shape: 50 2 (100)
I0109 03:00:37.932581  9556 net.cpp:159] Memory required for data: 269513000
I0109 03:00:37.932586  9556 layer_factory.hpp:77] Creating layer fc8_fc8_0_split
I0109 03:00:37.932592  9556 net.cpp:94] Creating Layer fc8_fc8_0_split
I0109 03:00:37.932595  9556 net.cpp:435] fc8_fc8_0_split <- fc8
I0109 03:00:37.932600  9556 net.cpp:409] fc8_fc8_0_split -> fc8_fc8_0_split_0
I0109 03:00:37.932606  9556 net.cpp:409] fc8_fc8_0_split -> fc8_fc8_0_split_1
I0109 03:00:37.932612  9556 net.cpp:409] fc8_fc8_0_split -> fc8_fc8_0_split_2
I0109 03:00:37.932621  9556 net.cpp:144] Setting up fc8_fc8_0_split
I0109 03:00:37.932626  9556 net.cpp:151] Top shape: 50 2 (100)
I0109 03:00:37.932629  9556 net.cpp:151] Top shape: 50 2 (100)
I0109 03:00:37.932633  9556 net.cpp:151] Top shape: 50 2 (100)
I0109 03:00:37.932638  9556 net.cpp:159] Memory required for data: 269514200
I0109 03:00:37.932641  9556 layer_factory.hpp:77] Creating layer accuracy
I0109 03:00:37.932647  9556 net.cpp:94] Creating Layer accuracy
I0109 03:00:37.932651  9556 net.cpp:435] accuracy <- fc8_fc8_0_split_0
I0109 03:00:37.932655  9556 net.cpp:435] accuracy <- label_data_1_split_0
I0109 03:00:37.932660  9556 net.cpp:409] accuracy -> accuracy
…
I0109 03:00:40.292115  9648 net.cpp:323] The NetState phase (0) differed from the phase (1) specified by a rule in layer accuracy-top1
I0109 03:00:40.292119  9648 net.cpp:52] Initializing net from parameters:
state {
  phase: TRAIN
}
layer {
  name: "data"
  type: "ImageData"
  top: "data"
  top: "label"
  include {
    phase: TRAIN
  }
  transform_param {
    crop_size: 227
    mean_value: 106
    mean_value: 116
    mean_value: 124
  }
  image_data_param {
    source: "deploy/alexnetBNnoLRN/pruned/data/calib/calibration.txt"
    batch_size: 10
    shuffle: true
    root_folder: "deploy/alexnetBNnoLRN/pruned/data/calib/"
  }
}
layer {
  name: "conv1"
  type: "Convolution"
  bottom: "data"
  top: "conv1"
  param {
    lr_mult: 1
    decay_mult: 1
  }
  param {
    lr_mult: 2
    decay_mult: 0
  }
  convolution_param {
    num_output: 78
    pad: 1
    kernel_size: 11
    stride: 4
    weight_filler {
      type: "gaussian"
      std: 0.01
    }
    bias_filler {
      type: "constant"
      value: 0
    }
  }
}
layer {
  name: "bn1"
  type: "BatchNorm"
  bottom: "conv1"
  top: "bn1"
  param {
    lr_mult: 0
  }
  param {
    lr_mult: 0
  }
  param {
    lr_mult: 0
  }
  batch_norm_param {
    use_global_stats: false
  }
}
layer {
  name: "relu1"
  type: "ReLU"
  bottom: "bn1"
  top: "relu1"
}
layer {
  name: "pool1"
  type: "Pooling"
  bottom: "relu1"
  top: "pool1"
  pooling_param {
    pool: MAX
    kernel_size: 3
    stride: 2
  }
}
layer {
  name: "conv2"
  type: "Convolution"
  bottom: "pool1"
  top: "conv2"
  param {
    lr_mult: 1
    decay_mult: 1
  }
  param {
    lr_mult: 2
    decay_mult: 0
  }
  convolution_param {
    num_output: 154
    pad: 2
    kernel_size: 5
    group: 1
    weight_filler {
      type: "gaussian"
      std: 0.01
    }
    bias_filler {
      type: "constant"
      value: 1
    }
  }
}
layer {
  name: "bn2"
  type: "BatchNorm"
  bottom: "conv2"
  top: "bn2"
  param {
    lr_mult: 0
  }
  param {
    lr_mult: 0
  }
  param {
    lr_mult: 0
  }
  batch_norm_param {
    use_global_stats: false
  }
}
layer {
  name: "relu2"
  type: "ReLU"
  bottom: "bn2"
  top: "relu2"
}
layer {
  name: "pool2"
  type: "Pooling"
  bottom: "relu2"
  top: "pool2"
  pooling_param {
    pool: MAX
    kernel_size: 3
    stride: 2
  }
}
layer {
  name: "conv3"
  type: "Convolution"
  bottom: "pool2"
  top: "conv3"
  param {
    lr_mult: 1
    decay_mult: 1
  }
  param {
    lr_mult: 2
    decay_mult: 0
  }
  convolution_param {
    num_output: 40
    pad: 1
    kernel_size: 3
    weight_filler {
      type: "gaussian"
      std: 0.01
    }
    bias_filler {
      type: "constant"
      value: 0
    }
  }
}
layer {
  name: "relu3"
  type: "ReLU"
  bottom: "conv3"
  top: "relu3"
}
layer {
  name: "conv4"
  type: "Convolution"
  bottom: "relu3"
  top: "conv4"
  param {
    lr_mult: 1
    decay_mult: 1
  }
  param {
    lr_mult: 2
    decay_mult: 0
  }
  convolution_param {
    num_output: 40
    pad: 1
    kernel_size: 3
    group: 1
    weight_filler {
      type: "gaussian"
      std: 0.01
    }
    bias_filler {
      type: "constant"
      value: 1
    }
  }
}
layer {
  name: "relu4"
  type: "ReLU"
  bottom: "conv4"
  top: "relu4"
}
layer {
  name: "conv5"
  type: "Convolution"
  bottom: "relu4"
  top: "conv5"
  param {
    lr_mult: 1
    decay_mult: 1
  }
  param {
    lr_mult: 2
    decay_mult: 0
  }
  convolution_param {
    num_output: 26
    pad: 1
    kernel_size: 3
    group: 1
    weight_filler {
      type: "gaussian"
      std: 0.01
    }
    bias_filler {
      type: "constant"
      value: 1
    }
  }
}
layer {
  name: "relu5"
  type: "ReLU"
  bottom: "conv5"
  top: "relu5"
}
layer {
  name: "pool5"
  type: "Pooling"
  bottom: "relu5"
  top: "pool5"
  pooling_param {
    pool: MAX
    kernel_size: 3
    stride: 2
  }
}
layer {
  name: "fc6"
  type: "InnerProduct"
  bottom: "pool5"
  top: "fc6"
  param {
    lr_mult: 1
    decay_mult: 1
  }
  param {
    lr_mult: 2
    decay_mult: 0
  }
  inner_product_param {
    num_output: 4096
    weight_filler {
      type: "gaussian"
      std: 0.005
    }
    bias_filler {
      type: "constant"
      value: 1
    }
  }
}
layer {
  name: "relu6"
  type: "ReLU"
  bottom: "fc6"
  top: "relu6"
}
layer {
  name: "fc7"
  type: "InnerProduct"
  bottom: "relu6"
  top: "fc7"
  param {
    lr_mult: 1
    decay_mult: 1
  }
  param {
    lr_mult: 2
    decay_mult: 0
  }
  inner_product_param {
    num_output: 4096
    weight_filler {
      type: "gaussian"
      std: 0.005
    }
    bias_filler {
      type: "constant"
      value: 1
    }
  }
}
layer {
  name: "bn7"
  type: "BatchNorm"
  bottom: "fc7"
  top: "bn7"
  param {
    lr_mult: 0
  }
  param {
    lr_mult: 0
  }
  param {
    lr_mult: 0
  }
  batch_norm_param {
    use_global_stats: false
  }
}
layer {
  name: "relu7"
  type: "ReLU"
  bottom: "bn7"
  top: "relu7"
}
layer {
  name: "fc8"
  type: "InnerProduct"
  bottom: "relu7"
  top: "fc8"
  param {
    lr_mult: 1
    decay_mult: 1
  }
  param {
    lr_mult: 2
    decay_mult: 0
  }
  inner_product_param {
    num_output: 2
    weight_filler {
      type: "gaussian"
      std: 0.01
    }
    bias_filler {
      type: "constant"
      value: 0
    }
  }
}
layer {
  name: "loss"
  type: "SoftmaxWithLoss"
  bottom: "fc8"
  bottom: "label"
  top: "loss"
}
I0109 03:00:40.292310  9648 layer_factory.hpp:77] Creating layer data
I0109 03:00:40.292333  9648 net.cpp:94] Creating Layer data
I0109 03:00:40.292340  9648 net.cpp:409] data -> data
I0109 03:00:40.292352  9648 net.cpp:409] data -> label
I0109 03:00:40.292718  9648 image_data_layer.cpp:41] Opening file deploy/alexnetBNnoLRN/pruned/data/calib/calibration.txt
I0109 03:00:40.292842  9648 image_data_layer.cpp:51] Shuffling data
I0109 03:00:40.292857  9648 image_data_layer.cpp:56] A total of 200 images.
I0109 03:00:40.294188  9648 image_data_layer.cpp:84] output data size: 10,3,227,227
I0109 03:00:40.315536  9648 internal_thread.cpp:27] Starting internal thread(s) on GPU 0
I0109 03:00:40.315598  9648 net.cpp:144] Setting up data
I0109 03:00:40.315603  9648 net.cpp:151] Top shape: 10 3 227 227 (1545870)
I0109 03:00:40.315611  9648 net.cpp:151] Top shape: 10 (10)
I0109 03:00:40.315615  9648 net.cpp:159] Memory required for data: 6183520
I0109 03:00:40.315619  9648 layer_factory.hpp:77] Creating layer conv1
I0109 03:00:40.315635  9648 net.cpp:94] Creating Layer conv1
I0109 03:00:40.315639  9648 net.cpp:435] conv1 <- data
I0109 03:00:40.315645  9648 net.cpp:409] conv1 -> conv1
I0109 03:00:40.316154  9648 net.cpp:144] Setting up conv1
I0109 03:00:40.316160  9648 net.cpp:151] Top shape: 10 78 55 55 (2359500)
I0109 03:00:40.316165  9648 net.cpp:159] Memory required for data: 15621520
I0109 03:00:40.316185  9648 layer_factory.hpp:77] Creating layer bn1
I0109 03:00:40.316196  9648 net.cpp:94] Creating Layer bn1
I0109 03:00:40.316200  9648 net.cpp:435] bn1 <- conv1
I0109 03:00:40.316203  9648 net.cpp:409] bn1 -> bn1
I0109 03:00:40.316705  9648 net.cpp:144] Setting up bn1
I0109 03:00:40.316710  9648 net.cpp:151] Top shape: 10 78 55 55 (2359500)
I0109 03:00:40.316715  9648 net.cpp:159] Memory required for data: 25059520
I0109 03:00:40.316723  9648 layer_factory.hpp:77] Creating layer relu1
I0109 03:00:40.316730  9648 net.cpp:94] Creating Layer relu1
I0109 03:00:40.316732  9648 net.cpp:435] relu1 <- bn1
I0109 03:00:40.316735  9648 net.cpp:409] relu1 -> relu1
I0109 03:00:40.316753  9648 net.cpp:144] Setting up relu1
I0109 03:00:40.316758  9648 net.cpp:151] Top shape: 10 78 55 55 (2359500)
I0109 03:00:40.316763  9648 net.cpp:159] Memory required for data: 34497520
I0109 03:00:40.316766  9648 layer_factory.hpp:77] Creating layer pool1
I0109 03:00:40.316771  9648 net.cpp:94] Creating Layer pool1
I0109 03:00:40.316774  9648 net.cpp:435] pool1 <- relu1
I0109 03:00:40.316777  9648 net.cpp:409] pool1 -> pool1
I0109 03:00:40.316802  9648 net.cpp:144] Setting up pool1
I0109 03:00:40.316809  9648 net.cpp:151] Top shape: 10 78 27 27 (568620)
I0109 03:00:40.316813  9648 net.cpp:159] Memory required for data: 36772000
I0109 03:00:40.316817  9648 layer_factory.hpp:77] Creating layer conv2
I0109 03:00:40.316823  9648 net.cpp:94] Creating Layer conv2
I0109 03:00:40.316828  9648 net.cpp:435] conv2 <- pool1
I0109 03:00:40.316831  9648 net.cpp:409] conv2 -> conv2
I0109 03:00:40.319949  9648 net.cpp:144] Setting up conv2
I0109 03:00:40.319962  9648 net.cpp:151] Top shape: 10 154 27 27 (1122660)
I0109 03:00:40.319968  9648 net.cpp:159] Memory required for data: 41262640
I0109 03:00:40.319975  9648 layer_factory.hpp:77] Creating layer bn2
I0109 03:00:40.319983  9648 net.cpp:94] Creating Layer bn2
I0109 03:00:40.320004  9648 net.cpp:435] bn2 <- conv2
I0109 03:00:40.320010  9648 net.cpp:409] bn2 -> bn2
I0109 03:00:40.320535  9648 net.cpp:144] Setting up bn2
I0109 03:00:40.320541  9648 net.cpp:151] Top shape: 10 154 27 27 (1122660)
I0109 03:00:40.320545  9648 net.cpp:159] Memory required for data: 45753280
I0109 03:00:40.320552  9648 layer_factory.hpp:77] Creating layer relu2
I0109 03:00:40.320557  9648 net.cpp:94] Creating Layer relu2
I0109 03:00:40.320560  9648 net.cpp:435] relu2 <- bn2
I0109 03:00:40.320564  9648 net.cpp:409] relu2 -> relu2
I0109 03:00:40.320580  9648 net.cpp:144] Setting up relu2
I0109 03:00:40.320585  9648 net.cpp:151] Top shape: 10 154 27 27 (1122660)
I0109 03:00:40.320588  9648 net.cpp:159] Memory required for data: 50243920
I0109 03:00:40.320591  9648 layer_factory.hpp:77] Creating layer pool2
I0109 03:00:40.320595  9648 net.cpp:94] Creating Layer pool2
I0109 03:00:40.320598  9648 net.cpp:435] pool2 <- relu2
I0109 03:00:40.320603  9648 net.cpp:409] pool2 -> pool2
I0109 03:00:40.320624  9648 net.cpp:144] Setting up pool2
I0109 03:00:40.320628  9648 net.cpp:151] Top shape: 10 154 13 13 (260260)
I0109 03:00:40.320633  9648 net.cpp:159] Memory required for data: 51284960
I0109 03:00:40.320636  9648 layer_factory.hpp:77] Creating layer conv3
I0109 03:00:40.320643  9648 net.cpp:94] Creating Layer conv3
I0109 03:00:40.320647  9648 net.cpp:435] conv3 <- pool2
I0109 03:00:40.320650  9648 net.cpp:409] conv3 -> conv3
I0109 03:00:40.321846  9648 net.cpp:144] Setting up conv3
I0109 03:00:40.321853  9648 net.cpp:151] Top shape: 10 40 13 13 (67600)
I0109 03:00:40.321859  9648 net.cpp:159] Memory required for data: 51555360
I0109 03:00:40.321864  9648 layer_factory.hpp:77] Creating layer relu3
I0109 03:00:40.321869  9648 net.cpp:94] Creating Layer relu3
I0109 03:00:40.321872  9648 net.cpp:435] relu3 <- conv3
I0109 03:00:40.321877  9648 net.cpp:409] relu3 -> relu3
I0109 03:00:40.321889  9648 net.cpp:144] Setting up relu3
I0109 03:00:40.321894  9648 net.cpp:151] Top shape: 10 40 13 13 (67600)
I0109 03:00:40.321898  9648 net.cpp:159] Memory required for data: 51825760
I0109 03:00:40.321900  9648 layer_factory.hpp:77] Creating layer conv4
I0109 03:00:40.321907  9648 net.cpp:94] Creating Layer conv4
I0109 03:00:40.321910  9648 net.cpp:435] conv4 <- relu3
I0109 03:00:40.321914  9648 net.cpp:409] conv4 -> conv4
I0109 03:00:40.322233  9648 net.cpp:144] Setting up conv4
I0109 03:00:40.322239  9648 net.cpp:151] Top shape: 10 40 13 13 (67600)
I0109 03:00:40.322243  9648 net.cpp:159] Memory required for data: 52096160
I0109 03:00:40.322261  9648 layer_factory.hpp:77] Creating layer relu4
I0109 03:00:40.322266  9648 net.cpp:94] Creating Layer relu4
I0109 03:00:40.322269  9648 net.cpp:435] relu4 <- conv4
I0109 03:00:40.322273  9648 net.cpp:409] relu4 -> relu4
I0109 03:00:40.322288  9648 net.cpp:144] Setting up relu4
I0109 03:00:40.322293  9648 net.cpp:151] Top shape: 10 40 13 13 (67600)
I0109 03:00:40.322297  9648 net.cpp:159] Memory required for data: 52366560
I0109 03:00:40.322300  9648 layer_factory.hpp:77] Creating layer conv5
I0109 03:00:40.322305  9648 net.cpp:94] Creating Layer conv5
I0109 03:00:40.322309  9648 net.cpp:435] conv5 <- relu4
I0109 03:00:40.322312  9648 net.cpp:409] conv5 -> conv5
I0109 03:00:40.322573  9648 net.cpp:144] Setting up conv5
I0109 03:00:40.322578  9648 net.cpp:151] Top shape: 10 26 13 13 (43940)
I0109 03:00:40.322584  9648 net.cpp:159] Memory required for data: 52542320
I0109 03:00:40.322588  9648 layer_factory.hpp:77] Creating layer relu5
I0109 03:00:40.322592  9648 net.cpp:94] Creating Layer relu5
I0109 03:00:40.322595  9648 net.cpp:435] relu5 <- conv5
I0109 03:00:40.322598  9648 net.cpp:409] relu5 -> relu5
I0109 03:00:40.322613  9648 net.cpp:144] Setting up relu5
I0109 03:00:40.322618  9648 net.cpp:151] Top shape: 10 26 13 13 (43940)
I0109 03:00:40.322621  9648 net.cpp:159] Memory required for data: 52718080
I0109 03:00:40.322624  9648 layer_factory.hpp:77] Creating layer pool5
I0109 03:00:40.322628  9648 net.cpp:94] Creating Layer pool5
I0109 03:00:40.322631  9648 net.cpp:435] pool5 <- relu5
I0109 03:00:40.322635  9648 net.cpp:409] pool5 -> pool5
I0109 03:00:40.322659  9648 net.cpp:144] Setting up pool5
I0109 03:00:40.322662  9648 net.cpp:151] Top shape: 10 26 6 6 (9360)
I0109 03:00:40.322667  9648 net.cpp:159] Memory required for data: 52755520
I0109 03:00:40.322669  9648 layer_factory.hpp:77] Creating layer fc6
I0109 03:00:40.322681  9648 net.cpp:94] Creating Layer fc6
I0109 03:00:40.322685  9648 net.cpp:435] fc6 <- pool5
I0109 03:00:40.322688  9648 net.cpp:409] fc6 -> fc6
I0109 03:00:40.355661  9648 net.cpp:144] Setting up fc6
I0109 03:00:40.355681  9648 net.cpp:151] Top shape: 10 4096 (40960)
I0109 03:00:40.355688  9648 net.cpp:159] Memory required for data: 52919360
I0109 03:00:40.355700  9648 layer_factory.hpp:77] Creating layer relu6
I0109 03:00:40.355707  9648 net.cpp:94] Creating Layer relu6
I0109 03:00:40.355711  9648 net.cpp:435] relu6 <- fc6
I0109 03:00:40.355717  9648 net.cpp:409] relu6 -> relu6
I0109 03:00:40.355741  9648 net.cpp:144] Setting up relu6
I0109 03:00:40.355744  9648 net.cpp:151] Top shape: 10 4096 (40960)
I0109 03:00:40.355748  9648 net.cpp:159] Memory required for data: 53083200
I0109 03:00:40.355751  9648 layer_factory.hpp:77] Creating layer fc7
I0109 03:00:40.355758  9648 net.cpp:94] Creating Layer fc7
I0109 03:00:40.355762  9648 net.cpp:435] fc7 <- relu6
I0109 03:00:40.355765  9648 net.cpp:409] fc7 -> fc7
I0109 03:00:40.493579  9648 net.cpp:144] Setting up fc7
I0109 03:00:40.493599  9648 net.cpp:151] Top shape: 10 4096 (40960)
I0109 03:00:40.493607  9648 net.cpp:159] Memory required for data: 53247040
I0109 03:00:40.493616  9648 layer_factory.hpp:77] Creating layer bn7
I0109 03:00:40.493628  9648 net.cpp:94] Creating Layer bn7
I0109 03:00:40.493630  9648 net.cpp:435] bn7 <- fc7
I0109 03:00:40.493636  9648 net.cpp:409] bn7 -> bn7
I0109 03:00:40.494081  9648 net.cpp:144] Setting up bn7
I0109 03:00:40.494087  9648 net.cpp:151] Top shape: 10 4096 (40960)
I0109 03:00:40.494091  9648 net.cpp:159] Memory required for data: 53410880
I0109 03:00:40.494113  9648 layer_factory.hpp:77] Creating layer relu7
I0109 03:00:40.494118  9648 net.cpp:94] Creating Layer relu7
I0109 03:00:40.494122  9648 net.cpp:435] relu7 <- bn7
I0109 03:00:40.494125  9648 net.cpp:409] relu7 -> relu7
I0109 03:00:40.494140  9648 net.cpp:144] Setting up relu7
I0109 03:00:40.494145  9648 net.cpp:151] Top shape: 10 4096 (40960)
I0109 03:00:40.494149  9648 net.cpp:159] Memory required for data: 53574720
I0109 03:00:40.494153  9648 layer_factory.hpp:77] Creating layer fc8
I0109 03:00:40.494158  9648 net.cpp:94] Creating Layer fc8
I0109 03:00:40.494161  9648 net.cpp:435] fc8 <- relu7
I0109 03:00:40.494166  9648 net.cpp:409] fc8 -> fc8
I0109 03:00:40.494324  9648 net.cpp:144] Setting up fc8
I0109 03:00:40.494330  9648 net.cpp:151] Top shape: 10 2 (20)
I0109 03:00:40.494333  9648 net.cpp:159] Memory required for data: 53574800
I0109 03:00:40.494338  9648 layer_factory.hpp:77] Creating layer loss
I0109 03:00:40.494351  9648 net.cpp:94] Creating Layer loss
I0109 03:00:40.494354  9648 net.cpp:435] loss <- fc8
I0109 03:00:40.494357  9648 net.cpp:435] loss <- label
I0109 03:00:40.494362  9648 net.cpp:409] loss -> loss
I0109 03:00:40.494371  9648 layer_factory.hpp:77] Creating layer loss
…
I0109 03:00:40.896121  9648 net.cpp:323] The NetState phase (0) differed from the phase (1) specified by a rule in layer accuracy-top1
I0109 03:00:40.896128  9648 net.cpp:52] Initializing net from parameters:
state {
  phase: TRAIN
}
layer {
  name: "data"
  type: "ImageData"
  top: "data"
  top: "label"
  include {
    phase: TRAIN
  }
  transform_param {
    crop_size: 227
    mean_value: 106
    mean_value: 116
    mean_value: 124
  }
  image_data_param {
    source: "deploy/alexnetBNnoLRN/pruned/data/calib/calibration.txt"
    batch_size: 10
    shuffle: true
    root_folder: "deploy/alexnetBNnoLRN/pruned/data/calib/"
  }
}
layer {
  name: "data_fixed"
  type: "FixedNeuron"
  bottom: "data"
  top: "data"
  param {
    lr_mult: 0
    decay_mult: 0
  }
  fixed_param {
    fixed_method: OVER_FLOW
    bit_width: 8
    follow_data_layer: true
  }
}
layer {
  name: "conv1"
  type: "ConvolutionFixed"
  bottom: "data"
  top: "bn1"
  param {
    lr_mult: 1
    decay_mult: 1
  }
  param {
    lr_mult: 1
    decay_mult: 0
  }
  convolution_param {
    num_output: 78
    bias_term: true
    pad: 1
    kernel_size: 11
    stride: 4
    weight_filler {
      type: "gaussian"
      std: 0.01
    }
    bias_filler {
      type: "constant"
      value: 0
    }
  }
  fixed_param {
    fixed_method: DIFF_S
    bit_width: 8
  }
}
layer {
  name: "relu1"
  type: "ReLU"
  bottom: "bn1"
  top: "relu1"
}
layer {
  name: "pool1"
  type: "Pooling"
  bottom: "relu1"
  top: "pool1"
  pooling_param {
    pool: MAX
    kernel_size: 3
    stride: 2
  }
}
layer {
  name: "pool1_fixed"
  type: "FixedNeuron"
  bottom: "pool1"
  top: "pool1"
  param {
    lr_mult: 0
    decay_mult: 0
  }
  fixed_param {
    fixed_method: DIFF_S
    bit_width: 8
  }
}
layer {
  name: "conv2"
  type: "ConvolutionFixed"
  bottom: "pool1"
  top: "bn2"
  param {
    lr_mult: 1
    decay_mult: 1
  }
  param {
    lr_mult: 1
    decay_mult: 0
  }
  convolution_param {
    num_output: 154
    bias_term: true
    pad: 2
    kernel_size: 5
    group: 1
    weight_filler {
      type: "gaussian"
      std: 0.01
    }
    bias_filler {
      type: "constant"
      value: 1
    }
  }
  fixed_param {
    fixed_method: DIFF_S
    bit_width: 8
  }
}
layer {
  name: "relu2"
  type: "ReLU"
  bottom: "bn2"
  top: "relu2"
}
layer {
  name: "pool2"
  type: "Pooling"
  bottom: "relu2"
  top: "pool2"
  pooling_param {
    pool: MAX
    kernel_size: 3
    stride: 2
  }
}
layer {
  name: "pool2_fixed"
  type: "FixedNeuron"
  bottom: "pool2"
  top: "pool2"
  param {
    lr_mult: 0
    decay_mult: 0
  }
  fixed_param {
    fixed_method: DIFF_S
    bit_width: 8
  }
}
layer {
  name: "conv3"
  type: "ConvolutionFixed"
  bottom: "pool2"
  top: "conv3"
  param {
    lr_mult: 1
    decay_mult: 1
  }
  param {
    lr_mult: 2
    decay_mult: 0
  }
  convolution_param {
    num_output: 40
    pad: 1
    kernel_size: 3
    weight_filler {
      type: "gaussian"
      std: 0.01
    }
    bias_filler {
      type: "constant"
      value: 0
    }
  }
  fixed_param {
    fixed_method: DIFF_S
    bit_width: 8
  }
}
layer {
  name: "relu3"
  type: "ReLU"
  bottom: "conv3"
  top: "relu3"
}
layer {
  name: "relu3_fixed"
  type: "FixedNeuron"
  bottom: "relu3"
  top: "relu3"
  param {
    lr_mult: 0
    decay_mult: 0
  }
  fixed_param {
    fixed_method: DIFF_S
    bit_width: 8
  }
}
layer {
  name: "conv4"
  type: "ConvolutionFixed"
  bottom: "relu3"
  top: "conv4"
  param {
    lr_mult: 1
    decay_mult: 1
  }
  param {
    lr_mult: 2
    decay_mult: 0
  }
  convolution_param {
    num_output: 40
    pad: 1
    kernel_size: 3
    group: 1
    weight_filler {
      type: "gaussian"
      std: 0.01
    }
    bias_filler {
      type: "constant"
      value: 1
    }
  }
  fixed_param {
    fixed_method: DIFF_S
    bit_width: 8
  }
}
layer {
  name: "relu4"
  type: "ReLU"
  bottom: "conv4"
  top: "relu4"
}
layer {
  name: "relu4_fixed"
  type: "FixedNeuron"
  bottom: "relu4"
  top: "relu4"
  param {
    lr_mult: 0
    decay_mult: 0
  }
  fixed_param {
    fixed_method: DIFF_S
    bit_width: 8
  }
}
layer {
  name: "conv5"
  type: "ConvolutionFixed"
  bottom: "relu4"
  top: "conv5"
  param {
    lr_mult: 1
    decay_mult: 1
  }
  param {
    lr_mult: 2
    decay_mult: 0
  }
  convolution_param {
    num_output: 26
    pad: 1
    kernel_size: 3
    group: 1
    weight_filler {
      type: "gaussian"
      std: 0.01
    }
    bias_filler {
      type: "constant"
      value: 1
    }
  }
  fixed_param {
    fixed_method: DIFF_S
    bit_width: 8
  }
}
layer {
  name: "relu5"
  type: "ReLU"
  bottom: "conv5"
  top: "relu5"
}
layer {
  name: "pool5"
  type: "Pooling"
  bottom: "relu5"
  top: "pool5"
  pooling_param {
    pool: MAX
    kernel_size: 3
    stride: 2
  }
}
layer {
  name: "pool5_fixed"
  type: "FixedNeuron"
  bottom: "pool5"
  top: "pool5"
  param {
    lr_mult: 0
    decay_mult: 0
  }
  fixed_param {
    fixed_method: DIFF_S
    bit_width: 8
  }
}
layer {
  name: "fc6"
  type: "InnerProductFixed"
  bottom: "pool5"
  top: "fc6"
  param {
    lr_mult: 1
    decay_mult: 1
  }
  param {
    lr_mult: 2
    decay_mult: 0
  }
  inner_product_param {
    num_output: 4096
    weight_filler {
      type: "gaussian"
      std: 0.005
    }
    bias_filler {
      type: "constant"
      value: 1
    }
  }
  fixed_param {
    fixed_method: DIFF_S
    bit_width: 8
  }
}
layer {
  name: "relu6"
  type: "ReLU"
  bottom: "fc6"
  top: "relu6"
}
layer {
  name: "relu6_fixed"
  type: "FixedNeuron"
  bottom: "relu6"
  top: "relu6"
  param {
    lr_mult: 0
    decay_mult: 0
  }
  fixed_param {
    fixed_method: DIFF_S
    bit_width: 8
  }
}
layer {
  name: "fc7"
  type: "InnerProductFixed"
  bottom: "relu6"
  top: "bn7"
  param {
    lr_mult: 1
    decay_mult: 1
  }
  param {
    lr_mult: 1
    decay_mult: 0
  }
  inner_product_param {
    num_output: 4096
    bias_term: true
    weight_filler {
      type: "gaussian"
      std: 0.005
    }
    bias_filler {
      type: "constant"
      value: 1
    }
  }
  fixed_param {
    fixed_method: DIFF_S
    bit_width: 8
  }
}
layer {
  name: "relu7"
  type: "ReLU"
  bottom: "bn7"
  top: "relu7"
}
layer {
  name: "relu7_fixed"
  type: "FixedNeuron"
  bottom: "relu7"
  top: "relu7"
  param {
    lr_mult: 0
    decay_mult: 0
  }
  fixed_param {
    fixed_method: DIFF_S
    bit_width: 8
  }
}
layer {
  name: "fc8"
  type: "InnerProductFixed"
  bottom: "relu7"
  top: "fc8"
  param {
    lr_mult: 1
    decay_mult: 1
  }
  param {
    lr_mult: 2
    decay_mult: 0
  }
  inner_product_param {
    num_output: 2
    weight_filler {
      type: "gaussian"
      std: 0.01
    }
    bias_filler {
      type: "constant"
      value: 0
    }
  }
  fixed_param {
    fixed_method: DIFF_S
    bit_width: 8
  }
}
layer {
  name: "fc8_fixed"
  type: "FixedNeuron"
  bottom: "fc8"
  top: "fc8"
  param {
    lr_mult: 0
    decay_mult: 0
  }
  fixed_param {
    fixed_method: DIFF_S
    bit_width: 8
  }
}
layer {
  name: "loss"
  type: "SoftmaxWithLoss"
  bottom: "fc8"
  bottom: "label"
  top: "loss"
}
I0109 03:00:40.896525  9648 layer_factory.hpp:77] Creating layer data
I0109 03:00:40.896550  9648 net.cpp:94] Creating Layer data
I0109 03:00:40.896559  9648 net.cpp:409] data -> data
I0109 03:00:40.896575  9648 net.cpp:409] data -> label
I0109 03:00:40.896597  9648 image_data_layer.cpp:41] Opening file deploy/alexnetBNnoLRN/pruned/data/calib/calibration.txt
I0109 03:00:40.896752  9648 image_data_layer.cpp:51] Shuffling data
I0109 03:00:40.896806  9648 image_data_layer.cpp:56] A total of 200 images.
I0109 03:00:40.900110  9648 image_data_layer.cpp:84] output data size: 10,3,227,227
I0109 03:00:40.929054  9648 internal_thread.cpp:27] Starting internal thread(s) on GPU 0
I0109 03:00:40.929143  9648 net.cpp:144] Setting up data
I0109 03:00:40.929148  9648 net.cpp:151] Top shape: 10 3 227 227 (1545870)
I0109 03:00:40.929157  9648 net.cpp:151] Top shape: 10 (10)
I0109 03:00:40.929162  9648 net.cpp:159] Memory required for data: 6183520
I0109 03:00:40.929167  9648 layer_factory.hpp:77] Creating layer data_fixed
I0109 03:00:40.929184  9648 net.cpp:94] Creating Layer data_fixed
I0109 03:00:40.929190  9648 net.cpp:435] data_fixed <- data
I0109 03:00:40.929196  9648 net.cpp:396] data_fixed -> data (in-place)
I0109 03:00:40.929250  9648 net.cpp:144] Setting up data_fixed
I0109 03:00:40.929255  9648 net.cpp:151] Top shape: 10 3 227 227 (1545870)
I0109 03:00:40.929260  9648 net.cpp:159] Memory required for data: 12367000
I0109 03:00:40.929267  9648 layer_factory.hpp:77] Creating layer conv1
I0109 03:00:40.929278  9648 net.cpp:94] Creating Layer conv1
I0109 03:00:40.929283  9648 net.cpp:435] conv1 <- data
I0109 03:00:40.929287  9648 net.cpp:409] conv1 -> bn1
I0109 03:00:40.929738  9648 layer_factory.hpp:77] Creating layer conv1
I0109 03:00:40.930207  9648 net.cpp:144] Setting up conv1
I0109 03:00:40.930212  9648 net.cpp:151] Top shape: 10 78 55 55 (2359500)
I0109 03:00:40.930217  9648 net.cpp:159] Memory required for data: 21805000
I0109 03:00:40.930225  9648 layer_factory.hpp:77] Creating layer relu1
I0109 03:00:40.930230  9648 net.cpp:94] Creating Layer relu1
I0109 03:00:40.930234  9648 net.cpp:435] relu1 <- bn1
I0109 03:00:40.930238  9648 net.cpp:409] relu1 -> relu1
I0109 03:00:40.930263  9648 net.cpp:144] Setting up relu1
I0109 03:00:40.930269  9648 net.cpp:151] Top shape: 10 78 55 55 (2359500)
I0109 03:00:40.930272  9648 net.cpp:159] Memory required for data: 31243000
I0109 03:00:40.930275  9648 layer_factory.hpp:77] Creating layer pool1
I0109 03:00:40.930281  9648 net.cpp:94] Creating Layer pool1
I0109 03:00:40.930284  9648 net.cpp:435] pool1 <- relu1
I0109 03:00:40.930289  9648 net.cpp:409] pool1 -> pool1
I0109 03:00:40.930312  9648 net.cpp:144] Setting up pool1
I0109 03:00:40.930316  9648 net.cpp:151] Top shape: 10 78 27 27 (568620)
I0109 03:00:40.930320  9648 net.cpp:159] Memory required for data: 33517480
I0109 03:00:40.930323  9648 layer_factory.hpp:77] Creating layer pool1_fixed
I0109 03:00:40.930328  9648 net.cpp:94] Creating Layer pool1_fixed
I0109 03:00:40.930331  9648 net.cpp:435] pool1_fixed <- pool1
I0109 03:00:40.930335  9648 net.cpp:396] pool1_fixed -> pool1 (in-place)
I0109 03:00:40.930356  9648 net.cpp:144] Setting up pool1_fixed
I0109 03:00:40.930361  9648 net.cpp:151] Top shape: 10 78 27 27 (568620)
I0109 03:00:40.930364  9648 net.cpp:159] Memory required for data: 35791960
I0109 03:00:40.930368  9648 layer_factory.hpp:77] Creating layer conv2
I0109 03:00:40.930374  9648 net.cpp:94] Creating Layer conv2
I0109 03:00:40.930378  9648 net.cpp:435] conv2 <- pool1
I0109 03:00:40.930382  9648 net.cpp:409] conv2 -> bn2
I0109 03:00:40.933282  9648 layer_factory.hpp:77] Creating layer conv2
I0109 03:00:40.936802  9648 net.cpp:144] Setting up conv2
I0109 03:00:40.936815  9648 net.cpp:151] Top shape: 10 154 27 27 (1122660)
I0109 03:00:40.936820  9648 net.cpp:159] Memory required for data: 40282600
I0109 03:00:40.936828  9648 layer_factory.hpp:77] Creating layer relu2
I0109 03:00:40.936833  9648 net.cpp:94] Creating Layer relu2
I0109 03:00:40.936836  9648 net.cpp:435] relu2 <- bn2
I0109 03:00:40.936841  9648 net.cpp:409] relu2 -> relu2
I0109 03:00:40.936854  9648 net.cpp:144] Setting up relu2
I0109 03:00:40.936857  9648 net.cpp:151] Top shape: 10 154 27 27 (1122660)
I0109 03:00:40.936861  9648 net.cpp:159] Memory required for data: 44773240
I0109 03:00:40.936862  9648 layer_factory.hpp:77] Creating layer pool2
I0109 03:00:40.936867  9648 net.cpp:94] Creating Layer pool2
I0109 03:00:40.936872  9648 net.cpp:435] pool2 <- relu2
I0109 03:00:40.936875  9648 net.cpp:409] pool2 -> pool2
I0109 03:00:40.936893  9648 net.cpp:144] Setting up pool2
I0109 03:00:40.936897  9648 net.cpp:151] Top shape: 10 154 13 13 (260260)
I0109 03:00:40.936899  9648 net.cpp:159] Memory required for data: 45814280
I0109 03:00:40.936902  9648 layer_factory.hpp:77] Creating layer pool2_fixed
I0109 03:00:40.936908  9648 net.cpp:94] Creating Layer pool2_fixed
I0109 03:00:40.936909  9648 net.cpp:435] pool2_fixed <- pool2
I0109 03:00:40.936913  9648 net.cpp:396] pool2_fixed -> pool2 (in-place)
I0109 03:00:40.936930  9648 net.cpp:144] Setting up pool2_fixed
I0109 03:00:40.936934  9648 net.cpp:151] Top shape: 10 154 13 13 (260260)
I0109 03:00:40.936937  9648 net.cpp:159] Memory required for data: 46855320
I0109 03:00:40.936940  9648 layer_factory.hpp:77] Creating layer conv3
I0109 03:00:40.936946  9648 net.cpp:94] Creating Layer conv3
I0109 03:00:40.936949  9648 net.cpp:435] conv3 <- pool2
I0109 03:00:40.936952  9648 net.cpp:409] conv3 -> conv3
I0109 03:00:40.937541  9648 layer_factory.hpp:77] Creating layer conv3
I0109 03:00:40.938226  9648 net.cpp:144] Setting up conv3
I0109 03:00:40.938232  9648 net.cpp:151] Top shape: 10 40 13 13 (67600)
I0109 03:00:40.938237  9648 net.cpp:159] Memory required for data: 47125720
I0109 03:00:40.938244  9648 layer_factory.hpp:77] Creating layer relu3
I0109 03:00:40.938257  9648 net.cpp:94] Creating Layer relu3
I0109 03:00:40.938261  9648 net.cpp:435] relu3 <- conv3
I0109 03:00:40.938267  9648 net.cpp:409] relu3 -> relu3
I0109 03:00:40.938282  9648 net.cpp:144] Setting up relu3
I0109 03:00:40.938287  9648 net.cpp:151] Top shape: 10 40 13 13 (67600)
I0109 03:00:40.938290  9648 net.cpp:159] Memory required for data: 47396120
I0109 03:00:40.938309  9648 layer_factory.hpp:77] Creating layer relu3_fixed
I0109 03:00:40.938314  9648 net.cpp:94] Creating Layer relu3_fixed
I0109 03:00:40.938318  9648 net.cpp:435] relu3_fixed <- relu3
I0109 03:00:40.938321  9648 net.cpp:396] relu3_fixed -> relu3 (in-place)
I0109 03:00:40.938344  9648 net.cpp:144] Setting up relu3_fixed
I0109 03:00:40.938347  9648 net.cpp:151] Top shape: 10 40 13 13 (67600)
I0109 03:00:40.938351  9648 net.cpp:159] Memory required for data: 47666520
I0109 03:00:40.938355  9648 layer_factory.hpp:77] Creating layer conv4
I0109 03:00:40.938361  9648 net.cpp:94] Creating Layer conv4
I0109 03:00:40.938364  9648 net.cpp:435] conv4 <- relu3
I0109 03:00:40.938369  9648 net.cpp:409] conv4 -> conv4
I0109 03:00:40.938622  9648 layer_factory.hpp:77] Creating layer conv4
I0109 03:00:40.938973  9648 net.cpp:144] Setting up conv4
I0109 03:00:40.938978  9648 net.cpp:151] Top shape: 10 40 13 13 (67600)
I0109 03:00:40.938982  9648 net.cpp:159] Memory required for data: 47936920
I0109 03:00:40.938987  9648 layer_factory.hpp:77] Creating layer relu4
I0109 03:00:40.938992  9648 net.cpp:94] Creating Layer relu4
I0109 03:00:40.938994  9648 net.cpp:435] relu4 <- conv4
I0109 03:00:40.938998  9648 net.cpp:409] relu4 -> relu4
I0109 03:00:40.939013  9648 net.cpp:144] Setting up relu4
I0109 03:00:40.939018  9648 net.cpp:151] Top shape: 10 40 13 13 (67600)
I0109 03:00:40.939023  9648 net.cpp:159] Memory required for data: 48207320
I0109 03:00:40.939025  9648 layer_factory.hpp:77] Creating layer relu4_fixed
I0109 03:00:40.939029  9648 net.cpp:94] Creating Layer relu4_fixed
I0109 03:00:40.939033  9648 net.cpp:435] relu4_fixed <- relu4
I0109 03:00:40.939036  9648 net.cpp:396] relu4_fixed -> relu4 (in-place)
I0109 03:00:40.939057  9648 net.cpp:144] Setting up relu4_fixed
I0109 03:00:40.939062  9648 net.cpp:151] Top shape: 10 40 13 13 (67600)
I0109 03:00:40.939066  9648 net.cpp:159] Memory required for data: 48477720
I0109 03:00:40.939070  9648 layer_factory.hpp:77] Creating layer conv5
I0109 03:00:40.939077  9648 net.cpp:94] Creating Layer conv5
I0109 03:00:40.939080  9648 net.cpp:435] conv5 <- relu4
I0109 03:00:40.939085  9648 net.cpp:409] conv5 -> conv5
I0109 03:00:40.939296  9648 layer_factory.hpp:77] Creating layer conv5
I0109 03:00:40.939612  9648 net.cpp:144] Setting up conv5
I0109 03:00:40.939618  9648 net.cpp:151] Top shape: 10 26 13 13 (43940)
I0109 03:00:40.939622  9648 net.cpp:159] Memory required for data: 48653480
I0109 03:00:40.939627  9648 layer_factory.hpp:77] Creating layer relu5
I0109 03:00:40.939631  9648 net.cpp:94] Creating Layer relu5
I0109 03:00:40.939635  9648 net.cpp:435] relu5 <- conv5
I0109 03:00:40.939637  9648 net.cpp:409] relu5 -> relu5
I0109 03:00:40.939652  9648 net.cpp:144] Setting up relu5
I0109 03:00:40.939657  9648 net.cpp:151] Top shape: 10 26 13 13 (43940)
I0109 03:00:40.939661  9648 net.cpp:159] Memory required for data: 48829240
I0109 03:00:40.939664  9648 layer_factory.hpp:77] Creating layer pool5
I0109 03:00:40.939668  9648 net.cpp:94] Creating Layer pool5
I0109 03:00:40.939671  9648 net.cpp:435] pool5 <- relu5
I0109 03:00:40.939675  9648 net.cpp:409] pool5 -> pool5
I0109 03:00:40.939698  9648 net.cpp:144] Setting up pool5
I0109 03:00:40.939702  9648 net.cpp:151] Top shape: 10 26 6 6 (9360)
I0109 03:00:40.939707  9648 net.cpp:159] Memory required for data: 48866680
I0109 03:00:40.939709  9648 layer_factory.hpp:77] Creating layer pool5_fixed
I0109 03:00:40.939714  9648 net.cpp:94] Creating Layer pool5_fixed
I0109 03:00:40.939718  9648 net.cpp:435] pool5_fixed <- pool5
I0109 03:00:40.939720  9648 net.cpp:396] pool5_fixed -> pool5 (in-place)
I0109 03:00:40.939743  9648 net.cpp:144] Setting up pool5_fixed
I0109 03:00:40.939747  9648 net.cpp:151] Top shape: 10 26 6 6 (9360)
I0109 03:00:40.939751  9648 net.cpp:159] Memory required for data: 48904120
I0109 03:00:40.939755  9648 layer_factory.hpp:77] Creating layer fc6
I0109 03:00:40.939761  9648 net.cpp:94] Creating Layer fc6
I0109 03:00:40.939764  9648 net.cpp:435] fc6 <- pool5
I0109 03:00:40.939769  9648 net.cpp:409] fc6 -> fc6
I0109 03:00:40.971837  9648 layer_factory.hpp:77] Creating layer fc6
I0109 03:00:41.004264  9648 net.cpp:144] Setting up fc6
I0109 03:00:41.004284  9648 net.cpp:151] Top shape: 10 4096 (40960)
I0109 03:00:41.004289  9648 net.cpp:159] Memory required for data: 49067960
I0109 03:00:41.004302  9648 layer_factory.hpp:77] Creating layer relu6
I0109 03:00:41.004309  9648 net.cpp:94] Creating Layer relu6
I0109 03:00:41.004312  9648 net.cpp:435] relu6 <- fc6
I0109 03:00:41.004318  9648 net.cpp:409] relu6 -> relu6
I0109 03:00:41.004335  9648 net.cpp:144] Setting up relu6
I0109 03:00:41.004338  9648 net.cpp:151] Top shape: 10 4096 (40960)
I0109 03:00:41.004341  9648 net.cpp:159] Memory required for data: 49231800
I0109 03:00:41.004344  9648 layer_factory.hpp:77] Creating layer relu6_fixed
I0109 03:00:41.004350  9648 net.cpp:94] Creating Layer relu6_fixed
I0109 03:00:41.004352  9648 net.cpp:435] relu6_fixed <- relu6
I0109 03:00:41.004356  9648 net.cpp:396] relu6_fixed -> relu6 (in-place)
I0109 03:00:41.004374  9648 net.cpp:144] Setting up relu6_fixed
I0109 03:00:41.004379  9648 net.cpp:151] Top shape: 10 4096 (40960)
I0109 03:00:41.004381  9648 net.cpp:159] Memory required for data: 49395640
I0109 03:00:41.004385  9648 layer_factory.hpp:77] Creating layer fc7
I0109 03:00:41.004391  9648 net.cpp:94] Creating Layer fc7
I0109 03:00:41.004393  9648 net.cpp:435] fc7 <- relu6
I0109 03:00:41.004397  9648 net.cpp:409] fc7 -> bn7
I0109 03:00:41.141741  9648 layer_factory.hpp:77] Creating layer fc7
I0109 03:00:41.273715  9648 net.cpp:144] Setting up fc7
I0109 03:00:41.273738  9648 net.cpp:151] Top shape: 10 4096 (40960)
I0109 03:00:41.273744  9648 net.cpp:159] Memory required for data: 49559480
I0109 03:00:41.273772  9648 layer_factory.hpp:77] Creating layer relu7
I0109 03:00:41.273778  9648 net.cpp:94] Creating Layer relu7
I0109 03:00:41.273782  9648 net.cpp:435] relu7 <- bn7
I0109 03:00:41.273789  9648 net.cpp:409] relu7 -> relu7
I0109 03:00:41.273806  9648 net.cpp:144] Setting up relu7
I0109 03:00:41.273809  9648 net.cpp:151] Top shape: 10 4096 (40960)
I0109 03:00:41.273813  9648 net.cpp:159] Memory required for data: 49723320
I0109 03:00:41.273814  9648 layer_factory.hpp:77] Creating layer relu7_fixed
I0109 03:00:41.273820  9648 net.cpp:94] Creating Layer relu7_fixed
I0109 03:00:41.273823  9648 net.cpp:435] relu7_fixed <- relu7
I0109 03:00:41.273826  9648 net.cpp:396] relu7_fixed -> relu7 (in-place)
I0109 03:00:41.273845  9648 net.cpp:144] Setting up relu7_fixed
I0109 03:00:41.273850  9648 net.cpp:151] Top shape: 10 4096 (40960)
I0109 03:00:41.273854  9648 net.cpp:159] Memory required for data: 49887160
I0109 03:00:41.273856  9648 layer_factory.hpp:77] Creating layer fc8
I0109 03:00:41.273862  9648 net.cpp:94] Creating Layer fc8
I0109 03:00:41.273865  9648 net.cpp:435] fc8 <- relu7
I0109 03:00:41.273869  9648 net.cpp:409] fc8 -> fc8
I0109 03:00:41.273988  9648 layer_factory.hpp:77] Creating layer fc8
I0109 03:00:41.274144  9648 net.cpp:144] Setting up fc8
I0109 03:00:41.274149  9648 net.cpp:151] Top shape: 10 2 (20)
I0109 03:00:41.274153  9648 net.cpp:159] Memory required for data: 49887240
I0109 03:00:41.274158  9648 layer_factory.hpp:77] Creating layer fc8_fixed
I0109 03:00:41.274161  9648 net.cpp:94] Creating Layer fc8_fixed
I0109 03:00:41.274164  9648 net.cpp:435] fc8_fixed <- fc8
I0109 03:00:41.274168  9648 net.cpp:396] fc8_fixed -> fc8 (in-place)
I0109 03:00:41.274188  9648 net.cpp:144] Setting up fc8_fixed
I0109 03:00:41.274191  9648 net.cpp:151] Top shape: 10 2 (20)
I0109 03:00:41.274194  9648 net.cpp:159] Memory required for data: 49887320
I0109 03:00:41.274199  9648 layer_factory.hpp:77] Creating layer loss
I0109 03:00:41.274204  9648 net.cpp:94] Creating Layer loss
I0109 03:00:41.274206  9648 net.cpp:435] loss <- fc8
I0109 03:00:41.274209  9648 net.cpp:435] loss <- label
I0109 03:00:41.274214  9648 net.cpp:409] loss -> loss
I0109 03:00:41.274219  9648 layer_factory.hpp:77] Creating layer loss
…
I0109 03:00:43.348278  9648 net.cpp:284] Network initialization done.
I0109 03:00:43.390894  9648 net.cpp:323] The NetState phase (1) differed from the phase (0) specified by a rule in layer data
I0109 03:00:43.390933  9648 net.cpp:52] Initializing net from parameters:
layer {
  name: "data"
  type: "Data"
  top: "data"
  top: "label"
  include {
    phase: TEST
  }
  transform_param {
    mirror: false
    crop_size: 227
    mean_value: 106
    mean_value: 116
    mean_value: 124
  }
  data_param {
    source: "input/lmdb/valid_lmdb"
    batch_size: 50
    backend: LMDB
  }
}
layer {
  name: "data_fixed"
  type: "FixedNeuron"
  bottom: "data"
  top: "data"
  param {
    lr_mult: 0
    decay_mult: 0
  }
  fixed_param {
    fixed_method: OVER_FLOW
    bit_width: 8
    follow_data_layer: true
  }
}
layer {
  name: "conv1"
  type: "ConvolutionFixed"
  bottom: "data"
  top: "bn1"
  param {
    lr_mult: 1
    decay_mult: 1
  }
  param {
    lr_mult: 1
    decay_mult: 0
  }
  convolution_param {
    num_output: 78
    bias_term: true
    pad: 1
    kernel_size: 11
    stride: 4
    weight_filler {
      type: "gaussian"
      std: 0.01
    }
    bias_filler {
      type: "constant"
      value: 0
    }
  }
  fixed_param {
    fixed_method: DIFF_S
    bit_width: 8
  }
}
layer {
  name: "relu1"
  type: "ReLU"
  bottom: "bn1"
  top: "relu1"
}
layer {
  name: "pool1"
  type: "Pooling"
  bottom: "relu1"
  top: "pool1"
  pooling_param {
    pool: MAX
    kernel_size: 3
    stride: 2
  }
}
layer {
  name: "pool1_fixed"
  type: "FixedNeuron"
  bottom: "pool1"
  top: "pool1"
  param {
    lr_mult: 0
    decay_mult: 0
  }
  fixed_param {
    fixed_method: DIFF_S
    bit_width: 8
  }
}
layer {
  name: "conv2"
  type: "ConvolutionFixed"
  bottom: "pool1"
  top: "bn2"
  param {
    lr_mult: 1
    decay_mult: 1
  }
  param {
    lr_mult: 1
    decay_mult: 0
  }
  convolution_param {
    num_output: 154
    bias_term: true
    pad: 2
    kernel_size: 5
    group: 1
    weight_filler {
      type: "gaussian"
      std: 0.01
    }
    bias_filler {
      type: "constant"
      value: 1
    }
  }
  fixed_param {
    fixed_method: DIFF_S
    bit_width: 8
  }
}
layer {
  name: "relu2"
  type: "ReLU"
  bottom: "bn2"
  top: "relu2"
}
layer {
  name: "pool2"
  type: "Pooling"
  bottom: "relu2"
  top: "pool2"
  pooling_param {
    pool: MAX
    kernel_size: 3
    stride: 2
  }
}
layer {
  name: "pool2_fixed"
  type: "FixedNeuron"
  bottom: "pool2"
  top: "pool2"
  param {
    lr_mult: 0
    decay_mult: 0
  }
  fixed_param {
    fixed_method: DIFF_S
    bit_width: 8
  }
}
layer {
  name: "conv3"
  type: "ConvolutionFixed"
  bottom: "pool2"
  top: "conv3"
  param {
    lr_mult: 1
    decay_mult: 1
  }
  param {
    lr_mult: 2
    decay_mult: 0
  }
  convolution_param {
    num_output: 40
    pad: 1
    kernel_size: 3
    weight_filler {
      type: "gaussian"
      std: 0.01
    }
    bias_filler {
      type: "constant"
      value: 0
    }
  }
  fixed_param {
    fixed_method: DIFF_S
    bit_width: 8
  }
}
layer {
  name: "relu3"
  type: "ReLU"
  bottom: "conv3"
  top: "relu3"
}
layer {
  name: "relu3_fixed"
  type: "FixedNeuron"
  bottom: "relu3"
  top: "relu3"
  param {
    lr_mult: 0
    decay_mult: 0
  }
  fixed_param {
    fixed_method: DIFF_S
    bit_width: 8
  }
}
layer {
  name: "conv4"
  type: "ConvolutionFixed"
  bottom: "relu3"
  top: "conv4"
  param {
    lr_mult: 1
    decay_mult: 1
  }
  param {
    lr_mult: 2
    decay_mult: 0
  }
  convolution_param {
    num_output: 40
    pad: 1
    kernel_size: 3
    group: 1
    weight_filler {
      type: "gaussian"
      std: 0.01
    }
    bias_filler {
      type: "constant"
      value: 1
    }
  }
  fixed_param {
    fixed_method: DIFF_S
    bit_width: 8
  }
}
layer {
  name: "relu4"
  type: "ReLU"
  bottom: "conv4"
  top: "relu4"
}
layer {
  name: "relu4_fixed"
  type: "FixedNeuron"
  bottom: "relu4"
  top: "relu4"
  param {
    lr_mult: 0
    decay_mult: 0
  }
  fixed_param {
    fixed_method: DIFF_S
    bit_width: 8
  }
}
layer {
  name: "conv5"
  type: "ConvolutionFixed"
  bottom: "relu4"
  top: "conv5"
  param {
    lr_mult: 1
    decay_mult: 1
  }
  param {
    lr_mult: 2
    decay_mult: 0
  }
  convolution_param {
    num_output: 26
    pad: 1
    kernel_size: 3
    group: 1
    weight_filler {
      type: "gaussian"
      std: 0.01
    }
    bias_filler {
      type: "constant"
      value: 1
    }
  }
  fixed_param {
    fixed_method: DIFF_S
    bit_width: 8
  }
}
layer {
  name: "relu5"
  type: "ReLU"
  bottom: "conv5"
  top: "relu5"
}
layer {
  name: "pool5"
  type: "Pooling"
  bottom: "relu5"
  top: "pool5"
  pooling_param {
    pool: MAX
    kernel_size: 3
    stride: 2
  }
}
layer {
  name: "pool5_fixed"
  type: "FixedNeuron"
  bottom: "pool5"
  top: "pool5"
  param {
    lr_mult: 0
    decay_mult: 0
  }
  fixed_param {
    fixed_method: DIFF_S
    bit_width: 8
  }
}
layer {
  name: "fc6"
  type: "InnerProductFixed"
  bottom: "pool5"
  top: "fc6"
  param {
    lr_mult: 1
    decay_mult: 1
  }
  param {
    lr_mult: 2
    decay_mult: 0
  }
  inner_product_param {
    num_output: 4096
    weight_filler {
      type: "gaussian"
      std: 0.005
    }
    bias_filler {
      type: "constant"
      value: 1
    }
  }
  fixed_param {
    fixed_method: DIFF_S
    bit_width: 8
  }
}
layer {
  name: "relu6"
  type: "ReLU"
  bottom: "fc6"
  top: "relu6"
}
layer {
  name: "relu6_fixed"
  type: "FixedNeuron"
  bottom: "relu6"
  top: "relu6"
  param {
    lr_mult: 0
    decay_mult: 0
  }
  fixed_param {
    fixed_method: DIFF_S
    bit_width: 8
  }
}
layer {
  name: "fc7"
  type: "InnerProductFixed"
  bottom: "relu6"
  top: "bn7"
  param {
    lr_mult: 1
    decay_mult: 1
  }
  param {
    lr_mult: 1
    decay_mult: 0
  }
  inner_product_param {
    num_output: 4096
    bias_term: true
    weight_filler {
      type: "gaussian"
      std: 0.005
    }
    bias_filler {
      type: "constant"
      value: 1
    }
  }
  fixed_param {
    fixed_method: DIFF_S
    bit_width: 8
  }
}
layer {
  name: "relu7"
  type: "ReLU"
  bottom: "bn7"
  top: "relu7"
}
layer {
  name: "relu7_fixed"
  type: "FixedNeuron"
  bottom: "relu7"
  top: "relu7"
  param {
    lr_mult: 0
    decay_mult: 0
  }
  fixed_param {
    fixed_method: DIFF_S
    bit_width: 8
  }
}
layer {
  name: "fc8"
  type: "InnerProductFixed"
  bottom: "relu7"
  top: "fc8"
  param {
    lr_mult: 1
    decay_mult: 1
  }
  param {
    lr_mult: 2
    decay_mult: 0
  }
  inner_product_param {
    num_output: 2
    weight_filler {
      type: "gaussian"
      std: 0.01
    }
    bias_filler {
      type: "constant"
      value: 0
    }
  }
  fixed_param {
    fixed_method: DIFF_S
    bit_width: 8
  }
}
layer {
  name: "fc8_fixed"
  type: "FixedNeuron"
  bottom: "fc8"
  top: "fc8"
  param {
    lr_mult: 0
    decay_mult: 0
  }
  fixed_param {
    fixed_method: DIFF_S
    bit_width: 8
  }
}
layer {
  name: "accuracy"
  type: "Accuracy"
  bottom: "fc8"
  bottom: "label"
  top: "accuracy"
  include {
    phase: TEST
  }
}
layer {
  name: "loss"
  type: "SoftmaxWithLoss"
  bottom: "fc8"
  bottom: "label"
  top: "loss"
}
layer {
  name: "accuracy-top1"
  type: "Accuracy"
  bottom: "fc8"
  bottom: "label"
  top: "top-1"
  include {
    phase: TEST
  }
}
I0109 03:00:43.391340  9648 layer_factory.hpp:77] Creating layer data
I0109 03:00:43.391376  9648 internal_thread.cpp:27] Starting internal thread(s) on GPU 0
I0109 03:00:43.392055  9648 net.cpp:94] Creating Layer data
I0109 03:00:43.392064  9648 net.cpp:409] data -> data
I0109 03:00:43.392073  9648 net.cpp:409] data -> label
I0109 03:00:43.393740  9682 db_lmdb.cpp:35] Opened lmdb input/lmdb/valid_lmdb
I0109 03:00:43.393759  9682 db_lmdb.cpp:38] Items count: 4000
I0109 03:00:43.393777  9682 data_reader.cpp:124] TEST: reading data using 1 channel(s)
I0109 03:00:43.393962  9648 data_layer.cpp:78] ReshapePrefetch 50, 3, 227, 227
I0109 03:00:43.394058  9648 data_layer.cpp:83] output data size: 50,3,227,227
I0109 03:00:43.492270  9648 internal_thread.cpp:27] Starting internal thread(s) on GPU 0
I0109 03:00:43.492337  9648 net.cpp:144] Setting up data
I0109 03:00:43.492342  9648 net.cpp:151] Top shape: 50 3 227 227 (7729350)
I0109 03:00:43.492352  9648 net.cpp:151] Top shape: 50 (50)
I0109 03:00:43.492355  9648 net.cpp:159] Memory required for data: 30917600
I0109 03:00:43.492359  9648 layer_factory.hpp:77] Creating layer label_data_1_split
I0109 03:00:43.492372  9648 net.cpp:94] Creating Layer label_data_1_split
I0109 03:00:43.492377  9648 net.cpp:435] label_data_1_split <- label
I0109 03:00:43.492383  9648 net.cpp:409] label_data_1_split -> label_data_1_split_0
I0109 03:00:43.492390  9648 net.cpp:409] label_data_1_split -> label_data_1_split_1
I0109 03:00:43.492394  9648 net.cpp:409] label_data_1_split -> label_data_1_split_2
I0109 03:00:43.492440  9648 net.cpp:144] Setting up label_data_1_split
I0109 03:00:43.492460  9648 net.cpp:151] Top shape: 50 (50)
I0109 03:00:43.492465  9648 net.cpp:151] Top shape: 50 (50)
I0109 03:00:43.492467  9648 net.cpp:151] Top shape: 50 (50)
I0109 03:00:43.492470  9648 net.cpp:159] Memory required for data: 30918200
I0109 03:00:43.492473  9648 layer_factory.hpp:77] Creating layer data_fixed
I0109 03:00:43.492480  9648 net.cpp:94] Creating Layer data_fixed
I0109 03:00:43.492484  9648 net.cpp:435] data_fixed <- data
I0109 03:00:43.492488  9648 net.cpp:396] data_fixed -> data (in-place)
I0109 03:00:43.492543  9648 net.cpp:144] Setting up data_fixed
I0109 03:00:43.492547  9648 net.cpp:151] Top shape: 50 3 227 227 (7729350)
I0109 03:00:43.492553  9648 net.cpp:159] Memory required for data: 61835600
I0109 03:00:43.492561  9648 layer_factory.hpp:77] Creating layer conv1
I0109 03:00:43.492571  9648 net.cpp:94] Creating Layer conv1
I0109 03:00:43.492574  9648 net.cpp:435] conv1 <- data
I0109 03:00:43.492578  9648 net.cpp:409] conv1 -> bn1
I0109 03:00:43.492998  9648 layer_factory.hpp:77] Creating layer conv1
I0109 03:00:43.493472  9648 net.cpp:144] Setting up conv1
I0109 03:00:43.493477  9648 net.cpp:151] Top shape: 50 78 55 55 (11797500)
I0109 03:00:43.493484  9648 net.cpp:159] Memory required for data: 109025600
I0109 03:00:43.493490  9648 layer_factory.hpp:77] Creating layer relu1
I0109 03:00:43.493497  9648 net.cpp:94] Creating Layer relu1
I0109 03:00:43.493500  9648 net.cpp:435] relu1 <- bn1
I0109 03:00:43.493505  9648 net.cpp:409] relu1 -> relu1
I0109 03:00:43.493520  9648 net.cpp:144] Setting up relu1
I0109 03:00:43.493525  9648 net.cpp:151] Top shape: 50 78 55 55 (11797500)
I0109 03:00:43.493530  9648 net.cpp:159] Memory required for data: 156215600
I0109 03:00:43.493532  9648 layer_factory.hpp:77] Creating layer pool1
I0109 03:00:43.493538  9648 net.cpp:94] Creating Layer pool1
I0109 03:00:43.493541  9648 net.cpp:435] pool1 <- relu1
I0109 03:00:43.493546  9648 net.cpp:409] pool1 -> pool1
I0109 03:00:43.493568  9648 net.cpp:144] Setting up pool1
I0109 03:00:43.493573  9648 net.cpp:151] Top shape: 50 78 27 27 (2843100)
I0109 03:00:43.493577  9648 net.cpp:159] Memory required for data: 167588000
I0109 03:00:43.493580  9648 layer_factory.hpp:77] Creating layer pool1_fixed
I0109 03:00:43.493585  9648 net.cpp:94] Creating Layer pool1_fixed
I0109 03:00:43.493588  9648 net.cpp:435] pool1_fixed <- pool1
I0109 03:00:43.493592  9648 net.cpp:396] pool1_fixed -> pool1 (in-place)
I0109 03:00:43.493613  9648 net.cpp:144] Setting up pool1_fixed
I0109 03:00:43.493618  9648 net.cpp:151] Top shape: 50 78 27 27 (2843100)
I0109 03:00:43.493623  9648 net.cpp:159] Memory required for data: 178960400
I0109 03:00:43.493626  9648 layer_factory.hpp:77] Creating layer conv2
I0109 03:00:43.493633  9648 net.cpp:94] Creating Layer conv2
I0109 03:00:43.493635  9648 net.cpp:435] conv2 <- pool1
I0109 03:00:43.493640  9648 net.cpp:409] conv2 -> bn2
I0109 03:00:43.498690  9648 layer_factory.hpp:77] Creating layer conv2
I0109 03:00:43.502715  9648 net.cpp:144] Setting up conv2
I0109 03:00:43.502732  9648 net.cpp:151] Top shape: 50 154 27 27 (5613300)
I0109 03:00:43.502739  9648 net.cpp:159] Memory required for data: 201413600
I0109 03:00:43.502750  9648 layer_factory.hpp:77] Creating layer relu2
I0109 03:00:43.502759  9648 net.cpp:94] Creating Layer relu2
I0109 03:00:43.502763  9648 net.cpp:435] relu2 <- bn2
I0109 03:00:43.502770  9648 net.cpp:409] relu2 -> relu2
I0109 03:00:43.502789  9648 net.cpp:144] Setting up relu2
I0109 03:00:43.502794  9648 net.cpp:151] Top shape: 50 154 27 27 (5613300)
I0109 03:00:43.502797  9648 net.cpp:159] Memory required for data: 223866800
I0109 03:00:43.502800  9648 layer_factory.hpp:77] Creating layer pool2
I0109 03:00:43.502806  9648 net.cpp:94] Creating Layer pool2
I0109 03:00:43.502810  9648 net.cpp:435] pool2 <- relu2
I0109 03:00:43.502815  9648 net.cpp:409] pool2 -> pool2
I0109 03:00:43.502840  9648 net.cpp:144] Setting up pool2
I0109 03:00:43.502843  9648 net.cpp:151] Top shape: 50 154 13 13 (1301300)
I0109 03:00:43.502847  9648 net.cpp:159] Memory required for data: 229072000
I0109 03:00:43.502851  9648 layer_factory.hpp:77] Creating layer pool2_fixed
I0109 03:00:43.502856  9648 net.cpp:94] Creating Layer pool2_fixed
I0109 03:00:43.502859  9648 net.cpp:435] pool2_fixed <- pool2
I0109 03:00:43.502863  9648 net.cpp:396] pool2_fixed -> pool2 (in-place)
I0109 03:00:43.502885  9648 net.cpp:144] Setting up pool2_fixed
I0109 03:00:43.502890  9648 net.cpp:151] Top shape: 50 154 13 13 (1301300)
I0109 03:00:43.502894  9648 net.cpp:159] Memory required for data: 234277200
I0109 03:00:43.502898  9648 layer_factory.hpp:77] Creating layer conv3
I0109 03:00:43.502907  9648 net.cpp:94] Creating Layer conv3
I0109 03:00:43.502910  9648 net.cpp:435] conv3 <- pool2
I0109 03:00:43.502915  9648 net.cpp:409] conv3 -> conv3
I0109 03:00:43.503512  9648 layer_factory.hpp:77] Creating layer conv3
I0109 03:00:43.504220  9648 net.cpp:144] Setting up conv3
I0109 03:00:43.504227  9648 net.cpp:151] Top shape: 50 40 13 13 (338000)
I0109 03:00:43.504231  9648 net.cpp:159] Memory required for data: 235629200
I0109 03:00:43.504238  9648 layer_factory.hpp:77] Creating layer relu3
I0109 03:00:43.504243  9648 net.cpp:94] Creating Layer relu3
I0109 03:00:43.504246  9648 net.cpp:435] relu3 <- conv3
I0109 03:00:43.504251  9648 net.cpp:409] relu3 -> relu3
I0109 03:00:43.504266  9648 net.cpp:144] Setting up relu3
I0109 03:00:43.504271  9648 net.cpp:151] Top shape: 50 40 13 13 (338000)
I0109 03:00:43.504274  9648 net.cpp:159] Memory required for data: 236981200
I0109 03:00:43.504276  9648 layer_factory.hpp:77] Creating layer relu3_fixed
I0109 03:00:43.504281  9648 net.cpp:94] Creating Layer relu3_fixed
I0109 03:00:43.504284  9648 net.cpp:435] relu3_fixed <- relu3
I0109 03:00:43.504288  9648 net.cpp:396] relu3_fixed -> relu3 (in-place)
I0109 03:00:43.504308  9648 net.cpp:144] Setting up relu3_fixed
I0109 03:00:43.504312  9648 net.cpp:151] Top shape: 50 40 13 13 (338000)
I0109 03:00:43.504317  9648 net.cpp:159] Memory required for data: 238333200
I0109 03:00:43.504319  9648 layer_factory.hpp:77] Creating layer conv4
I0109 03:00:43.504341  9648 net.cpp:94] Creating Layer conv4
I0109 03:00:43.504344  9648 net.cpp:435] conv4 <- relu3
I0109 03:00:43.504348  9648 net.cpp:409] conv4 -> conv4
I0109 03:00:43.504602  9648 layer_factory.hpp:77] Creating layer conv4
I0109 03:00:43.504957  9648 net.cpp:144] Setting up conv4
I0109 03:00:43.504962  9648 net.cpp:151] Top shape: 50 40 13 13 (338000)
I0109 03:00:43.504966  9648 net.cpp:159] Memory required for data: 239685200
I0109 03:00:43.504971  9648 layer_factory.hpp:77] Creating layer relu4
I0109 03:00:43.504976  9648 net.cpp:94] Creating Layer relu4
I0109 03:00:43.504978  9648 net.cpp:435] relu4 <- conv4
I0109 03:00:43.504983  9648 net.cpp:409] relu4 -> relu4
I0109 03:00:43.504997  9648 net.cpp:144] Setting up relu4
I0109 03:00:43.505000  9648 net.cpp:151] Top shape: 50 40 13 13 (338000)
I0109 03:00:43.505004  9648 net.cpp:159] Memory required for data: 241037200
I0109 03:00:43.505007  9648 layer_factory.hpp:77] Creating layer relu4_fixed
I0109 03:00:43.505013  9648 net.cpp:94] Creating Layer relu4_fixed
I0109 03:00:43.505017  9648 net.cpp:435] relu4_fixed <- relu4
I0109 03:00:43.505020  9648 net.cpp:396] relu4_fixed -> relu4 (in-place)
I0109 03:00:43.505043  9648 net.cpp:144] Setting up relu4_fixed
I0109 03:00:43.505046  9648 net.cpp:151] Top shape: 50 40 13 13 (338000)
I0109 03:00:43.505050  9648 net.cpp:159] Memory required for data: 242389200
I0109 03:00:43.505054  9648 layer_factory.hpp:77] Creating layer conv5
I0109 03:00:43.505060  9648 net.cpp:94] Creating Layer conv5
I0109 03:00:43.505064  9648 net.cpp:435] conv5 <- relu4
I0109 03:00:43.505067  9648 net.cpp:409] conv5 -> conv5
I0109 03:00:43.505280  9648 layer_factory.hpp:77] Creating layer conv5
I0109 03:00:43.505594  9648 net.cpp:144] Setting up conv5
I0109 03:00:43.505599  9648 net.cpp:151] Top shape: 50 26 13 13 (219700)
I0109 03:00:43.505604  9648 net.cpp:159] Memory required for data: 243268000
I0109 03:00:43.505607  9648 layer_factory.hpp:77] Creating layer relu5
I0109 03:00:43.505611  9648 net.cpp:94] Creating Layer relu5
I0109 03:00:43.505614  9648 net.cpp:435] relu5 <- conv5
I0109 03:00:43.505617  9648 net.cpp:409] relu5 -> relu5
I0109 03:00:43.505632  9648 net.cpp:144] Setting up relu5
I0109 03:00:43.505636  9648 net.cpp:151] Top shape: 50 26 13 13 (219700)
I0109 03:00:43.505641  9648 net.cpp:159] Memory required for data: 244146800
I0109 03:00:43.505645  9648 layer_factory.hpp:77] Creating layer pool5
I0109 03:00:43.505648  9648 net.cpp:94] Creating Layer pool5
I0109 03:00:43.505651  9648 net.cpp:435] pool5 <- relu5
I0109 03:00:43.505656  9648 net.cpp:409] pool5 -> pool5
I0109 03:00:43.505676  9648 net.cpp:144] Setting up pool5
I0109 03:00:43.505681  9648 net.cpp:151] Top shape: 50 26 6 6 (46800)
I0109 03:00:43.505684  9648 net.cpp:159] Memory required for data: 244334000
I0109 03:00:43.505687  9648 layer_factory.hpp:77] Creating layer pool5_fixed
I0109 03:00:43.505692  9648 net.cpp:94] Creating Layer pool5_fixed
I0109 03:00:43.505694  9648 net.cpp:435] pool5_fixed <- pool5
I0109 03:00:43.505698  9648 net.cpp:396] pool5_fixed -> pool5 (in-place)
I0109 03:00:43.505722  9648 net.cpp:144] Setting up pool5_fixed
I0109 03:00:43.505725  9648 net.cpp:151] Top shape: 50 26 6 6 (46800)
I0109 03:00:43.505745  9648 net.cpp:159] Memory required for data: 244521200
I0109 03:00:43.505749  9648 layer_factory.hpp:77] Creating layer fc6
I0109 03:00:43.505757  9648 net.cpp:94] Creating Layer fc6
I0109 03:00:43.505760  9648 net.cpp:435] fc6 <- pool5
I0109 03:00:43.505764  9648 net.cpp:409] fc6 -> fc6
I0109 03:00:43.541191  9648 layer_factory.hpp:77] Creating layer fc6
I0109 03:00:43.576126  9648 net.cpp:144] Setting up fc6
I0109 03:00:43.576149  9648 net.cpp:151] Top shape: 50 4096 (204800)
I0109 03:00:43.576156  9648 net.cpp:159] Memory required for data: 245340400
I0109 03:00:43.576184  9648 layer_factory.hpp:77] Creating layer relu6
I0109 03:00:43.576191  9648 net.cpp:94] Creating Layer relu6
I0109 03:00:43.576195  9648 net.cpp:435] relu6 <- fc6
I0109 03:00:43.576205  9648 net.cpp:409] relu6 -> relu6
I0109 03:00:43.576223  9648 net.cpp:144] Setting up relu6
I0109 03:00:43.576226  9648 net.cpp:151] Top shape: 50 4096 (204800)
I0109 03:00:43.576229  9648 net.cpp:159] Memory required for data: 246159600
I0109 03:00:43.576231  9648 layer_factory.hpp:77] Creating layer relu6_fixed
I0109 03:00:43.576236  9648 net.cpp:94] Creating Layer relu6_fixed
I0109 03:00:43.576239  9648 net.cpp:435] relu6_fixed <- relu6
I0109 03:00:43.576242  9648 net.cpp:396] relu6_fixed -> relu6 (in-place)
I0109 03:00:43.576262  9648 net.cpp:144] Setting up relu6_fixed
I0109 03:00:43.576267  9648 net.cpp:151] Top shape: 50 4096 (204800)
I0109 03:00:43.576270  9648 net.cpp:159] Memory required for data: 246978800
I0109 03:00:43.576273  9648 layer_factory.hpp:77] Creating layer fc7
I0109 03:00:43.576279  9648 net.cpp:94] Creating Layer fc7
I0109 03:00:43.576282  9648 net.cpp:435] fc7 <- relu6
I0109 03:00:43.576285  9648 net.cpp:409] fc7 -> bn7
I0109 03:00:43.712977  9648 layer_factory.hpp:77] Creating layer fc7
I0109 03:00:43.850041  9648 net.cpp:144] Setting up fc7
I0109 03:00:43.850064  9648 net.cpp:151] Top shape: 50 4096 (204800)
I0109 03:00:43.850072  9648 net.cpp:159] Memory required for data: 247798000
I0109 03:00:43.850082  9648 layer_factory.hpp:77] Creating layer relu7
I0109 03:00:43.850090  9648 net.cpp:94] Creating Layer relu7
I0109 03:00:43.850093  9648 net.cpp:435] relu7 <- bn7
I0109 03:00:43.850100  9648 net.cpp:409] relu7 -> relu7
I0109 03:00:43.850118  9648 net.cpp:144] Setting up relu7
I0109 03:00:43.850121  9648 net.cpp:151] Top shape: 50 4096 (204800)
I0109 03:00:43.850124  9648 net.cpp:159] Memory required for data: 248617200
I0109 03:00:43.850127  9648 layer_factory.hpp:77] Creating layer relu7_fixed
I0109 03:00:43.850133  9648 net.cpp:94] Creating Layer relu7_fixed
I0109 03:00:43.850136  9648 net.cpp:435] relu7_fixed <- relu7
I0109 03:00:43.850139  9648 net.cpp:396] relu7_fixed -> relu7 (in-place)
I0109 03:00:43.850174  9648 net.cpp:144] Setting up relu7_fixed
I0109 03:00:43.850179  9648 net.cpp:151] Top shape: 50 4096 (204800)
I0109 03:00:43.850183  9648 net.cpp:159] Memory required for data: 249436400
I0109 03:00:43.850186  9648 layer_factory.hpp:77] Creating layer fc8
I0109 03:00:43.850193  9648 net.cpp:94] Creating Layer fc8
I0109 03:00:43.850194  9648 net.cpp:435] fc8 <- relu7
I0109 03:00:43.850198  9648 net.cpp:409] fc8 -> fc8
I0109 03:00:43.850312  9648 layer_factory.hpp:77] Creating layer fc8
I0109 03:00:43.850477  9648 net.cpp:144] Setting up fc8
I0109 03:00:43.850482  9648 net.cpp:151] Top shape: 50 2 (100)
I0109 03:00:43.850486  9648 net.cpp:159] Memory required for data: 249436800
I0109 03:00:43.850490  9648 layer_factory.hpp:77] Creating layer fc8_fixed
I0109 03:00:43.850512  9648 net.cpp:94] Creating Layer fc8_fixed
I0109 03:00:43.850514  9648 net.cpp:435] fc8_fixed <- fc8
I0109 03:00:43.850518  9648 net.cpp:396] fc8_fixed -> fc8 (in-place)
I0109 03:00:43.850540  9648 net.cpp:144] Setting up fc8_fixed
I0109 03:00:43.850544  9648 net.cpp:151] Top shape: 50 2 (100)
I0109 03:00:43.850548  9648 net.cpp:159] Memory required for data: 249437200
I0109 03:00:43.850553  9648 layer_factory.hpp:77] Creating layer fc8_fc8_fixed_0_split
I0109 03:00:43.850558  9648 net.cpp:94] Creating Layer fc8_fc8_fixed_0_split
I0109 03:00:43.850560  9648 net.cpp:435] fc8_fc8_fixed_0_split <- fc8
I0109 03:00:43.850564  9648 net.cpp:409] fc8_fc8_fixed_0_split -> fc8_fc8_fixed_0_split_0
I0109 03:00:43.850569  9648 net.cpp:409] fc8_fc8_fixed_0_split -> fc8_fc8_fixed_0_split_1
I0109 03:00:43.850574  9648 net.cpp:409] fc8_fc8_fixed_0_split -> fc8_fc8_fixed_0_split_2
I0109 03:00:43.850605  9648 net.cpp:144] Setting up fc8_fc8_fixed_0_split
I0109 03:00:43.850610  9648 net.cpp:151] Top shape: 50 2 (100)
I0109 03:00:43.850612  9648 net.cpp:151] Top shape: 50 2 (100)
I0109 03:00:43.850616  9648 net.cpp:151] Top shape: 50 2 (100)
I0109 03:00:43.850620  9648 net.cpp:159] Memory required for data: 249438400
I0109 03:00:43.850622  9648 layer_factory.hpp:77] Creating layer accuracy
I0109 03:00:43.850630  9648 net.cpp:94] Creating Layer accuracy
I0109 03:00:43.850632  9648 net.cpp:435] accuracy <- fc8_fc8_fixed_0_split_0
I0109 03:00:43.850636  9648 net.cpp:435] accuracy <- label_data_1_split_0
I0109 03:00:43.850641  9648 net.cpp:409] accuracy -> accuracy
…
