…
I0716 11:39:40.661032  2911 net.cpp:323] The NetState phase (0) differed from the phase (1) specified by a rule in layer accuracy-top1
I0716 11:39:40.661038  2911 net.cpp:52] Initializing net from parameters: 
name: "alexnetBNnoLRN m2 (as m3 but less DROP and less BN)"
state {
  phase: TRAIN
}
layer {
  name: "data"
  type: "Data"
  top: "data"
  top: "label"
  include {
    phase: TRAIN
  }
  transform_param {
    mirror: true
    crop_size: 227
    mean_value: 106
    mean_value: 116
    mean_value: 124
  }
  data_param {
    source: "input/lmdb/train_lmdb"
    batch_size: 256
    backend: LMDB
  }
}
layer {
  name: "conv1"
  type: "Convolution"
  bottom: "data"
  top: "conv1"
  param {
    lr_mult: 1
    decay_mult: 1
  }
  param {
    lr_mult: 2
    decay_mult: 0
  }
  convolution_param {
    num_output: 96
    pad: 1
    kernel_size: 11
    stride: 4
    weight_filler {
      type: "gaussian"
      std: 0.01
    }
    bias_filler {
      type: "constant"
      value: 0
    }
  }
}
layer {
  name: "bn1"
  type: "BatchNorm"
  bottom: "conv1"
  top: "bn1"
  param {
    lr_mult: 0
  }
  param {
    lr_mult: 0
  }
  param {
    lr_mult: 0
  }
  batch_norm_param {
    use_global_stats: false
  }
}
layer {
  name: "relu1"
  type: "ReLU"
  bottom: "bn1"
  top: "relu1"
}
layer {
  name: "pool1"
  type: "Pooling"
  bottom: "relu1"
  top: "pool1"
  pooling_param {
    pool: MAX
    kernel_size: 3
    stride: 2
  }
}
layer {
  name: "conv2"
  type: "Convolution"
  bottom: "pool1"
  top: "conv2"
  param {
    lr_mult: 1
    decay_mult: 1
  }
  param {
    lr_mult: 2
    decay_mult: 0
  }
  convolution_param {
    num_output: 256
    pad: 2
    kernel_size: 5
    group: 1
    weight_filler {
      type: "gaussian"
      std: 0.01
    }
    bias_filler {
      type: "constant"
      value: 1
    }
  }
}
layer {
  name: "bn2"
  type: "BatchNorm"
  bottom: "conv2"
  top: "bn2"
  param {
    lr_mult: 0
  }
  param {
    lr_mult: 0
  }
  param {
    lr_mult: 0
  }
  batch_norm_param {
    use_global_stats: false
  }
}
layer {
  name: "relu2"
  type: "ReLU"
  bottom: "bn2"
  top: "relu2"
}
layer {
  name: "pool2"
  type: "Pooling"
  bottom: "relu2"
  top: "pool2"
  pooling_param {
    pool: MAX
    kernel_size: 3
    stride: 2
  }
}
layer {
  name: "conv3"
  type: "Convolution"
  bottom: "pool2"
  top: "conv3"
  param {
    lr_mult: 1
    decay_mult: 1
  }
  param {
    lr_mult: 2
    decay_mult: 0
  }
  convolution_param {
    num_output: 384
    pad: 1
    kernel_size: 3
    weight_filler {
      type: "gaussian"
      std: 0.01
    }
    bias_filler {
      type: "constant"
      value: 0
    }
  }
}
layer {
  name: "relu3"
  type: "ReLU"
  bottom: "conv3"
  top: "relu3"
}
layer {
  name: "conv4"
  type: "Convolution"
  bottom: "relu3"
  top: "conv4"
  param {
    lr_mult: 1
    decay_mult: 1
  }
  param {
    lr_mult: 2
    decay_mult: 0
  }
  convolution_param {
    num_output: 384
    pad: 1
    kernel_size: 3
    group: 1
    weight_filler {
      type: "gaussian"
      std: 0.01
    }
    bias_filler {
      type: "constant"
      value: 1
    }
  }
}
layer {
  name: "relu4"
  type: "ReLU"
  bottom: "conv4"
  top: "relu4"
}
layer {
  name: "conv5"
  type: "Convolution"
  bottom: "relu4"
  top: "conv5"
  param {
    lr_mult: 1
    decay_mult: 1
  }
  param {
    lr_mult: 2
    decay_mult: 0
  }
  convolution_param {
    num_output: 256
    pad: 1
    kernel_size: 3
    group: 1
    weight_filler {
      type: "gaussian"
      std: 0.01
    }
    bias_filler {
      type: "constant"
      value: 1
    }
  }
}
layer {
  name: "relu5"
  type: "ReLU"
  bottom: "conv5"
  top: "relu5"
}
layer {
  name: "pool5"
  type: "Pooling"
  bottom: "relu5"
  top: "pool5"
  pooling_param {
    pool: MAX
    kernel_size: 3
    stride: 2
  }
}
layer {
  name: "fc6"
  type: "InnerProduct"
  bottom: "pool5"
  top: "fc6"
  param {
    lr_mult: 1
    decay_mult: 1
  }
  param {
    lr_mult: 2
    decay_mult: 0
  }
  inner_product_param {
    num_output: 4096
    weight_filler {
      type: "gaussian"
      std: 0.005
    }
    bias_filler {
      type: "constant"
      value: 1
    }
  }
}
layer {
  name: "relu6"
  type: "ReLU"
  bottom: "fc6"
  top: "relu6"
}
layer {
  name: "drop6"
  type: "Dropout"
  bottom: "relu6"
  top: "drop6"
  dropout_param {
    dropout_ratio: 0.5
  }
}
layer {
  name: "fc7"
  type: "InnerProduct"
  bottom: "drop6"
  top: "fc7"
  param {
    lr_mult: 1
    decay_mult: 1
  }
  param {
    lr_mult: 2
    decay_mult: 0
  }
  inner_product_param {
    num_output: 4096
    weight_filler {
      type: "gaussian"
      std: 0.005
    }
    bias_filler {
      type: "constant"
      value: 1
    }
  }
}
layer {
  name: "bn7"
  type: "BatchNorm"
  bottom: "fc7"
  top: "bn7"
  param {
    lr_mult: 0
  }
  param {
    lr_mult: 0
  }
  param {
    lr_mult: 0
  }
  batch_norm_param {
    use_global_stats: false
  }
}
layer {
  name: "relu7"
  type: "ReLU"
  bottom: "bn7"
  top: "relu7"
}
layer {
  name: "drop7"
  type: "Dropout"
  bottom: "relu7"
  top: "drop7"
  dropout_param {
    dropout_ratio: 0.5
  }
}
layer {
  name: "fc8"
  type: "InnerProduct"
  bottom: "drop7"
  top: "fc8"
  param {
    lr_mult: 1
    decay_mult: 1
  }
  param {
    lr_mult: 2
    decay_mult: 0
  }
  inner_product_param {
    num_output: 2
    weight_filler {
      type: "gaussian"
      std: 0.01
    }
    bias_filler {
      type: "constant"
      value: 0
    }
  }
}
layer {
  name: "loss"
  type: "SoftmaxWithLoss"
  bottom: "fc8"
  bottom: "label"
  top: "loss"
}
I0716 11:39:40.661232  2911 layer_factory.hpp:77] Creating layer data
I0716 11:39:40.661350  2911 internal_thread.cpp:27] Starting internal thread(s) on GPU 0
I0716 11:39:40.662679  2911 net.cpp:94] Creating Layer data
I0716 11:39:40.662693  2911 net.cpp:409] data -> data
I0716 11:39:40.662712  2911 net.cpp:409] data -> label
I0716 11:39:40.664162  2943 db_lmdb.cpp:35] Opened lmdb input/lmdb/train_lmdb
I0716 11:39:40.664186  2943 db_lmdb.cpp:38] Items count: 20000
I0716 11:39:40.664209  2943 data_reader.cpp:124] TRAIN: reading data using 1 channel(s)
I0716 11:39:40.664465  2911 data_layer.cpp:78] ReshapePrefetch 256, 3, 227, 227
I0716 11:39:40.664561  2911 data_layer.cpp:83] output data size: 256,3,227,227
I0716 11:39:41.129704  2911 internal_thread.cpp:27] Starting internal thread(s) on GPU 0
I0716 11:39:41.129786  2911 net.cpp:144] Setting up data
I0716 11:39:41.129793  2911 net.cpp:151] Top shape: 256 3 227 227 (39574272)
I0716 11:39:41.129806  2911 net.cpp:151] Top shape: 256 (256)
I0716 11:39:41.129813  2911 net.cpp:159] Memory required for data: 158298112
I0716 11:39:41.129819  2911 layer_factory.hpp:77] Creating layer conv1
I0716 11:39:41.129838  2911 net.cpp:94] Creating Layer conv1
I0716 11:39:41.129859  2911 net.cpp:435] conv1 <- data
I0716 11:39:41.129870  2911 net.cpp:409] conv1 -> conv1
I0716 11:39:41.130523  2911 net.cpp:144] Setting up conv1
I0716 11:39:41.130534  2911 net.cpp:151] Top shape: 256 96 55 55 (74342400)
I0716 11:39:41.130543  2911 net.cpp:159] Memory required for data: 455667712
I0716 11:39:41.130558  2911 layer_factory.hpp:77] Creating layer bn1
I0716 11:39:41.130580  2911 net.cpp:94] Creating Layer bn1
I0716 11:39:41.130589  2911 net.cpp:435] bn1 <- conv1
I0716 11:39:41.130596  2911 net.cpp:409] bn1 -> bn1
I0716 11:39:41.131103  2911 net.cpp:144] Setting up bn1
I0716 11:39:41.131109  2911 net.cpp:151] Top shape: 256 96 55 55 (74342400)
I0716 11:39:41.131117  2911 net.cpp:159] Memory required for data: 753037312
I0716 11:39:41.131130  2911 layer_factory.hpp:77] Creating layer relu1
I0716 11:39:41.131139  2911 net.cpp:94] Creating Layer relu1
I0716 11:39:41.131145  2911 net.cpp:435] relu1 <- bn1
I0716 11:39:41.131151  2911 net.cpp:409] relu1 -> relu1
I0716 11:39:41.131176  2911 net.cpp:144] Setting up relu1
I0716 11:39:41.131181  2911 net.cpp:151] Top shape: 256 96 55 55 (74342400)
I0716 11:39:41.131189  2911 net.cpp:159] Memory required for data: 1050406912
I0716 11:39:41.131196  2911 layer_factory.hpp:77] Creating layer pool1
I0716 11:39:41.131206  2911 net.cpp:94] Creating Layer pool1
I0716 11:39:41.131211  2911 net.cpp:435] pool1 <- relu1
I0716 11:39:41.131217  2911 net.cpp:409] pool1 -> pool1
I0716 11:39:41.131247  2911 net.cpp:144] Setting up pool1
I0716 11:39:41.131251  2911 net.cpp:151] Top shape: 256 96 27 27 (17915904)
I0716 11:39:41.131258  2911 net.cpp:159] Memory required for data: 1122070528
I0716 11:39:41.131263  2911 layer_factory.hpp:77] Creating layer conv2
I0716 11:39:41.131275  2911 net.cpp:94] Creating Layer conv2
I0716 11:39:41.131281  2911 net.cpp:435] conv2 <- pool1
I0716 11:39:41.131289  2911 net.cpp:409] conv2 -> conv2
I0716 11:39:41.146387  2911 net.cpp:144] Setting up conv2
I0716 11:39:41.146404  2911 net.cpp:151] Top shape: 256 256 27 27 (47775744)
I0716 11:39:41.146412  2911 net.cpp:159] Memory required for data: 1313173504
I0716 11:39:41.146425  2911 layer_factory.hpp:77] Creating layer bn2
I0716 11:39:41.146437  2911 net.cpp:94] Creating Layer bn2
I0716 11:39:41.146461  2911 net.cpp:435] bn2 <- conv2
I0716 11:39:41.146468  2911 net.cpp:409] bn2 -> bn2
I0716 11:39:41.146903  2911 net.cpp:144] Setting up bn2
I0716 11:39:41.146910  2911 net.cpp:151] Top shape: 256 256 27 27 (47775744)
I0716 11:39:41.146919  2911 net.cpp:159] Memory required for data: 1504276480
I0716 11:39:41.146931  2911 layer_factory.hpp:77] Creating layer relu2
I0716 11:39:41.146939  2911 net.cpp:94] Creating Layer relu2
I0716 11:39:41.146945  2911 net.cpp:435] relu2 <- bn2
I0716 11:39:41.146952  2911 net.cpp:409] relu2 -> relu2
I0716 11:39:41.146975  2911 net.cpp:144] Setting up relu2
I0716 11:39:41.146979  2911 net.cpp:151] Top shape: 256 256 27 27 (47775744)
I0716 11:39:41.146986  2911 net.cpp:159] Memory required for data: 1695379456
I0716 11:39:41.146993  2911 layer_factory.hpp:77] Creating layer pool2
I0716 11:39:41.147004  2911 net.cpp:94] Creating Layer pool2
I0716 11:39:41.147011  2911 net.cpp:435] pool2 <- relu2
I0716 11:39:41.147018  2911 net.cpp:409] pool2 -> pool2
I0716 11:39:41.147047  2911 net.cpp:144] Setting up pool2
I0716 11:39:41.147051  2911 net.cpp:151] Top shape: 256 256 13 13 (11075584)
I0716 11:39:41.147059  2911 net.cpp:159] Memory required for data: 1739681792
I0716 11:39:41.147065  2911 layer_factory.hpp:77] Creating layer conv3
I0716 11:39:41.147075  2911 net.cpp:94] Creating Layer conv3
I0716 11:39:41.147080  2911 net.cpp:435] conv3 <- pool2
I0716 11:39:41.147089  2911 net.cpp:409] conv3 -> conv3
I0716 11:39:41.162683  2911 net.cpp:144] Setting up conv3
I0716 11:39:41.162705  2911 net.cpp:151] Top shape: 256 384 13 13 (16613376)
I0716 11:39:41.162717  2911 net.cpp:159] Memory required for data: 1806135296
I0716 11:39:41.162730  2911 layer_factory.hpp:77] Creating layer relu3
I0716 11:39:41.162741  2911 net.cpp:94] Creating Layer relu3
I0716 11:39:41.162750  2911 net.cpp:435] relu3 <- conv3
I0716 11:39:41.162775  2911 net.cpp:409] relu3 -> relu3
I0716 11:39:41.162801  2911 net.cpp:144] Setting up relu3
I0716 11:39:41.162806  2911 net.cpp:151] Top shape: 256 384 13 13 (16613376)
I0716 11:39:41.162812  2911 net.cpp:159] Memory required for data: 1872588800
I0716 11:39:41.162817  2911 layer_factory.hpp:77] Creating layer conv4
I0716 11:39:41.162842  2911 net.cpp:94] Creating Layer conv4
I0716 11:39:41.162848  2911 net.cpp:435] conv4 <- relu3
I0716 11:39:41.162855  2911 net.cpp:409] conv4 -> conv4
I0716 11:39:41.183776  2911 net.cpp:144] Setting up conv4
I0716 11:39:41.183825  2911 net.cpp:151] Top shape: 256 384 13 13 (16613376)
I0716 11:39:41.183847  2911 net.cpp:159] Memory required for data: 1939042304
I0716 11:39:41.183878  2911 layer_factory.hpp:77] Creating layer relu4
I0716 11:39:41.183898  2911 net.cpp:94] Creating Layer relu4
I0716 11:39:41.183946  2911 net.cpp:435] relu4 <- conv4
I0716 11:39:41.183993  2911 net.cpp:409] relu4 -> relu4
I0716 11:39:41.184088  2911 net.cpp:144] Setting up relu4
I0716 11:39:41.184111  2911 net.cpp:151] Top shape: 256 384 13 13 (16613376)
I0716 11:39:41.184139  2911 net.cpp:159] Memory required for data: 2005495808
I0716 11:39:41.184162  2911 layer_factory.hpp:77] Creating layer conv5
I0716 11:39:41.184198  2911 net.cpp:94] Creating Layer conv5
I0716 11:39:41.184221  2911 net.cpp:435] conv5 <- relu4
I0716 11:39:41.184248  2911 net.cpp:409] conv5 -> conv5
I0716 11:39:41.201876  2911 net.cpp:144] Setting up conv5
I0716 11:39:41.201896  2911 net.cpp:151] Top shape: 256 256 13 13 (11075584)
I0716 11:39:41.201915  2911 net.cpp:159] Memory required for data: 2049798144
I0716 11:39:41.201923  2911 layer_factory.hpp:77] Creating layer relu5
I0716 11:39:41.201932  2911 net.cpp:94] Creating Layer relu5
I0716 11:39:41.201936  2911 net.cpp:435] relu5 <- conv5
I0716 11:39:41.201943  2911 net.cpp:409] relu5 -> relu5
I0716 11:39:41.201962  2911 net.cpp:144] Setting up relu5
I0716 11:39:41.201968  2911 net.cpp:151] Top shape: 256 256 13 13 (11075584)
I0716 11:39:41.201972  2911 net.cpp:159] Memory required for data: 2094100480
I0716 11:39:41.201974  2911 layer_factory.hpp:77] Creating layer pool5
I0716 11:39:41.201980  2911 net.cpp:94] Creating Layer pool5
I0716 11:39:41.201982  2911 net.cpp:435] pool5 <- relu5
I0716 11:39:41.201987  2911 net.cpp:409] pool5 -> pool5
I0716 11:39:41.202036  2911 net.cpp:144] Setting up pool5
I0716 11:39:41.202044  2911 net.cpp:151] Top shape: 256 256 6 6 (2359296)
I0716 11:39:41.202047  2911 net.cpp:159] Memory required for data: 2103537664
I0716 11:39:41.202050  2911 layer_factory.hpp:77] Creating layer fc6
I0716 11:39:41.202059  2911 net.cpp:94] Creating Layer fc6
I0716 11:39:41.202062  2911 net.cpp:435] fc6 <- pool5
I0716 11:39:41.202070  2911 net.cpp:409] fc6 -> fc6
I0716 11:39:41.520273  2911 net.cpp:144] Setting up fc6
I0716 11:39:41.520300  2911 net.cpp:151] Top shape: 256 4096 (1048576)
I0716 11:39:41.520311  2911 net.cpp:159] Memory required for data: 2107731968
I0716 11:39:41.520321  2911 layer_factory.hpp:77] Creating layer relu6
I0716 11:39:41.520330  2911 net.cpp:94] Creating Layer relu6
I0716 11:39:41.520337  2911 net.cpp:435] relu6 <- fc6
I0716 11:39:41.520349  2911 net.cpp:409] relu6 -> relu6
I0716 11:39:41.520390  2911 net.cpp:144] Setting up relu6
I0716 11:39:41.520397  2911 net.cpp:151] Top shape: 256 4096 (1048576)
I0716 11:39:41.520402  2911 net.cpp:159] Memory required for data: 2111926272
I0716 11:39:41.520406  2911 layer_factory.hpp:77] Creating layer drop6
I0716 11:39:41.520416  2911 net.cpp:94] Creating Layer drop6
I0716 11:39:41.520423  2911 net.cpp:435] drop6 <- relu6
I0716 11:39:41.520428  2911 net.cpp:409] drop6 -> drop6
I0716 11:39:41.520457  2911 net.cpp:144] Setting up drop6
I0716 11:39:41.520462  2911 net.cpp:151] Top shape: 256 4096 (1048576)
I0716 11:39:41.520467  2911 net.cpp:159] Memory required for data: 2116120576
I0716 11:39:41.520470  2911 layer_factory.hpp:77] Creating layer fc7
I0716 11:39:41.520479  2911 net.cpp:94] Creating Layer fc7
I0716 11:39:41.520494  2911 net.cpp:435] fc7 <- drop6
I0716 11:39:41.520498  2911 net.cpp:409] fc7 -> fc7
I0716 11:39:41.659965  2911 net.cpp:144] Setting up fc7
I0716 11:39:41.659991  2911 net.cpp:151] Top shape: 256 4096 (1048576)
I0716 11:39:41.659999  2911 net.cpp:159] Memory required for data: 2120314880
I0716 11:39:41.660025  2911 layer_factory.hpp:77] Creating layer bn7
I0716 11:39:41.660058  2911 net.cpp:94] Creating Layer bn7
I0716 11:39:41.660063  2911 net.cpp:435] bn7 <- fc7
I0716 11:39:41.660073  2911 net.cpp:409] bn7 -> bn7
I0716 11:39:41.660564  2911 net.cpp:144] Setting up bn7
I0716 11:39:41.660575  2911 net.cpp:151] Top shape: 256 4096 (1048576)
I0716 11:39:41.660584  2911 net.cpp:159] Memory required for data: 2124509184
I0716 11:39:41.660595  2911 layer_factory.hpp:77] Creating layer relu7
I0716 11:39:41.660607  2911 net.cpp:94] Creating Layer relu7
I0716 11:39:41.660619  2911 net.cpp:435] relu7 <- bn7
I0716 11:39:41.660626  2911 net.cpp:409] relu7 -> relu7
I0716 11:39:41.660653  2911 net.cpp:144] Setting up relu7
I0716 11:39:41.660660  2911 net.cpp:151] Top shape: 256 4096 (1048576)
I0716 11:39:41.660665  2911 net.cpp:159] Memory required for data: 2128703488
I0716 11:39:41.660668  2911 layer_factory.hpp:77] Creating layer drop7
I0716 11:39:41.660676  2911 net.cpp:94] Creating Layer drop7
I0716 11:39:41.660682  2911 net.cpp:435] drop7 <- relu7
I0716 11:39:41.660689  2911 net.cpp:409] drop7 -> drop7
I0716 11:39:41.660720  2911 net.cpp:144] Setting up drop7
I0716 11:39:41.660727  2911 net.cpp:151] Top shape: 256 4096 (1048576)
I0716 11:39:41.660732  2911 net.cpp:159] Memory required for data: 2132897792
I0716 11:39:41.660735  2911 layer_factory.hpp:77] Creating layer fc8
I0716 11:39:41.660744  2911 net.cpp:94] Creating Layer fc8
I0716 11:39:41.660749  2911 net.cpp:435] fc8 <- drop7
I0716 11:39:41.660758  2911 net.cpp:409] fc8 -> fc8
I0716 11:39:41.660931  2911 net.cpp:144] Setting up fc8
I0716 11:39:41.660939  2911 net.cpp:151] Top shape: 256 2 (512)
I0716 11:39:41.660944  2911 net.cpp:159] Memory required for data: 2132899840
I0716 11:39:41.660954  2911 layer_factory.hpp:77] Creating layer loss
I0716 11:39:41.660975  2911 net.cpp:94] Creating Layer loss
I0716 11:39:41.660984  2911 net.cpp:435] loss <- fc8
I0716 11:39:41.660989  2911 net.cpp:435] loss <- label
I0716 11:39:41.660995  2911 net.cpp:409] loss -> loss
I0716 11:39:41.661010  2911 layer_factory.hpp:77] Creating layer loss
…
I0716 11:39:41.661662  2911 net.cpp:323] The NetState phase (1) differed from the phase (0) specified by a rule in layer data
I0716 11:39:41.661676  2911 net.cpp:52] Initializing net from parameters: 
name: "alexnetBNnoLRN m2 (as m3 but less DROP and less BN)"
state {
  phase: TEST
}
layer {
  name: "data"
  type: "Data"
  top: "data"
  top: "label"
  include {
    phase: TEST
  }
  transform_param {
    mirror: false
    crop_size: 227
    mean_value: 106
    mean_value: 116
    mean_value: 124
  }
  data_param {
    source: "input/lmdb/valid_lmdb"
    batch_size: 50
    backend: LMDB
  }
}
layer {
  name: "conv1"
  type: "Convolution"
  bottom: "data"
  top: "conv1"
  param {
    lr_mult: 1
    decay_mult: 1
  }
  param {
    lr_mult: 2
    decay_mult: 0
  }
  convolution_param {
    num_output: 96
    pad: 1
    kernel_size: 11
    stride: 4
    weight_filler {
      type: "gaussian"
      std: 0.01
    }
    bias_filler {
      type: "constant"
      value: 0
    }
  }
}
layer {
  name: "bn1"
  type: "BatchNorm"
  bottom: "conv1"
  top: "bn1"
  param {
    lr_mult: 0
  }
  param {
    lr_mult: 0
  }
  param {
    lr_mult: 0
  }
  batch_norm_param {
    use_global_stats: false
  }
}
layer {
  name: "relu1"
  type: "ReLU"
  bottom: "bn1"
  top: "relu1"
}
layer {
  name: "pool1"
  type: "Pooling"
  bottom: "relu1"
  top: "pool1"
  pooling_param {
    pool: MAX
    kernel_size: 3
    stride: 2
  }
}
layer {
  name: "conv2"
  type: "Convolution"
  bottom: "pool1"
  top: "conv2"
  param {
    lr_mult: 1
    decay_mult: 1
  }
  param {
    lr_mult: 2
    decay_mult: 0
  }
  convolution_param {
    num_output: 256
    pad: 2
    kernel_size: 5
    group: 1
    weight_filler {
      type: "gaussian"
      std: 0.01
    }
    bias_filler {
      type: "constant"
      value: 1
    }
  }
}
layer {
  name: "bn2"
  type: "BatchNorm"
  bottom: "conv2"
  top: "bn2"
  param {
    lr_mult: 0
  }
  param {
    lr_mult: 0
  }
  param {
    lr_mult: 0
  }
  batch_norm_param {
    use_global_stats: false
  }
}
layer {
  name: "relu2"
  type: "ReLU"
  bottom: "bn2"
  top: "relu2"
}
layer {
  name: "pool2"
  type: "Pooling"
  bottom: "relu2"
  top: "pool2"
  pooling_param {
    pool: MAX
    kernel_size: 3
    stride: 2
  }
}
layer {
  name: "conv3"
  type: "Convolution"
  bottom: "pool2"
  top: "conv3"
  param {
    lr_mult: 1
    decay_mult: 1
  }
  param {
    lr_mult: 2
    decay_mult: 0
  }
  convolution_param {
    num_output: 384
    pad: 1
    kernel_size: 3
    weight_filler {
      type: "gaussian"
      std: 0.01
    }
    bias_filler {
      type: "constant"
      value: 0
    }
  }
}
layer {
  name: "relu3"
  type: "ReLU"
  bottom: "conv3"
  top: "relu3"
}
layer {
  name: "conv4"
  type: "Convolution"
  bottom: "relu3"
  top: "conv4"
  param {
    lr_mult: 1
    decay_mult: 1
  }
  param {
    lr_mult: 2
    decay_mult: 0
  }
  convolution_param {
    num_output: 384
    pad: 1
    kernel_size: 3
    group: 1
    weight_filler {
      type: "gaussian"
      std: 0.01
    }
    bias_filler {
      type: "constant"
      value: 1
    }
  }
}
layer {
  name: "relu4"
  type: "ReLU"
  bottom: "conv4"
  top: "relu4"
}
layer {
  name: "conv5"
  type: "Convolution"
  bottom: "relu4"
  top: "conv5"
  param {
    lr_mult: 1
    decay_mult: 1
  }
  param {
    lr_mult: 2
    decay_mult: 0
  }
  convolution_param {
    num_output: 256
    pad: 1
    kernel_size: 3
    group: 1
    weight_filler {
      type: "gaussian"
      std: 0.01
    }
    bias_filler {
      type: "constant"
      value: 1
    }
  }
}
layer {
  name: "relu5"
  type: "ReLU"
  bottom: "conv5"
  top: "relu5"
}
layer {
  name: "pool5"
  type: "Pooling"
  bottom: "relu5"
  top: "pool5"
  pooling_param {
    pool: MAX
    kernel_size: 3
    stride: 2
  }
}
layer {
  name: "fc6"
  type: "InnerProduct"
  bottom: "pool5"
  top: "fc6"
  param {
    lr_mult: 1
    decay_mult: 1
  }
  param {
    lr_mult: 2
    decay_mult: 0
  }
  inner_product_param {
    num_output: 4096
    weight_filler {
      type: "gaussian"
      std: 0.005
    }
    bias_filler {
      type: "constant"
      value: 1
    }
  }
}
layer {
  name: "relu6"
  type: "ReLU"
  bottom: "fc6"
  top: "relu6"
}
layer {
  name: "drop6"
  type: "Dropout"
  bottom: "relu6"
  top: "drop6"
  dropout_param {
    dropout_ratio: 0.5
  }
}
layer {
  name: "fc7"
  type: "InnerProduct"
  bottom: "drop6"
  top: "fc7"
  param {
    lr_mult: 1
    decay_mult: 1
  }
  param {
    lr_mult: 2
    decay_mult: 0
  }
  inner_product_param {
    num_output: 4096
    weight_filler {
      type: "gaussian"
      std: 0.005
    }
    bias_filler {
      type: "constant"
      value: 1
    }
  }
}
layer {
  name: "bn7"
  type: "BatchNorm"
  bottom: "fc7"
  top: "bn7"
  param {
    lr_mult: 0
  }
  param {
    lr_mult: 0
  }
  param {
    lr_mult: 0
  }
  batch_norm_param {
    use_global_stats: false
  }
}
layer {
  name: "relu7"
  type: "ReLU"
  bottom: "bn7"
  top: "relu7"
}
layer {
  name: "drop7"
  type: "Dropout"
  bottom: "relu7"
  top: "drop7"
  dropout_param {
    dropout_ratio: 0.5
  }
}
layer {
  name: "fc8"
  type: "InnerProduct"
  bottom: "drop7"
  top: "fc8"
  param {
    lr_mult: 1
    decay_mult: 1
  }
  param {
    lr_mult: 2
    decay_mult: 0
  }
  inner_product_param {
    num_output: 2
    weight_filler {
      type: "gaussian"
      std: 0.01
    }
    bias_filler {
      type: "constant"
      value: 0
    }
  }
}
layer {
  name: "accuracy"
  type: "Accuracy"
  bottom: "fc8"
  bottom: "label"
  top: "accuracy"
  include {
    phase: TEST
  }
}
layer {
  name: "loss"
  type: "SoftmaxWithLoss"
  bottom: "fc8"
  bottom: "label"
  top: "loss"
}
layer {
  name: "accuracy-top1"
  type: "Accuracy"
  bottom: "fc8"
  bottom: "label"
  top: "top-1"
  include {
    phase: TEST
  }
}
I0716 11:39:41.661893  2911 layer_factory.hpp:77] Creating layer data
I0716 11:39:41.661932  2911 internal_thread.cpp:27] Starting internal thread(s) on GPU 0
I0716 11:39:41.663372  2911 net.cpp:94] Creating Layer data
I0716 11:39:41.663383  2911 net.cpp:409] data -> data
I0716 11:39:41.663393  2911 net.cpp:409] data -> label
I0716 11:39:41.665241  2973 db_lmdb.cpp:35] Opened lmdb input/lmdb/valid_lmdb
I0716 11:39:41.665266  2973 db_lmdb.cpp:38] Items count: 4000
I0716 11:39:41.665287  2973 data_reader.cpp:124] TEST: reading data using 1 channel(s)
I0716 11:39:41.665549  2911 data_layer.cpp:78] ReshapePrefetch 50, 3, 227, 227
I0716 11:39:41.665648  2911 data_layer.cpp:83] output data size: 50,3,227,227
I0716 11:39:41.763164  2911 internal_thread.cpp:27] Starting internal thread(s) on GPU 0
I0716 11:39:41.763258  2911 net.cpp:144] Setting up data
I0716 11:39:41.763264  2911 net.cpp:151] Top shape: 50 3 227 227 (7729350)
I0716 11:39:41.763274  2911 net.cpp:151] Top shape: 50 (50)
I0716 11:39:41.763278  2911 net.cpp:159] Memory required for data: 30917600
I0716 11:39:41.763283  2911 layer_factory.hpp:77] Creating layer label_data_1_split
I0716 11:39:41.763298  2911 net.cpp:94] Creating Layer label_data_1_split
I0716 11:39:41.763304  2911 net.cpp:435] label_data_1_split <- label
I0716 11:39:41.763311  2911 net.cpp:409] label_data_1_split -> label_data_1_split_0
I0716 11:39:41.763319  2911 net.cpp:409] label_data_1_split -> label_data_1_split_1
I0716 11:39:41.763324  2911 net.cpp:409] label_data_1_split -> label_data_1_split_2
I0716 11:39:41.763376  2911 net.cpp:144] Setting up label_data_1_split
I0716 11:39:41.763381  2911 net.cpp:151] Top shape: 50 (50)
I0716 11:39:41.763384  2911 net.cpp:151] Top shape: 50 (50)
I0716 11:39:41.763387  2911 net.cpp:151] Top shape: 50 (50)
I0716 11:39:41.763391  2911 net.cpp:159] Memory required for data: 30918200
I0716 11:39:41.763393  2911 layer_factory.hpp:77] Creating layer conv1
I0716 11:39:41.763404  2911 net.cpp:94] Creating Layer conv1
I0716 11:39:41.763437  2911 net.cpp:435] conv1 <- data
I0716 11:39:41.763442  2911 net.cpp:409] conv1 -> conv1
I0716 11:39:41.764067  2911 net.cpp:144] Setting up conv1
I0716 11:39:41.764076  2911 net.cpp:151] Top shape: 50 96 55 55 (14520000)
I0716 11:39:41.764083  2911 net.cpp:159] Memory required for data: 88998200
I0716 11:39:41.764092  2911 layer_factory.hpp:77] Creating layer bn1
I0716 11:39:41.764101  2911 net.cpp:94] Creating Layer bn1
I0716 11:39:41.764106  2911 net.cpp:435] bn1 <- conv1
I0716 11:39:41.764111  2911 net.cpp:409] bn1 -> bn1
I0716 11:39:41.764648  2911 net.cpp:144] Setting up bn1
I0716 11:39:41.764657  2911 net.cpp:151] Top shape: 50 96 55 55 (14520000)
I0716 11:39:41.764662  2911 net.cpp:159] Memory required for data: 147078200
I0716 11:39:41.764672  2911 layer_factory.hpp:77] Creating layer relu1
I0716 11:39:41.764678  2911 net.cpp:94] Creating Layer relu1
I0716 11:39:41.764681  2911 net.cpp:435] relu1 <- bn1
I0716 11:39:41.764686  2911 net.cpp:409] relu1 -> relu1
I0716 11:39:41.764701  2911 net.cpp:144] Setting up relu1
I0716 11:39:41.764706  2911 net.cpp:151] Top shape: 50 96 55 55 (14520000)
I0716 11:39:41.764711  2911 net.cpp:159] Memory required for data: 205158200
I0716 11:39:41.764714  2911 layer_factory.hpp:77] Creating layer pool1
I0716 11:39:41.764720  2911 net.cpp:94] Creating Layer pool1
I0716 11:39:41.764724  2911 net.cpp:435] pool1 <- relu1
I0716 11:39:41.764729  2911 net.cpp:409] pool1 -> pool1
I0716 11:39:41.764751  2911 net.cpp:144] Setting up pool1
I0716 11:39:41.764756  2911 net.cpp:151] Top shape: 50 96 27 27 (3499200)
I0716 11:39:41.764761  2911 net.cpp:159] Memory required for data: 219155000
I0716 11:39:41.764765  2911 layer_factory.hpp:77] Creating layer conv2
I0716 11:39:41.764772  2911 net.cpp:94] Creating Layer conv2
I0716 11:39:41.764776  2911 net.cpp:435] conv2 <- pool1
I0716 11:39:41.764780  2911 net.cpp:409] conv2 -> conv2
I0716 11:39:41.770987  2911 net.cpp:144] Setting up conv2
I0716 11:39:41.771004  2911 net.cpp:151] Top shape: 50 256 27 27 (9331200)
I0716 11:39:41.771011  2911 net.cpp:159] Memory required for data: 256479800
I0716 11:39:41.771020  2911 layer_factory.hpp:77] Creating layer bn2
I0716 11:39:41.771028  2911 net.cpp:94] Creating Layer bn2
I0716 11:39:41.771032  2911 net.cpp:435] bn2 <- conv2
I0716 11:39:41.771037  2911 net.cpp:409] bn2 -> bn2
I0716 11:39:41.771513  2911 net.cpp:144] Setting up bn2
I0716 11:39:41.771522  2911 net.cpp:151] Top shape: 50 256 27 27 (9331200)
I0716 11:39:41.771528  2911 net.cpp:159] Memory required for data: 293804600
I0716 11:39:41.771536  2911 layer_factory.hpp:77] Creating layer relu2
I0716 11:39:41.771543  2911 net.cpp:94] Creating Layer relu2
I0716 11:39:41.771546  2911 net.cpp:435] relu2 <- bn2
I0716 11:39:41.771551  2911 net.cpp:409] relu2 -> relu2
I0716 11:39:41.771567  2911 net.cpp:144] Setting up relu2
I0716 11:39:41.771575  2911 net.cpp:151] Top shape: 50 256 27 27 (9331200)
I0716 11:39:41.771580  2911 net.cpp:159] Memory required for data: 331129400
I0716 11:39:41.771584  2911 layer_factory.hpp:77] Creating layer pool2
I0716 11:39:41.771589  2911 net.cpp:94] Creating Layer pool2
I0716 11:39:41.771592  2911 net.cpp:435] pool2 <- relu2
I0716 11:39:41.771596  2911 net.cpp:409] pool2 -> pool2
I0716 11:39:41.771620  2911 net.cpp:144] Setting up pool2
I0716 11:39:41.771625  2911 net.cpp:151] Top shape: 50 256 13 13 (2163200)
I0716 11:39:41.771629  2911 net.cpp:159] Memory required for data: 339782200
I0716 11:39:41.771632  2911 layer_factory.hpp:77] Creating layer conv3
I0716 11:39:41.771641  2911 net.cpp:94] Creating Layer conv3
I0716 11:39:41.771644  2911 net.cpp:435] conv3 <- pool2
I0716 11:39:41.771648  2911 net.cpp:409] conv3 -> conv3
I0716 11:39:41.782205  2911 net.cpp:144] Setting up conv3
I0716 11:39:41.782232  2911 net.cpp:151] Top shape: 50 384 13 13 (3244800)
I0716 11:39:41.782250  2911 net.cpp:159] Memory required for data: 352761400
I0716 11:39:41.782265  2911 layer_factory.hpp:77] Creating layer relu3
I0716 11:39:41.782279  2911 net.cpp:94] Creating Layer relu3
I0716 11:39:41.782286  2911 net.cpp:435] relu3 <- conv3
I0716 11:39:41.782341  2911 net.cpp:409] relu3 -> relu3
I0716 11:39:41.782408  2911 net.cpp:144] Setting up relu3
I0716 11:39:41.782431  2911 net.cpp:151] Top shape: 50 384 13 13 (3244800)
I0716 11:39:41.782456  2911 net.cpp:159] Memory required for data: 365740600
I0716 11:39:41.782480  2911 layer_factory.hpp:77] Creating layer conv4
I0716 11:39:41.782517  2911 net.cpp:94] Creating Layer conv4
I0716 11:39:41.782542  2911 net.cpp:435] conv4 <- relu3
I0716 11:39:41.782572  2911 net.cpp:409] conv4 -> conv4
I0716 11:39:41.797948  2911 net.cpp:144] Setting up conv4
I0716 11:39:41.797981  2911 net.cpp:151] Top shape: 50 384 13 13 (3244800)
I0716 11:39:41.797999  2911 net.cpp:159] Memory required for data: 378719800
I0716 11:39:41.798022  2911 layer_factory.hpp:77] Creating layer relu4
I0716 11:39:41.798046  2911 net.cpp:94] Creating Layer relu4
I0716 11:39:41.798061  2911 net.cpp:435] relu4 <- conv4
I0716 11:39:41.798074  2911 net.cpp:409] relu4 -> relu4
I0716 11:39:41.798122  2911 net.cpp:144] Setting up relu4
I0716 11:39:41.798132  2911 net.cpp:151] Top shape: 50 384 13 13 (3244800)
I0716 11:39:41.798139  2911 net.cpp:159] Memory required for data: 391699000
I0716 11:39:41.798143  2911 layer_factory.hpp:77] Creating layer conv5
I0716 11:39:41.798152  2911 net.cpp:94] Creating Layer conv5
I0716 11:39:41.798156  2911 net.cpp:435] conv5 <- relu4
I0716 11:39:41.798161  2911 net.cpp:409] conv5 -> conv5
I0716 11:39:41.806972  2911 net.cpp:144] Setting up conv5
I0716 11:39:41.806993  2911 net.cpp:151] Top shape: 50 256 13 13 (2163200)
I0716 11:39:41.807005  2911 net.cpp:159] Memory required for data: 400351800
I0716 11:39:41.807016  2911 layer_factory.hpp:77] Creating layer relu5
I0716 11:39:41.807025  2911 net.cpp:94] Creating Layer relu5
I0716 11:39:41.807030  2911 net.cpp:435] relu5 <- conv5
I0716 11:39:41.807039  2911 net.cpp:409] relu5 -> relu5
I0716 11:39:41.807075  2911 net.cpp:144] Setting up relu5
I0716 11:39:41.807085  2911 net.cpp:151] Top shape: 50 256 13 13 (2163200)
I0716 11:39:41.807091  2911 net.cpp:159] Memory required for data: 409004600
I0716 11:39:41.807097  2911 layer_factory.hpp:77] Creating layer pool5
I0716 11:39:41.807107  2911 net.cpp:94] Creating Layer pool5
I0716 11:39:41.807111  2911 net.cpp:435] pool5 <- relu5
I0716 11:39:41.807117  2911 net.cpp:409] pool5 -> pool5
I0716 11:39:41.807152  2911 net.cpp:144] Setting up pool5
I0716 11:39:41.807160  2911 net.cpp:151] Top shape: 50 256 6 6 (460800)
I0716 11:39:41.807165  2911 net.cpp:159] Memory required for data: 410847800
I0716 11:39:41.807169  2911 layer_factory.hpp:77] Creating layer fc6
I0716 11:39:41.807176  2911 net.cpp:94] Creating Layer fc6
I0716 11:39:41.807180  2911 net.cpp:435] fc6 <- pool5
I0716 11:39:41.807185  2911 net.cpp:409] fc6 -> fc6
I0716 11:39:42.109802  2911 net.cpp:144] Setting up fc6
I0716 11:39:42.109827  2911 net.cpp:151] Top shape: 50 4096 (204800)
I0716 11:39:42.109835  2911 net.cpp:159] Memory required for data: 411667000
I0716 11:39:42.109863  2911 layer_factory.hpp:77] Creating layer relu6
I0716 11:39:42.109871  2911 net.cpp:94] Creating Layer relu6
I0716 11:39:42.109875  2911 net.cpp:435] relu6 <- fc6
I0716 11:39:42.109884  2911 net.cpp:409] relu6 -> relu6
I0716 11:39:42.109920  2911 net.cpp:144] Setting up relu6
I0716 11:39:42.109925  2911 net.cpp:151] Top shape: 50 4096 (204800)
I0716 11:39:42.109928  2911 net.cpp:159] Memory required for data: 412486200
I0716 11:39:42.109930  2911 layer_factory.hpp:77] Creating layer drop6
I0716 11:39:42.109936  2911 net.cpp:94] Creating Layer drop6
I0716 11:39:42.109939  2911 net.cpp:435] drop6 <- relu6
I0716 11:39:42.109942  2911 net.cpp:409] drop6 -> drop6
I0716 11:39:42.109963  2911 net.cpp:144] Setting up drop6
I0716 11:39:42.109967  2911 net.cpp:151] Top shape: 50 4096 (204800)
I0716 11:39:42.109972  2911 net.cpp:159] Memory required for data: 413305400
I0716 11:39:42.109975  2911 layer_factory.hpp:77] Creating layer fc7
I0716 11:39:42.109984  2911 net.cpp:94] Creating Layer fc7
I0716 11:39:42.109990  2911 net.cpp:435] fc7 <- drop6
I0716 11:39:42.109997  2911 net.cpp:409] fc7 -> fc7
I0716 11:39:42.241966  2911 net.cpp:144] Setting up fc7
I0716 11:39:42.241991  2911 net.cpp:151] Top shape: 50 4096 (204800)
I0716 11:39:42.241998  2911 net.cpp:159] Memory required for data: 414124600
I0716 11:39:42.242008  2911 layer_factory.hpp:77] Creating layer bn7
I0716 11:39:42.242020  2911 net.cpp:94] Creating Layer bn7
I0716 11:39:42.242024  2911 net.cpp:435] bn7 <- fc7
I0716 11:39:42.242030  2911 net.cpp:409] bn7 -> bn7
I0716 11:39:42.242524  2911 net.cpp:144] Setting up bn7
I0716 11:39:42.242533  2911 net.cpp:151] Top shape: 50 4096 (204800)
I0716 11:39:42.242543  2911 net.cpp:159] Memory required for data: 414943800
I0716 11:39:42.242555  2911 layer_factory.hpp:77] Creating layer relu7
I0716 11:39:42.242563  2911 net.cpp:94] Creating Layer relu7
I0716 11:39:42.242568  2911 net.cpp:435] relu7 <- bn7
I0716 11:39:42.242575  2911 net.cpp:409] relu7 -> relu7
I0716 11:39:42.242601  2911 net.cpp:144] Setting up relu7
I0716 11:39:42.242607  2911 net.cpp:151] Top shape: 50 4096 (204800)
I0716 11:39:42.242611  2911 net.cpp:159] Memory required for data: 415763000
I0716 11:39:42.242615  2911 layer_factory.hpp:77] Creating layer drop7
I0716 11:39:42.242620  2911 net.cpp:94] Creating Layer drop7
I0716 11:39:42.242624  2911 net.cpp:435] drop7 <- relu7
I0716 11:39:42.242628  2911 net.cpp:409] drop7 -> drop7
I0716 11:39:42.242651  2911 net.cpp:144] Setting up drop7
I0716 11:39:42.242656  2911 net.cpp:151] Top shape: 50 4096 (204800)
I0716 11:39:42.242661  2911 net.cpp:159] Memory required for data: 416582200
I0716 11:39:42.242664  2911 layer_factory.hpp:77] Creating layer fc8
I0716 11:39:42.242671  2911 net.cpp:94] Creating Layer fc8
I0716 11:39:42.242674  2911 net.cpp:435] fc8 <- drop7
I0716 11:39:42.242678  2911 net.cpp:409] fc8 -> fc8
I0716 11:39:42.242864  2911 net.cpp:144] Setting up fc8
I0716 11:39:42.242871  2911 net.cpp:151] Top shape: 50 2 (100)
I0716 11:39:42.242875  2911 net.cpp:159] Memory required for data: 416582600
I0716 11:39:42.242882  2911 layer_factory.hpp:77] Creating layer fc8_fc8_0_split
I0716 11:39:42.242887  2911 net.cpp:94] Creating Layer fc8_fc8_0_split
I0716 11:39:42.242890  2911 net.cpp:435] fc8_fc8_0_split <- fc8
I0716 11:39:42.242897  2911 net.cpp:409] fc8_fc8_0_split -> fc8_fc8_0_split_0
I0716 11:39:42.242902  2911 net.cpp:409] fc8_fc8_0_split -> fc8_fc8_0_split_1
I0716 11:39:42.242908  2911 net.cpp:409] fc8_fc8_0_split -> fc8_fc8_0_split_2
I0716 11:39:42.242938  2911 net.cpp:144] Setting up fc8_fc8_0_split
I0716 11:39:42.242944  2911 net.cpp:151] Top shape: 50 2 (100)
I0716 11:39:42.242949  2911 net.cpp:151] Top shape: 50 2 (100)
I0716 11:39:42.242952  2911 net.cpp:151] Top shape: 50 2 (100)
I0716 11:39:42.242956  2911 net.cpp:159] Memory required for data: 416583800
I0716 11:39:42.242959  2911 layer_factory.hpp:77] Creating layer accuracy
I0716 11:39:42.242966  2911 net.cpp:94] Creating Layer accuracy
I0716 11:39:42.242970  2911 net.cpp:435] accuracy <- fc8_fc8_0_split_0
I0716 11:39:42.242974  2911 net.cpp:435] accuracy <- label_data_1_split_0
I0716 11:39:42.242980  2911 net.cpp:409] accuracy -> accuracy
…
WARNING: Logging before InitGoogleLogging() is written to STDERR
I0716 13:06:37.567878  3007 gpu_memory.cpp:53] GPUMemory::Manager initialized with Caching (CUB) GPU Allocator
I0716 13:06:37.567903  3007 gpu_memory.cpp:55] Total memory: 25620447232, Free: 24253759488, dev_info[0]: total=25620447232 free=24253759488
I0716 13:06:37.569435  3007 net.cpp:52] Initializing net from parameters: 
name: "AlexNet_BNnoLRN m2 deploy"
state {
  phase: TEST
}
layer {
  name: "data"
  type: "Input"
  top: "data"
  input_param {
    shape {
      dim: 1
      dim: 3
      dim: 227
      dim: 227
    }
  }
}
layer {
  name: "conv1"
  type: "Convolution"
  bottom: "data"
  top: "conv1"
  param {
    lr_mult: 1
    decay_mult: 1
  }
  param {
    lr_mult: 2
    decay_mult: 0
  }
  convolution_param {
    num_output: 96
    pad: 1
    kernel_size: 11
    stride: 4
    weight_filler {
      type: "gaussian"
      std: 0.01
    }
    bias_filler {
      type: "constant"
      value: 0
    }
  }
}
layer {
  name: "bn1"
  type: "BatchNorm"
  bottom: "conv1"
  top: "bn1"
  param {
    lr_mult: 0
  }
  param {
    lr_mult: 0
  }
  param {
    lr_mult: 0
  }
  batch_norm_param {
    use_global_stats: true
  }
}
layer {
  name: "relu1"
  type: "ReLU"
  bottom: "bn1"
  top: "relu1"
}
layer {
  name: "pool1"
  type: "Pooling"
  bottom: "relu1"
  top: "pool1"
  pooling_param {
    pool: MAX
    kernel_size: 3
    stride: 2
  }
}
layer {
  name: "conv2"
  type: "Convolution"
  bottom: "pool1"
  top: "conv2"
  param {
    lr_mult: 1
    decay_mult: 1
  }
  param {
    lr_mult: 2
    decay_mult: 0
  }
  convolution_param {
    num_output: 256
    pad: 2
    kernel_size: 5
    group: 1
    weight_filler {
      type: "gaussian"
      std: 0.01
    }
    bias_filler {
      type: "constant"
      value: 1
    }
  }
}
layer {
  name: "bn2"
  type: "BatchNorm"
  bottom: "conv2"
  top: "bn2"
  param {
    lr_mult: 0
  }
  param {
    lr_mult: 0
  }
  param {
    lr_mult: 0
  }
  batch_norm_param {
    use_global_stats: true
  }
}
layer {
  name: "relu2"
  type: "ReLU"
  bottom: "bn2"
  top: "relu2"
}
layer {
  name: "pool2"
  type: "Pooling"
  bottom: "relu2"
  top: "pool2"
  pooling_param {
    pool: MAX
    kernel_size: 3
    stride: 2
  }
}
layer {
  name: "conv3"
  type: "Convolution"
  bottom: "pool2"
  top: "conv3"
  param {
    lr_mult: 1
    decay_mult: 1
  }
  param {
    lr_mult: 2
    decay_mult: 0
  }
  convolution_param {
    num_output: 384
    pad: 1
    kernel_size: 3
    weight_filler {
      type: "gaussian"
      std: 0.01
    }
    bias_filler {
      type: "constant"
      value: 0
    }
  }
}
layer {
  name: "relu3"
  type: "ReLU"
  bottom: "conv3"
  top: "relu3"
}
layer {
  name: "conv4"
  type: "Convolution"
  bottom: "relu3"
  top: "conv4"
  param {
    lr_mult: 1
    decay_mult: 1
  }
  param {
    lr_mult: 2
    decay_mult: 0
  }
  convolution_param {
    num_output: 384
    pad: 1
    kernel_size: 3
    group: 1
    weight_filler {
      type: "gaussian"
      std: 0.01
    }
    bias_filler {
      type: "constant"
      value: 1
    }
  }
}
layer {
  name: "relu4"
  type: "ReLU"
  bottom: "conv4"
  top: "relu4"
}
layer {
  name: "conv5"
  type: "Convolution"
  bottom: "relu4"
  top: "conv5"
  param {
    lr_mult: 1
    decay_mult: 1
  }
  param {
    lr_mult: 2
    decay_mult: 0
  }
  convolution_param {
    num_output: 256
    pad: 1
    kernel_size: 3
    group: 1
    weight_filler {
      type: "gaussian"
      std: 0.01
    }
    bias_filler {
      type: "constant"
      value: 1
    }
  }
}
layer {
  name: "relu5"
  type: "ReLU"
  bottom: "conv5"
  top: "relu5"
}
layer {
  name: "pool5"
  type: "Pooling"
  bottom: "relu5"
  top: "pool5"
  pooling_param {
    pool: MAX
    kernel_size: 3
    stride: 2
  }
}
layer {
  name: "fc6"
  type: "InnerProduct"
  bottom: "pool5"
  top: "fc6"
  param {
    lr_mult: 1
    decay_mult: 1
  }
  param {
    lr_mult: 2
    decay_mult: 0
  }
  inner_product_param {
    num_output: 4096
    weight_filler {
      type: "gaussian"
      std: 0.005
    }
    bias_filler {
      type: "constant"
      value: 1
    }
  }
}
layer {
  name: "relu6"
  type: "ReLU"
  bottom: "fc6"
  top: "relu6"
}
layer {
  name: "drop6"
  type: "Dropout"
  bottom: "relu6"
  top: "drop6"
  dropout_param {
    dropout_ratio: 0.5
  }
}
layer {
  name: "fc7"
  type: "InnerProduct"
  bottom: "drop6"
  top: "fc7"
  param {
    lr_mult: 1
    decay_mult: 1
  }
  param {
    lr_mult: 2
    decay_mult: 0
  }
  inner_product_param {
    num_output: 4096
    weight_filler {
      type: "gaussian"
      std: 0.005
    }
    bias_filler {
      type: "constant"
      value: 1
    }
  }
}
layer {
  name: "bn7"
  type: "BatchNorm"
  bottom: "fc7"
  top: "bn7"
  param {
    lr_mult: 0
  }
  param {
    lr_mult: 0
  }
  param {
    lr_mult: 0
  }
  batch_norm_param {
    use_global_stats: true
  }
}
layer {
  name: "relu7"
  type: "ReLU"
  bottom: "bn7"
  top: "relu7"
}
layer {
  name: "drop7"
  type: "Dropout"
  bottom: "relu7"
  top: "drop7"
  dropout_param {
    dropout_ratio: 0.5
  }
}
layer {
  name: "fc8"
  type: "InnerProduct"
  bottom: "drop7"
  top: "fc8"
  param {
    lr_mult: 1
    decay_mult: 1
  }
  param {
    lr_mult: 2
    decay_mult: 0
  }
  inner_product_param {
    num_output: 2
    weight_filler {
      type: "gaussian"
      std: 0.01
    }
    bias_filler {
      type: "constant"
      value: 0
    }
  }
}
layer {
  name: "prob"
  type: "Softmax"
  bottom: "fc8"
  top: "prob"
}
I0716 13:06:37.569614  3007 layer_factory.hpp:77] Creating layer data
I0716 13:06:37.569628  3007 net.cpp:94] Creating Layer data
I0716 13:06:37.569631  3007 net.cpp:409] data -> data
I0716 13:06:37.569687  3007 net.cpp:144] Setting up data
I0716 13:06:37.569696  3007 net.cpp:151] Top shape: 1 3 227 227 (154587)
I0716 13:06:37.569705  3007 net.cpp:159] Memory required for data: 618348
I0716 13:06:37.569710  3007 layer_factory.hpp:77] Creating layer conv1
I0716 13:06:37.569721  3007 net.cpp:94] Creating Layer conv1
I0716 13:06:37.569726  3007 net.cpp:435] conv1 <- data
I0716 13:06:37.569733  3007 net.cpp:409] conv1 -> conv1
I0716 13:06:37.570691  3007 net.cpp:144] Setting up conv1
I0716 13:06:37.570700  3007 net.cpp:151] Top shape: 1 96 55 55 (290400)
I0716 13:06:37.570706  3007 net.cpp:159] Memory required for data: 1779948
I0716 13:06:37.570716  3007 layer_factory.hpp:77] Creating layer bn1
I0716 13:06:37.570724  3007 net.cpp:94] Creating Layer bn1
I0716 13:06:37.570726  3007 net.cpp:435] bn1 <- conv1
I0716 13:06:37.570731  3007 net.cpp:409] bn1 -> bn1
I0716 13:06:37.571242  3007 net.cpp:144] Setting up bn1
I0716 13:06:37.571249  3007 net.cpp:151] Top shape: 1 96 55 55 (290400)
I0716 13:06:37.571254  3007 net.cpp:159] Memory required for data: 2941548
I0716 13:06:37.571266  3007 layer_factory.hpp:77] Creating layer relu1
I0716 13:06:37.571274  3007 net.cpp:94] Creating Layer relu1
I0716 13:06:37.571276  3007 net.cpp:435] relu1 <- bn1
I0716 13:06:37.571280  3007 net.cpp:409] relu1 -> relu1
I0716 13:06:37.571300  3007 net.cpp:144] Setting up relu1
I0716 13:06:37.571305  3007 net.cpp:151] Top shape: 1 96 55 55 (290400)
I0716 13:06:37.571311  3007 net.cpp:159] Memory required for data: 4103148
I0716 13:06:37.571316  3007 layer_factory.hpp:77] Creating layer pool1
I0716 13:06:37.571322  3007 net.cpp:94] Creating Layer pool1
I0716 13:06:37.571329  3007 net.cpp:435] pool1 <- relu1
I0716 13:06:37.571337  3007 net.cpp:409] pool1 -> pool1
I0716 13:06:37.571372  3007 net.cpp:144] Setting up pool1
I0716 13:06:37.571378  3007 net.cpp:151] Top shape: 1 96 27 27 (69984)
I0716 13:06:37.571384  3007 net.cpp:159] Memory required for data: 4383084
I0716 13:06:37.571389  3007 layer_factory.hpp:77] Creating layer conv2
I0716 13:06:37.571396  3007 net.cpp:94] Creating Layer conv2
I0716 13:06:37.571399  3007 net.cpp:435] conv2 <- pool1
I0716 13:06:37.571403  3007 net.cpp:409] conv2 -> conv2
I0716 13:06:37.577915  3007 net.cpp:144] Setting up conv2
I0716 13:06:37.577929  3007 net.cpp:151] Top shape: 1 256 27 27 (186624)
I0716 13:06:37.577936  3007 net.cpp:159] Memory required for data: 5129580
I0716 13:06:37.577944  3007 layer_factory.hpp:77] Creating layer bn2
I0716 13:06:37.577951  3007 net.cpp:94] Creating Layer bn2
I0716 13:06:37.577955  3007 net.cpp:435] bn2 <- conv2
I0716 13:06:37.577960  3007 net.cpp:409] bn2 -> bn2
I0716 13:06:37.578421  3007 net.cpp:144] Setting up bn2
I0716 13:06:37.578428  3007 net.cpp:151] Top shape: 1 256 27 27 (186624)
I0716 13:06:37.578435  3007 net.cpp:159] Memory required for data: 5876076
I0716 13:06:37.578444  3007 layer_factory.hpp:77] Creating layer relu2
I0716 13:06:37.578447  3007 net.cpp:94] Creating Layer relu2
I0716 13:06:37.578450  3007 net.cpp:435] relu2 <- bn2
I0716 13:06:37.578454  3007 net.cpp:409] relu2 -> relu2
I0716 13:06:37.578469  3007 net.cpp:144] Setting up relu2
I0716 13:06:37.578474  3007 net.cpp:151] Top shape: 1 256 27 27 (186624)
I0716 13:06:37.578478  3007 net.cpp:159] Memory required for data: 6622572
I0716 13:06:37.578481  3007 layer_factory.hpp:77] Creating layer pool2
I0716 13:06:37.578488  3007 net.cpp:94] Creating Layer pool2
I0716 13:06:37.578492  3007 net.cpp:435] pool2 <- relu2
I0716 13:06:37.578498  3007 net.cpp:409] pool2 -> pool2
I0716 13:06:37.578532  3007 net.cpp:144] Setting up pool2
I0716 13:06:37.578538  3007 net.cpp:151] Top shape: 1 256 13 13 (43264)
I0716 13:06:37.578543  3007 net.cpp:159] Memory required for data: 6795628
I0716 13:06:37.578547  3007 layer_factory.hpp:77] Creating layer conv3
I0716 13:06:37.578557  3007 net.cpp:94] Creating Layer conv3
I0716 13:06:37.578564  3007 net.cpp:435] conv3 <- pool2
I0716 13:06:37.578569  3007 net.cpp:409] conv3 -> conv3
I0716 13:06:37.586573  3007 net.cpp:144] Setting up conv3
I0716 13:06:37.586585  3007 net.cpp:151] Top shape: 1 384 13 13 (64896)
I0716 13:06:37.586591  3007 net.cpp:159] Memory required for data: 7055212
I0716 13:06:37.586596  3007 layer_factory.hpp:77] Creating layer relu3
I0716 13:06:37.586617  3007 net.cpp:94] Creating Layer relu3
I0716 13:06:37.586621  3007 net.cpp:435] relu3 <- conv3
I0716 13:06:37.586624  3007 net.cpp:409] relu3 -> relu3
I0716 13:06:37.586642  3007 net.cpp:144] Setting up relu3
I0716 13:06:37.586644  3007 net.cpp:151] Top shape: 1 384 13 13 (64896)
I0716 13:06:37.586647  3007 net.cpp:159] Memory required for data: 7314796
I0716 13:06:37.586649  3007 layer_factory.hpp:77] Creating layer conv4
I0716 13:06:37.586658  3007 net.cpp:94] Creating Layer conv4
I0716 13:06:37.586660  3007 net.cpp:435] conv4 <- relu3
I0716 13:06:37.586663  3007 net.cpp:409] conv4 -> conv4
I0716 13:06:37.598124  3007 net.cpp:144] Setting up conv4
I0716 13:06:37.598137  3007 net.cpp:151] Top shape: 1 384 13 13 (64896)
I0716 13:06:37.598143  3007 net.cpp:159] Memory required for data: 7574380
I0716 13:06:37.598151  3007 layer_factory.hpp:77] Creating layer relu4
I0716 13:06:37.598157  3007 net.cpp:94] Creating Layer relu4
I0716 13:06:37.598160  3007 net.cpp:435] relu4 <- conv4
I0716 13:06:37.598163  3007 net.cpp:409] relu4 -> relu4
I0716 13:06:37.598181  3007 net.cpp:144] Setting up relu4
I0716 13:06:37.598184  3007 net.cpp:151] Top shape: 1 384 13 13 (64896)
I0716 13:06:37.598187  3007 net.cpp:159] Memory required for data: 7833964
I0716 13:06:37.598191  3007 layer_factory.hpp:77] Creating layer conv5
I0716 13:06:37.598196  3007 net.cpp:94] Creating Layer conv5
I0716 13:06:37.598198  3007 net.cpp:435] conv5 <- relu4
I0716 13:06:37.598202  3007 net.cpp:409] conv5 -> conv5
I0716 13:06:37.606046  3007 net.cpp:144] Setting up conv5
I0716 13:06:37.606058  3007 net.cpp:151] Top shape: 1 256 13 13 (43264)
I0716 13:06:37.606063  3007 net.cpp:159] Memory required for data: 8007020
I0716 13:06:37.606070  3007 layer_factory.hpp:77] Creating layer relu5
I0716 13:06:37.606076  3007 net.cpp:94] Creating Layer relu5
I0716 13:06:37.606078  3007 net.cpp:435] relu5 <- conv5
I0716 13:06:37.606082  3007 net.cpp:409] relu5 -> relu5
I0716 13:06:37.606098  3007 net.cpp:144] Setting up relu5
I0716 13:06:37.606101  3007 net.cpp:151] Top shape: 1 256 13 13 (43264)
I0716 13:06:37.606106  3007 net.cpp:159] Memory required for data: 8180076
I0716 13:06:37.606107  3007 layer_factory.hpp:77] Creating layer pool5
I0716 13:06:37.606114  3007 net.cpp:94] Creating Layer pool5
I0716 13:06:37.606117  3007 net.cpp:435] pool5 <- relu5
I0716 13:06:37.606119  3007 net.cpp:409] pool5 -> pool5
I0716 13:06:37.606156  3007 net.cpp:144] Setting up pool5
I0716 13:06:37.606158  3007 net.cpp:151] Top shape: 1 256 6 6 (9216)
I0716 13:06:37.606163  3007 net.cpp:159] Memory required for data: 8216940
I0716 13:06:37.606164  3007 layer_factory.hpp:77] Creating layer fc6
I0716 13:06:37.606171  3007 net.cpp:94] Creating Layer fc6
I0716 13:06:37.606173  3007 net.cpp:435] fc6 <- pool5
I0716 13:06:37.606178  3007 net.cpp:409] fc6 -> fc6
I0716 13:06:37.943523  3007 net.cpp:144] Setting up fc6
I0716 13:06:37.943544  3007 net.cpp:151] Top shape: 1 4096 (4096)
I0716 13:06:37.943552  3007 net.cpp:159] Memory required for data: 8233324
I0716 13:06:37.943563  3007 layer_factory.hpp:77] Creating layer relu6
I0716 13:06:37.943588  3007 net.cpp:94] Creating Layer relu6
I0716 13:06:37.943591  3007 net.cpp:435] relu6 <- fc6
I0716 13:06:37.943598  3007 net.cpp:409] relu6 -> relu6
I0716 13:06:37.943616  3007 net.cpp:144] Setting up relu6
I0716 13:06:37.943619  3007 net.cpp:151] Top shape: 1 4096 (4096)
I0716 13:06:37.943622  3007 net.cpp:159] Memory required for data: 8249708
I0716 13:06:37.943625  3007 layer_factory.hpp:77] Creating layer drop6
I0716 13:06:37.943629  3007 net.cpp:94] Creating Layer drop6
I0716 13:06:37.943632  3007 net.cpp:435] drop6 <- relu6
I0716 13:06:37.943635  3007 net.cpp:409] drop6 -> drop6
I0716 13:06:37.943655  3007 net.cpp:144] Setting up drop6
I0716 13:06:37.943658  3007 net.cpp:151] Top shape: 1 4096 (4096)
I0716 13:06:37.943661  3007 net.cpp:159] Memory required for data: 8266092
I0716 13:06:37.943663  3007 layer_factory.hpp:77] Creating layer fc7
I0716 13:06:37.943670  3007 net.cpp:94] Creating Layer fc7
I0716 13:06:37.943671  3007 net.cpp:435] fc7 <- drop6
I0716 13:06:37.943676  3007 net.cpp:409] fc7 -> fc7
I0716 13:06:38.088802  3007 net.cpp:144] Setting up fc7
I0716 13:06:38.088825  3007 net.cpp:151] Top shape: 1 4096 (4096)
I0716 13:06:38.088831  3007 net.cpp:159] Memory required for data: 8282476
I0716 13:06:38.088843  3007 layer_factory.hpp:77] Creating layer bn7
I0716 13:06:38.088853  3007 net.cpp:94] Creating Layer bn7
I0716 13:06:38.088857  3007 net.cpp:435] bn7 <- fc7
I0716 13:06:38.088865  3007 net.cpp:409] bn7 -> bn7
I0716 13:06:38.089341  3007 net.cpp:144] Setting up bn7
I0716 13:06:38.089349  3007 net.cpp:151] Top shape: 1 4096 (4096)
I0716 13:06:38.089351  3007 net.cpp:159] Memory required for data: 8298860
I0716 13:06:38.089359  3007 layer_factory.hpp:77] Creating layer relu7
I0716 13:06:38.089365  3007 net.cpp:94] Creating Layer relu7
I0716 13:06:38.089367  3007 net.cpp:435] relu7 <- bn7
I0716 13:06:38.089371  3007 net.cpp:409] relu7 -> relu7
I0716 13:06:38.089403  3007 net.cpp:144] Setting up relu7
I0716 13:06:38.089408  3007 net.cpp:151] Top shape: 1 4096 (4096)
I0716 13:06:38.089412  3007 net.cpp:159] Memory required for data: 8315244
I0716 13:06:38.089416  3007 layer_factory.hpp:77] Creating layer drop7
I0716 13:06:38.089421  3007 net.cpp:94] Creating Layer drop7
I0716 13:06:38.089424  3007 net.cpp:435] drop7 <- relu7
I0716 13:06:38.089428  3007 net.cpp:409] drop7 -> drop7
I0716 13:06:38.089458  3007 net.cpp:144] Setting up drop7
I0716 13:06:38.089463  3007 net.cpp:151] Top shape: 1 4096 (4096)
I0716 13:06:38.089468  3007 net.cpp:159] Memory required for data: 8331628
I0716 13:06:38.089473  3007 layer_factory.hpp:77] Creating layer fc8
I0716 13:06:38.089481  3007 net.cpp:94] Creating Layer fc8
I0716 13:06:38.089488  3007 net.cpp:435] fc8 <- drop7
I0716 13:06:38.089493  3007 net.cpp:409] fc8 -> fc8
I0716 13:06:38.089661  3007 net.cpp:144] Setting up fc8
I0716 13:06:38.089666  3007 net.cpp:151] Top shape: 1 2 (2)
I0716 13:06:38.089670  3007 net.cpp:159] Memory required for data: 8331636
I0716 13:06:38.089676  3007 layer_factory.hpp:77] Creating layer prob
I0716 13:06:38.089680  3007 net.cpp:94] Creating Layer prob
I0716 13:06:38.089684  3007 net.cpp:435] prob <- fc8
I0716 13:06:38.089687  3007 net.cpp:409] prob -> prob
I0716 13:06:38.089738  3007 net.cpp:144] Setting up prob
I0716 13:06:38.089745  3007 net.cpp:151] Top shape: 1 2 (2)
I0716 13:06:38.089751  3007 net.cpp:159] Memory required for data: 8331644
I0716 13:06:38.089753  3007 net.cpp:222] prob does not need backward computation.
I0716 13:06:38.089757  3007 net.cpp:222] fc8 does not need backward computation.
I0716 13:06:38.089761  3007 net.cpp:222] drop7 does not need backward computation.
I0716 13:06:38.089763  3007 net.cpp:222] relu7 does not need backward computation.
…
I0716 13:06:45.338973  3045 net.cpp:323] The NetState phase (0) differed from the phase (1) specified by a rule in layer accuracy-top1
I0716 13:06:45.338992  3045 net.cpp:52] Initializing net from parameters: 
state {
  phase: TRAIN
}
layer {
  name: "data"
  type: "ImageData"
  top: "data"
  top: "label"
  include {
    phase: TRAIN
  }
  transform_param {
    crop_size: 227
    mean_value: 106
    mean_value: 116
    mean_value: 124
  }
  image_data_param {
    source: "deploy/alexnetBNnoLRN/quantiz/data/calib/calibration.txt"
    batch_size: 10
    shuffle: true
    root_folder: "deploy/alexnetBNnoLRN/quantiz/data/calib/"
  }
}
layer {
  name: "conv1"
  type: "Convolution"
  bottom: "data"
  top: "conv1"
  param {
    lr_mult: 1
    decay_mult: 1
  }
  param {
    lr_mult: 2
    decay_mult: 0
  }
  convolution_param {
    num_output: 96
    pad: 1
    kernel_size: 11
    stride: 4
    weight_filler {
      type: "gaussian"
      std: 0.01
    }
    bias_filler {
      type: "constant"
      value: 0
    }
  }
}
layer {
  name: "bn1"
  type: "BatchNorm"
  bottom: "conv1"
  top: "bn1"
  param {
    lr_mult: 0
  }
  param {
    lr_mult: 0
  }
  param {
    lr_mult: 0
  }
  batch_norm_param {
    use_global_stats: false
  }
}
layer {
  name: "relu1"
  type: "ReLU"
  bottom: "bn1"
  top: "relu1"
}
layer {
  name: "pool1"
  type: "Pooling"
  bottom: "relu1"
  top: "pool1"
  pooling_param {
    pool: MAX
    kernel_size: 3
    stride: 2
  }
}
layer {
  name: "conv2"
  type: "Convolution"
  bottom: "pool1"
  top: "conv2"
  param {
    lr_mult: 1
    decay_mult: 1
  }
  param {
    lr_mult: 2
    decay_mult: 0
  }
  convolution_param {
    num_output: 256
    pad: 2
    kernel_size: 5
    group: 1
    weight_filler {
      type: "gaussian"
      std: 0.01
    }
    bias_filler {
      type: "constant"
      value: 1
    }
  }
}
layer {
  name: "bn2"
  type: "BatchNorm"
  bottom: "conv2"
  top: "bn2"
  param {
    lr_mult: 0
  }
  param {
    lr_mult: 0
  }
  param {
    lr_mult: 0
  }
  batch_norm_param {
    use_global_stats: false
  }
}
layer {
  name: "relu2"
  type: "ReLU"
  bottom: "bn2"
  top: "relu2"
}
layer {
  name: "pool2"
  type: "Pooling"
  bottom: "relu2"
  top: "pool2"
  pooling_param {
    pool: MAX
    kernel_size: 3
    stride: 2
  }
}
layer {
  name: "conv3"
  type: "Convolution"
  bottom: "pool2"
  top: "conv3"
  param {
    lr_mult: 1
    decay_mult: 1
  }
  param {
    lr_mult: 2
    decay_mult: 0
  }
  convolution_param {
    num_output: 384
    pad: 1
    kernel_size: 3
    weight_filler {
      type: "gaussian"
      std: 0.01
    }
    bias_filler {
      type: "constant"
      value: 0
    }
  }
}
layer {
  name: "relu3"
  type: "ReLU"
  bottom: "conv3"
  top: "relu3"
}
layer {
  name: "conv4"
  type: "Convolution"
  bottom: "relu3"
  top: "conv4"
  param {
    lr_mult: 1
    decay_mult: 1
  }
  param {
    lr_mult: 2
    decay_mult: 0
  }
  convolution_param {
    num_output: 384
    pad: 1
    kernel_size: 3
    group: 1
    weight_filler {
      type: "gaussian"
      std: 0.01
    }
    bias_filler {
      type: "constant"
      value: 1
    }
  }
}
layer {
  name: "relu4"
  type: "ReLU"
  bottom: "conv4"
  top: "relu4"
}
layer {
  name: "conv5"
  type: "Convolution"
  bottom: "relu4"
  top: "conv5"
  param {
    lr_mult: 1
    decay_mult: 1
  }
  param {
    lr_mult: 2
    decay_mult: 0
  }
  convolution_param {
    num_output: 256
    pad: 1
    kernel_size: 3
    group: 1
    weight_filler {
      type: "gaussian"
      std: 0.01
    }
    bias_filler {
      type: "constant"
      value: 1
    }
  }
}
layer {
  name: "relu5"
  type: "ReLU"
  bottom: "conv5"
  top: "relu5"
}
layer {
  name: "pool5"
  type: "Pooling"
  bottom: "relu5"
  top: "pool5"
  pooling_param {
    pool: MAX
    kernel_size: 3
    stride: 2
  }
}
layer {
  name: "fc6"
  type: "InnerProduct"
  bottom: "pool5"
  top: "fc6"
  param {
    lr_mult: 1
    decay_mult: 1
  }
  param {
    lr_mult: 2
    decay_mult: 0
  }
  inner_product_param {
    num_output: 4096
    weight_filler {
      type: "gaussian"
      std: 0.005
    }
    bias_filler {
      type: "constant"
      value: 1
    }
  }
}
layer {
  name: "relu6"
  type: "ReLU"
  bottom: "fc6"
  top: "relu6"
}
layer {
  name: "fc7"
  type: "InnerProduct"
  bottom: "relu6"
  top: "fc7"
  param {
    lr_mult: 1
    decay_mult: 1
  }
  param {
    lr_mult: 2
    decay_mult: 0
  }
  inner_product_param {
    num_output: 4096
    weight_filler {
      type: "gaussian"
      std: 0.005
    }
    bias_filler {
      type: "constant"
      value: 1
    }
  }
}
layer {
  name: "bn7"
  type: "BatchNorm"
  bottom: "fc7"
  top: "bn7"
  param {
    lr_mult: 0
  }
  param {
    lr_mult: 0
  }
  param {
    lr_mult: 0
  }
  batch_norm_param {
    use_global_stats: false
  }
}
layer {
  name: "relu7"
  type: "ReLU"
  bottom: "bn7"
  top: "relu7"
}
layer {
  name: "fc8"
  type: "InnerProduct"
  bottom: "relu7"
  top: "fc8"
  param {
    lr_mult: 1
    decay_mult: 1
  }
  param {
    lr_mult: 2
    decay_mult: 0
  }
  inner_product_param {
    num_output: 2
    weight_filler {
      type: "gaussian"
      std: 0.01
    }
    bias_filler {
      type: "constant"
      value: 0
    }
  }
}
layer {
  name: "loss"
  type: "SoftmaxWithLoss"
  bottom: "fc8"
  bottom: "label"
  top: "loss"
}
I0716 13:06:45.339182  3045 layer_factory.hpp:77] Creating layer data
I0716 13:06:45.339205  3045 net.cpp:94] Creating Layer data
I0716 13:06:45.339211  3045 net.cpp:409] data -> data
I0716 13:06:45.339243  3045 net.cpp:409] data -> label
I0716 13:06:45.339608  3045 image_data_layer.cpp:41] Opening file deploy/alexnetBNnoLRN/quantiz/data/calib/calibration.txt
I0716 13:06:45.339741  3045 image_data_layer.cpp:51] Shuffling data
I0716 13:06:45.339758  3045 image_data_layer.cpp:56] A total of 200 images.
I0716 13:06:45.341341  3045 image_data_layer.cpp:84] output data size: 10,3,227,227
I0716 13:06:45.362572  3045 internal_thread.cpp:27] Starting internal thread(s) on GPU 0
I0716 13:06:45.362666  3045 net.cpp:144] Setting up data
I0716 13:06:45.362671  3045 net.cpp:151] Top shape: 10 3 227 227 (1545870)
I0716 13:06:45.362684  3045 net.cpp:151] Top shape: 10 (10)
I0716 13:06:45.362704  3045 net.cpp:159] Memory required for data: 6183520
I0716 13:06:45.362707  3045 layer_factory.hpp:77] Creating layer conv1
I0716 13:06:45.362722  3045 net.cpp:94] Creating Layer conv1
I0716 13:06:45.362728  3045 net.cpp:435] conv1 <- data
I0716 13:06:45.362735  3045 net.cpp:409] conv1 -> conv1
I0716 13:06:45.363360  3045 net.cpp:144] Setting up conv1
I0716 13:06:45.363368  3045 net.cpp:151] Top shape: 10 96 55 55 (2904000)
I0716 13:06:45.363373  3045 net.cpp:159] Memory required for data: 17799520
I0716 13:06:45.363394  3045 layer_factory.hpp:77] Creating layer bn1
I0716 13:06:45.363404  3045 net.cpp:94] Creating Layer bn1
I0716 13:06:45.363407  3045 net.cpp:435] bn1 <- conv1
I0716 13:06:45.363412  3045 net.cpp:409] bn1 -> bn1
I0716 13:06:45.363932  3045 net.cpp:144] Setting up bn1
I0716 13:06:45.363937  3045 net.cpp:151] Top shape: 10 96 55 55 (2904000)
I0716 13:06:45.363943  3045 net.cpp:159] Memory required for data: 29415520
I0716 13:06:45.363950  3045 layer_factory.hpp:77] Creating layer relu1
I0716 13:06:45.363955  3045 net.cpp:94] Creating Layer relu1
I0716 13:06:45.363958  3045 net.cpp:435] relu1 <- bn1
I0716 13:06:45.363978  3045 net.cpp:409] relu1 -> relu1
I0716 13:06:45.363996  3045 net.cpp:144] Setting up relu1
I0716 13:06:45.364001  3045 net.cpp:151] Top shape: 10 96 55 55 (2904000)
I0716 13:06:45.364004  3045 net.cpp:159] Memory required for data: 41031520
I0716 13:06:45.364007  3045 layer_factory.hpp:77] Creating layer pool1
I0716 13:06:45.364013  3045 net.cpp:94] Creating Layer pool1
I0716 13:06:45.364017  3045 net.cpp:435] pool1 <- relu1
I0716 13:06:45.364020  3045 net.cpp:409] pool1 -> pool1
I0716 13:06:45.364046  3045 net.cpp:144] Setting up pool1
I0716 13:06:45.364050  3045 net.cpp:151] Top shape: 10 96 27 27 (699840)
I0716 13:06:45.364054  3045 net.cpp:159] Memory required for data: 43830880
I0716 13:06:45.364058  3045 layer_factory.hpp:77] Creating layer conv2
I0716 13:06:45.364064  3045 net.cpp:94] Creating Layer conv2
I0716 13:06:45.364068  3045 net.cpp:435] conv2 <- pool1
I0716 13:06:45.364071  3045 net.cpp:409] conv2 -> conv2
I0716 13:06:45.370261  3045 net.cpp:144] Setting up conv2
I0716 13:06:45.370275  3045 net.cpp:151] Top shape: 10 256 27 27 (1866240)
I0716 13:06:45.370280  3045 net.cpp:159] Memory required for data: 51295840
I0716 13:06:45.370288  3045 layer_factory.hpp:77] Creating layer bn2
I0716 13:06:45.370296  3045 net.cpp:94] Creating Layer bn2
I0716 13:06:45.370298  3045 net.cpp:435] bn2 <- conv2
I0716 13:06:45.370303  3045 net.cpp:409] bn2 -> bn2
I0716 13:06:45.370730  3045 net.cpp:144] Setting up bn2
I0716 13:06:45.370735  3045 net.cpp:151] Top shape: 10 256 27 27 (1866240)
I0716 13:06:45.370739  3045 net.cpp:159] Memory required for data: 58760800
I0716 13:06:45.370746  3045 layer_factory.hpp:77] Creating layer relu2
I0716 13:06:45.370750  3045 net.cpp:94] Creating Layer relu2
I0716 13:06:45.370754  3045 net.cpp:435] relu2 <- bn2
I0716 13:06:45.370757  3045 net.cpp:409] relu2 -> relu2
I0716 13:06:45.370774  3045 net.cpp:144] Setting up relu2
I0716 13:06:45.370777  3045 net.cpp:151] Top shape: 10 256 27 27 (1866240)
I0716 13:06:45.370781  3045 net.cpp:159] Memory required for data: 66225760
I0716 13:06:45.370784  3045 layer_factory.hpp:77] Creating layer pool2
I0716 13:06:45.370790  3045 net.cpp:94] Creating Layer pool2
I0716 13:06:45.370793  3045 net.cpp:435] pool2 <- relu2
I0716 13:06:45.370796  3045 net.cpp:409] pool2 -> pool2
I0716 13:06:45.370818  3045 net.cpp:144] Setting up pool2
I0716 13:06:45.370823  3045 net.cpp:151] Top shape: 10 256 13 13 (432640)
I0716 13:06:45.370827  3045 net.cpp:159] Memory required for data: 67956320
I0716 13:06:45.370831  3045 layer_factory.hpp:77] Creating layer conv3
I0716 13:06:45.370836  3045 net.cpp:94] Creating Layer conv3
I0716 13:06:45.370839  3045 net.cpp:435] conv3 <- pool2
I0716 13:06:45.370843  3045 net.cpp:409] conv3 -> conv3
I0716 13:06:45.378674  3045 net.cpp:144] Setting up conv3
I0716 13:06:45.378688  3045 net.cpp:151] Top shape: 10 384 13 13 (648960)
I0716 13:06:45.378693  3045 net.cpp:159] Memory required for data: 70552160
I0716 13:06:45.378700  3045 layer_factory.hpp:77] Creating layer relu3
I0716 13:06:45.378705  3045 net.cpp:94] Creating Layer relu3
I0716 13:06:45.378708  3045 net.cpp:435] relu3 <- conv3
I0716 13:06:45.378713  3045 net.cpp:409] relu3 -> relu3
I0716 13:06:45.378729  3045 net.cpp:144] Setting up relu3
I0716 13:06:45.378733  3045 net.cpp:151] Top shape: 10 384 13 13 (648960)
I0716 13:06:45.378737  3045 net.cpp:159] Memory required for data: 73148000
I0716 13:06:45.378739  3045 layer_factory.hpp:77] Creating layer conv4
I0716 13:06:45.378746  3045 net.cpp:94] Creating Layer conv4
I0716 13:06:45.378749  3045 net.cpp:435] conv4 <- relu3
I0716 13:06:45.378752  3045 net.cpp:409] conv4 -> conv4
I0716 13:06:45.390214  3045 net.cpp:144] Setting up conv4
I0716 13:06:45.390228  3045 net.cpp:151] Top shape: 10 384 13 13 (648960)
I0716 13:06:45.390233  3045 net.cpp:159] Memory required for data: 75743840
I0716 13:06:45.390241  3045 layer_factory.hpp:77] Creating layer relu4
I0716 13:06:45.390247  3045 net.cpp:94] Creating Layer relu4
I0716 13:06:45.390250  3045 net.cpp:435] relu4 <- conv4
I0716 13:06:45.390254  3045 net.cpp:409] relu4 -> relu4
I0716 13:06:45.390270  3045 net.cpp:144] Setting up relu4
I0716 13:06:45.390273  3045 net.cpp:151] Top shape: 10 384 13 13 (648960)
I0716 13:06:45.390278  3045 net.cpp:159] Memory required for data: 78339680
I0716 13:06:45.390280  3045 layer_factory.hpp:77] Creating layer conv5
I0716 13:06:45.390286  3045 net.cpp:94] Creating Layer conv5
I0716 13:06:45.390290  3045 net.cpp:435] conv5 <- relu4
I0716 13:06:45.390292  3045 net.cpp:409] conv5 -> conv5
I0716 13:06:45.398520  3045 net.cpp:144] Setting up conv5
I0716 13:06:45.398533  3045 net.cpp:151] Top shape: 10 256 13 13 (432640)
I0716 13:06:45.398538  3045 net.cpp:159] Memory required for data: 80070240
I0716 13:06:45.398545  3045 layer_factory.hpp:77] Creating layer relu5
I0716 13:06:45.398550  3045 net.cpp:94] Creating Layer relu5
I0716 13:06:45.398553  3045 net.cpp:435] relu5 <- conv5
I0716 13:06:45.398573  3045 net.cpp:409] relu5 -> relu5
I0716 13:06:45.398591  3045 net.cpp:144] Setting up relu5
I0716 13:06:45.398592  3045 net.cpp:151] Top shape: 10 256 13 13 (432640)
I0716 13:06:45.398597  3045 net.cpp:159] Memory required for data: 81800800
I0716 13:06:45.398598  3045 layer_factory.hpp:77] Creating layer pool5
I0716 13:06:45.398602  3045 net.cpp:94] Creating Layer pool5
I0716 13:06:45.398605  3045 net.cpp:435] pool5 <- relu5
I0716 13:06:45.398608  3045 net.cpp:409] pool5 -> pool5
I0716 13:06:45.398627  3045 net.cpp:144] Setting up pool5
I0716 13:06:45.398633  3045 net.cpp:151] Top shape: 10 256 6 6 (92160)
I0716 13:06:45.398635  3045 net.cpp:159] Memory required for data: 82169440
I0716 13:06:45.398638  3045 layer_factory.hpp:77] Creating layer fc6
I0716 13:06:45.398644  3045 net.cpp:94] Creating Layer fc6
I0716 13:06:45.398648  3045 net.cpp:435] fc6 <- pool5
I0716 13:06:45.398650  3045 net.cpp:409] fc6 -> fc6
I0716 13:06:45.698626  3045 net.cpp:144] Setting up fc6
I0716 13:06:45.698647  3045 net.cpp:151] Top shape: 10 4096 (40960)
I0716 13:06:45.698654  3045 net.cpp:159] Memory required for data: 82333280
I0716 13:06:45.698664  3045 layer_factory.hpp:77] Creating layer relu6
I0716 13:06:45.698673  3045 net.cpp:94] Creating Layer relu6
I0716 13:06:45.698675  3045 net.cpp:435] relu6 <- fc6
I0716 13:06:45.698681  3045 net.cpp:409] relu6 -> relu6
I0716 13:06:45.698704  3045 net.cpp:144] Setting up relu6
I0716 13:06:45.698705  3045 net.cpp:151] Top shape: 10 4096 (40960)
I0716 13:06:45.698709  3045 net.cpp:159] Memory required for data: 82497120
I0716 13:06:45.698710  3045 layer_factory.hpp:77] Creating layer fc7
I0716 13:06:45.698717  3045 net.cpp:94] Creating Layer fc7
I0716 13:06:45.698719  3045 net.cpp:435] fc7 <- relu6
I0716 13:06:45.698724  3045 net.cpp:409] fc7 -> fc7
I0716 13:06:45.830976  3045 net.cpp:144] Setting up fc7
I0716 13:06:45.830997  3045 net.cpp:151] Top shape: 10 4096 (40960)
I0716 13:06:45.831003  3045 net.cpp:159] Memory required for data: 82660960
I0716 13:06:45.831013  3045 layer_factory.hpp:77] Creating layer bn7
I0716 13:06:45.831023  3045 net.cpp:94] Creating Layer bn7
I0716 13:06:45.831028  3045 net.cpp:435] bn7 <- fc7
I0716 13:06:45.831034  3045 net.cpp:409] bn7 -> bn7
I0716 13:06:45.831477  3045 net.cpp:144] Setting up bn7
I0716 13:06:45.831482  3045 net.cpp:151] Top shape: 10 4096 (40960)
I0716 13:06:45.831485  3045 net.cpp:159] Memory required for data: 82824800
I0716 13:06:45.831493  3045 layer_factory.hpp:77] Creating layer relu7
I0716 13:06:45.831497  3045 net.cpp:94] Creating Layer relu7
I0716 13:06:45.831501  3045 net.cpp:435] relu7 <- bn7
I0716 13:06:45.831504  3045 net.cpp:409] relu7 -> relu7
I0716 13:06:45.831519  3045 net.cpp:144] Setting up relu7
I0716 13:06:45.831526  3045 net.cpp:151] Top shape: 10 4096 (40960)
I0716 13:06:45.831528  3045 net.cpp:159] Memory required for data: 82988640
I0716 13:06:45.831549  3045 layer_factory.hpp:77] Creating layer fc8
I0716 13:06:45.831555  3045 net.cpp:94] Creating Layer fc8
I0716 13:06:45.831558  3045 net.cpp:435] fc8 <- relu7
I0716 13:06:45.831562  3045 net.cpp:409] fc8 -> fc8
I0716 13:06:45.831707  3045 net.cpp:144] Setting up fc8
I0716 13:06:45.831712  3045 net.cpp:151] Top shape: 10 2 (20)
I0716 13:06:45.831714  3045 net.cpp:159] Memory required for data: 82988720
I0716 13:06:45.831719  3045 layer_factory.hpp:77] Creating layer loss
I0716 13:06:45.831732  3045 net.cpp:94] Creating Layer loss
I0716 13:06:45.831734  3045 net.cpp:435] loss <- fc8
I0716 13:06:45.831737  3045 net.cpp:435] loss <- label
I0716 13:06:45.831741  3045 net.cpp:409] loss -> loss
I0716 13:06:45.831751  3045 layer_factory.hpp:77] Creating layer loss
…
I0716 13:06:46.738054  3045 net.cpp:323] The NetState phase (0) differed from the phase (1) specified by a rule in layer accuracy-top1
I0716 13:06:46.738057  3045 net.cpp:52] Initializing net from parameters: 
state {
  phase: TRAIN
}
layer {
  name: "data"
  type: "ImageData"
  top: "data"
  top: "label"
  include {
    phase: TRAIN
  }
  transform_param {
    crop_size: 227
    mean_value: 106
    mean_value: 116
    mean_value: 124
  }
  image_data_param {
    source: "deploy/alexnetBNnoLRN/quantiz/data/calib/calibration.txt"
    batch_size: 10
    shuffle: true
    root_folder: "deploy/alexnetBNnoLRN/quantiz/data/calib/"
  }
}
layer {
  name: "data_fixed"
  type: "FixedNeuron"
  bottom: "data"
  top: "data"
  param {
    lr_mult: 0
    decay_mult: 0
  }
  fixed_param {
    fixed_method: OVER_FLOW
    bit_width: 8
    follow_data_layer: true
  }
}
layer {
  name: "conv1"
  type: "ConvolutionFixed"
  bottom: "data"
  top: "bn1"
  param {
    lr_mult: 1
    decay_mult: 1
  }
  param {
    lr_mult: 1
    decay_mult: 0
  }
  convolution_param {
    num_output: 96
    bias_term: true
    pad: 1
    kernel_size: 11
    stride: 4
    weight_filler {
      type: "gaussian"
      std: 0.01
    }
    bias_filler {
      type: "constant"
      value: 0
    }
  }
  fixed_param {
    fixed_method: DIFF_S
    bit_width: 8
  }
}
layer {
  name: "relu1"
  type: "ReLU"
  bottom: "bn1"
  top: "relu1"
}
layer {
  name: "pool1"
  type: "Pooling"
  bottom: "relu1"
  top: "pool1"
  pooling_param {
    pool: MAX
    kernel_size: 3
    stride: 2
  }
}
layer {
  name: "pool1_fixed"
  type: "FixedNeuron"
  bottom: "pool1"
  top: "pool1"
  param {
    lr_mult: 0
    decay_mult: 0
  }
  fixed_param {
    fixed_method: DIFF_S
    bit_width: 8
  }
}
layer {
  name: "conv2"
  type: "ConvolutionFixed"
  bottom: "pool1"
  top: "bn2"
  param {
    lr_mult: 1
    decay_mult: 1
  }
  param {
    lr_mult: 1
    decay_mult: 0
  }
  convolution_param {
    num_output: 256
    bias_term: true
    pad: 2
    kernel_size: 5
    group: 1
    weight_filler {
      type: "gaussian"
      std: 0.01
    }
    bias_filler {
      type: "constant"
      value: 1
    }
  }
  fixed_param {
    fixed_method: DIFF_S
    bit_width: 8
  }
}
layer {
  name: "relu2"
  type: "ReLU"
  bottom: "bn2"
  top: "relu2"
}
layer {
  name: "pool2"
  type: "Pooling"
  bottom: "relu2"
  top: "pool2"
  pooling_param {
    pool: MAX
    kernel_size: 3
    stride: 2
  }
}
layer {
  name: "pool2_fixed"
  type: "FixedNeuron"
  bottom: "pool2"
  top: "pool2"
  param {
    lr_mult: 0
    decay_mult: 0
  }
  fixed_param {
    fixed_method: DIFF_S
    bit_width: 8
  }
}
layer {
  name: "conv3"
  type: "ConvolutionFixed"
  bottom: "pool2"
  top: "conv3"
  param {
    lr_mult: 1
    decay_mult: 1
  }
  param {
    lr_mult: 2
    decay_mult: 0
  }
  convolution_param {
    num_output: 384
    pad: 1
    kernel_size: 3
    weight_filler {
      type: "gaussian"
      std: 0.01
    }
    bias_filler {
      type: "constant"
      value: 0
    }
  }
  fixed_param {
    fixed_method: DIFF_S
    bit_width: 8
  }
}
layer {
  name: "relu3"
  type: "ReLU"
  bottom: "conv3"
  top: "relu3"
}
layer {
  name: "relu3_fixed"
  type: "FixedNeuron"
  bottom: "relu3"
  top: "relu3"
  param {
    lr_mult: 0
    decay_mult: 0
  }
  fixed_param {
    fixed_method: DIFF_S
    bit_width: 8
  }
}
layer {
  name: "conv4"
  type: "ConvolutionFixed"
  bottom: "relu3"
  top: "conv4"
  param {
    lr_mult: 1
    decay_mult: 1
  }
  param {
    lr_mult: 2
    decay_mult: 0
  }
  convolution_param {
    num_output: 384
    pad: 1
    kernel_size: 3
    group: 1
    weight_filler {
      type: "gaussian"
      std: 0.01
    }
    bias_filler {
      type: "constant"
      value: 1
    }
  }
  fixed_param {
    fixed_method: DIFF_S
    bit_width: 8
  }
}
layer {
  name: "relu4"
  type: "ReLU"
  bottom: "conv4"
  top: "relu4"
}
layer {
  name: "relu4_fixed"
  type: "FixedNeuron"
  bottom: "relu4"
  top: "relu4"
  param {
    lr_mult: 0
    decay_mult: 0
  }
  fixed_param {
    fixed_method: DIFF_S
    bit_width: 8
  }
}
layer {
  name: "conv5"
  type: "ConvolutionFixed"
  bottom: "relu4"
  top: "conv5"
  param {
    lr_mult: 1
    decay_mult: 1
  }
  param {
    lr_mult: 2
    decay_mult: 0
  }
  convolution_param {
    num_output: 256
    pad: 1
    kernel_size: 3
    group: 1
    weight_filler {
      type: "gaussian"
      std: 0.01
    }
    bias_filler {
      type: "constant"
      value: 1
    }
  }
  fixed_param {
    fixed_method: DIFF_S
    bit_width: 8
  }
}
layer {
  name: "relu5"
  type: "ReLU"
  bottom: "conv5"
  top: "relu5"
}
layer {
  name: "pool5"
  type: "Pooling"
  bottom: "relu5"
  top: "pool5"
  pooling_param {
    pool: MAX
    kernel_size: 3
    stride: 2
  }
}
layer {
  name: "pool5_fixed"
  type: "FixedNeuron"
  bottom: "pool5"
  top: "pool5"
  param {
    lr_mult: 0
    decay_mult: 0
  }
  fixed_param {
    fixed_method: DIFF_S
    bit_width: 8
  }
}
layer {
  name: "fc6"
  type: "InnerProductFixed"
  bottom: "pool5"
  top: "fc6"
  param {
    lr_mult: 1
    decay_mult: 1
  }
  param {
    lr_mult: 2
    decay_mult: 0
  }
  inner_product_param {
    num_output: 4096
    weight_filler {
      type: "gaussian"
      std: 0.005
    }
    bias_filler {
      type: "constant"
      value: 1
    }
  }
  fixed_param {
    fixed_method: DIFF_S
    bit_width: 8
  }
}
layer {
  name: "relu6"
  type: "ReLU"
  bottom: "fc6"
  top: "relu6"
}
layer {
  name: "relu6_fixed"
  type: "FixedNeuron"
  bottom: "relu6"
  top: "relu6"
  param {
    lr_mult: 0
    decay_mult: 0
  }
  fixed_param {
    fixed_method: DIFF_S
    bit_width: 8
  }
}
layer {
  name: "fc7"
  type: "InnerProductFixed"
  bottom: "relu6"
  top: "bn7"
  param {
    lr_mult: 1
    decay_mult: 1
  }
  param {
    lr_mult: 1
    decay_mult: 0
  }
  inner_product_param {
    num_output: 4096
    bias_term: true
    weight_filler {
      type: "gaussian"
      std: 0.005
    }
    bias_filler {
      type: "constant"
      value: 1
    }
  }
  fixed_param {
    fixed_method: DIFF_S
    bit_width: 8
  }
}
layer {
  name: "relu7"
  type: "ReLU"
  bottom: "bn7"
  top: "relu7"
}
layer {
  name: "relu7_fixed"
  type: "FixedNeuron"
  bottom: "relu7"
  top: "relu7"
  param {
    lr_mult: 0
    decay_mult: 0
  }
  fixed_param {
    fixed_method: DIFF_S
    bit_width: 8
  }
}
layer {
  name: "fc8"
  type: "InnerProductFixed"
  bottom: "relu7"
  top: "fc8"
  param {
    lr_mult: 1
    decay_mult: 1
  }
  param {
    lr_mult: 2
    decay_mult: 0
  }
  inner_product_param {
    num_output: 2
    weight_filler {
      type: "gaussian"
      std: 0.01
    }
    bias_filler {
      type: "constant"
      value: 0
    }
  }
  fixed_param {
    fixed_method: DIFF_S
    bit_width: 8
  }
}
layer {
  name: "fc8_fixed"
  type: "FixedNeuron"
  bottom: "fc8"
  top: "fc8"
  param {
    lr_mult: 0
    decay_mult: 0
  }
  fixed_param {
    fixed_method: DIFF_S
    bit_width: 8
  }
}
layer {
  name: "loss"
  type: "SoftmaxWithLoss"
  bottom: "fc8"
  bottom: "label"
  top: "loss"
}
I0716 13:06:46.738211  3045 layer_factory.hpp:77] Creating layer data
I0716 13:06:46.738226  3045 net.cpp:94] Creating Layer data
I0716 13:06:46.738230  3045 net.cpp:409] data -> data
I0716 13:06:46.738237  3045 net.cpp:409] data -> label
I0716 13:06:46.738265  3045 image_data_layer.cpp:41] Opening file deploy/alexnetBNnoLRN/quantiz/data/calib/calibration.txt
I0716 13:06:46.738338  3045 image_data_layer.cpp:51] Shuffling data
I0716 13:06:46.738350  3045 image_data_layer.cpp:56] A total of 200 images.
I0716 13:06:46.739758  3045 image_data_layer.cpp:84] output data size: 10,3,227,227
I0716 13:06:46.761371  3045 internal_thread.cpp:27] Starting internal thread(s) on GPU 0
I0716 13:06:46.761435  3045 net.cpp:144] Setting up data
I0716 13:06:46.761440  3045 net.cpp:151] Top shape: 10 3 227 227 (1545870)
I0716 13:06:46.761447  3045 net.cpp:151] Top shape: 10 (10)
I0716 13:06:46.761451  3045 net.cpp:159] Memory required for data: 6183520
I0716 13:06:46.761456  3045 layer_factory.hpp:77] Creating layer data_fixed
I0716 13:06:46.761488  3045 net.cpp:94] Creating Layer data_fixed
I0716 13:06:46.761494  3045 net.cpp:435] data_fixed <- data
I0716 13:06:46.761500  3045 net.cpp:396] data_fixed -> data (in-place)
I0716 13:06:46.761551  3045 net.cpp:144] Setting up data_fixed
I0716 13:06:46.761556  3045 net.cpp:151] Top shape: 10 3 227 227 (1545870)
I0716 13:06:46.761561  3045 net.cpp:159] Memory required for data: 12367000
I0716 13:06:46.761569  3045 layer_factory.hpp:77] Creating layer conv1
I0716 13:06:46.761579  3045 net.cpp:94] Creating Layer conv1
I0716 13:06:46.761584  3045 net.cpp:435] conv1 <- data
I0716 13:06:46.761590  3045 net.cpp:409] conv1 -> bn1
I0716 13:06:46.762110  3045 layer_factory.hpp:77] Creating layer conv1
I0716 13:06:46.762600  3045 net.cpp:144] Setting up conv1
I0716 13:06:46.762606  3045 net.cpp:151] Top shape: 10 96 55 55 (2904000)
I0716 13:06:46.762611  3045 net.cpp:159] Memory required for data: 23983000
I0716 13:06:46.762619  3045 layer_factory.hpp:77] Creating layer relu1
I0716 13:06:46.762625  3045 net.cpp:94] Creating Layer relu1
I0716 13:06:46.762629  3045 net.cpp:435] relu1 <- bn1
I0716 13:06:46.762632  3045 net.cpp:409] relu1 -> relu1
I0716 13:06:46.762647  3045 net.cpp:144] Setting up relu1
I0716 13:06:46.762650  3045 net.cpp:151] Top shape: 10 96 55 55 (2904000)
I0716 13:06:46.762653  3045 net.cpp:159] Memory required for data: 35599000
I0716 13:06:46.762656  3045 layer_factory.hpp:77] Creating layer pool1
I0716 13:06:46.762662  3045 net.cpp:94] Creating Layer pool1
I0716 13:06:46.762665  3045 net.cpp:435] pool1 <- relu1
I0716 13:06:46.762670  3045 net.cpp:409] pool1 -> pool1
I0716 13:06:46.762691  3045 net.cpp:144] Setting up pool1
I0716 13:06:46.762696  3045 net.cpp:151] Top shape: 10 96 27 27 (699840)
I0716 13:06:46.762699  3045 net.cpp:159] Memory required for data: 38398360
I0716 13:06:46.762701  3045 layer_factory.hpp:77] Creating layer pool1_fixed
I0716 13:06:46.762706  3045 net.cpp:94] Creating Layer pool1_fixed
I0716 13:06:46.762709  3045 net.cpp:435] pool1_fixed <- pool1
I0716 13:06:46.762712  3045 net.cpp:396] pool1_fixed -> pool1 (in-place)
I0716 13:06:46.762732  3045 net.cpp:144] Setting up pool1_fixed
I0716 13:06:46.762737  3045 net.cpp:151] Top shape: 10 96 27 27 (699840)
I0716 13:06:46.762739  3045 net.cpp:159] Memory required for data: 41197720
I0716 13:06:46.762759  3045 layer_factory.hpp:77] Creating layer conv2
I0716 13:06:46.762765  3045 net.cpp:94] Creating Layer conv2
I0716 13:06:46.762768  3045 net.cpp:435] conv2 <- pool1
I0716 13:06:46.762773  3045 net.cpp:409] conv2 -> bn2
I0716 13:06:46.768537  3045 layer_factory.hpp:77] Creating layer conv2
I0716 13:06:46.774288  3045 net.cpp:144] Setting up conv2
I0716 13:06:46.774299  3045 net.cpp:151] Top shape: 10 256 27 27 (1866240)
I0716 13:06:46.774305  3045 net.cpp:159] Memory required for data: 48662680
I0716 13:06:46.774313  3045 layer_factory.hpp:77] Creating layer relu2
I0716 13:06:46.774334  3045 net.cpp:94] Creating Layer relu2
I0716 13:06:46.774338  3045 net.cpp:435] relu2 <- bn2
I0716 13:06:46.774341  3045 net.cpp:409] relu2 -> relu2
I0716 13:06:46.774355  3045 net.cpp:144] Setting up relu2
I0716 13:06:46.774358  3045 net.cpp:151] Top shape: 10 256 27 27 (1866240)
I0716 13:06:46.774361  3045 net.cpp:159] Memory required for data: 56127640
I0716 13:06:46.774363  3045 layer_factory.hpp:77] Creating layer pool2
I0716 13:06:46.774369  3045 net.cpp:94] Creating Layer pool2
I0716 13:06:46.774371  3045 net.cpp:435] pool2 <- relu2
I0716 13:06:46.774374  3045 net.cpp:409] pool2 -> pool2
I0716 13:06:46.774394  3045 net.cpp:144] Setting up pool2
I0716 13:06:46.774399  3045 net.cpp:151] Top shape: 10 256 13 13 (432640)
I0716 13:06:46.774402  3045 net.cpp:159] Memory required for data: 57858200
I0716 13:06:46.774405  3045 layer_factory.hpp:77] Creating layer pool2_fixed
I0716 13:06:46.774410  3045 net.cpp:94] Creating Layer pool2_fixed
I0716 13:06:46.774412  3045 net.cpp:435] pool2_fixed <- pool2
I0716 13:06:46.774415  3045 net.cpp:396] pool2_fixed -> pool2 (in-place)
I0716 13:06:46.774433  3045 net.cpp:144] Setting up pool2_fixed
I0716 13:06:46.774437  3045 net.cpp:151] Top shape: 10 256 13 13 (432640)
I0716 13:06:46.774441  3045 net.cpp:159] Memory required for data: 59588760
I0716 13:06:46.774443  3045 layer_factory.hpp:77] Creating layer conv3
I0716 13:06:46.774449  3045 net.cpp:94] Creating Layer conv3
I0716 13:06:46.774451  3045 net.cpp:435] conv3 <- pool2
I0716 13:06:46.774456  3045 net.cpp:409] conv3 -> conv3
I0716 13:06:46.782095  3045 layer_factory.hpp:77] Creating layer conv3
I0716 13:06:46.789947  3045 net.cpp:144] Setting up conv3
I0716 13:06:46.789958  3045 net.cpp:151] Top shape: 10 384 13 13 (648960)
I0716 13:06:46.789964  3045 net.cpp:159] Memory required for data: 62184600
I0716 13:06:46.789988  3045 layer_factory.hpp:77] Creating layer relu3
I0716 13:06:46.789994  3045 net.cpp:94] Creating Layer relu3
I0716 13:06:46.789996  3045 net.cpp:435] relu3 <- conv3
I0716 13:06:46.790001  3045 net.cpp:409] relu3 -> relu3
I0716 13:06:46.790016  3045 net.cpp:144] Setting up relu3
I0716 13:06:46.790019  3045 net.cpp:151] Top shape: 10 384 13 13 (648960)
I0716 13:06:46.790022  3045 net.cpp:159] Memory required for data: 64780440
I0716 13:06:46.790024  3045 layer_factory.hpp:77] Creating layer relu3_fixed
I0716 13:06:46.790030  3045 net.cpp:94] Creating Layer relu3_fixed
I0716 13:06:46.790032  3045 net.cpp:435] relu3_fixed <- relu3
I0716 13:06:46.790036  3045 net.cpp:396] relu3_fixed -> relu3 (in-place)
I0716 13:06:46.790053  3045 net.cpp:144] Setting up relu3_fixed
I0716 13:06:46.790057  3045 net.cpp:151] Top shape: 10 384 13 13 (648960)
I0716 13:06:46.790060  3045 net.cpp:159] Memory required for data: 67376280
I0716 13:06:46.790063  3045 layer_factory.hpp:77] Creating layer conv4
I0716 13:06:46.790069  3045 net.cpp:94] Creating Layer conv4
I0716 13:06:46.790071  3045 net.cpp:435] conv4 <- relu3
I0716 13:06:46.790076  3045 net.cpp:409] conv4 -> conv4
I0716 13:06:46.801371  3045 layer_factory.hpp:77] Creating layer conv4
I0716 13:06:46.812826  3045 net.cpp:144] Setting up conv4
I0716 13:06:46.812855  3045 net.cpp:151] Top shape: 10 384 13 13 (648960)
I0716 13:06:46.812862  3045 net.cpp:159] Memory required for data: 69972120
I0716 13:06:46.812870  3045 layer_factory.hpp:77] Creating layer relu4
I0716 13:06:46.812876  3045 net.cpp:94] Creating Layer relu4
I0716 13:06:46.812880  3045 net.cpp:435] relu4 <- conv4
I0716 13:06:46.812886  3045 net.cpp:409] relu4 -> relu4
I0716 13:06:46.812901  3045 net.cpp:144] Setting up relu4
I0716 13:06:46.812902  3045 net.cpp:151] Top shape: 10 384 13 13 (648960)
I0716 13:06:46.812906  3045 net.cpp:159] Memory required for data: 72567960
I0716 13:06:46.812908  3045 layer_factory.hpp:77] Creating layer relu4_fixed
I0716 13:06:46.812913  3045 net.cpp:94] Creating Layer relu4_fixed
I0716 13:06:46.812916  3045 net.cpp:435] relu4_fixed <- relu4
I0716 13:06:46.812919  3045 net.cpp:396] relu4_fixed -> relu4 (in-place)
I0716 13:06:46.812953  3045 net.cpp:144] Setting up relu4_fixed
I0716 13:06:46.812958  3045 net.cpp:151] Top shape: 10 384 13 13 (648960)
I0716 13:06:46.812960  3045 net.cpp:159] Memory required for data: 75163800
I0716 13:06:46.812963  3045 layer_factory.hpp:77] Creating layer conv5
I0716 13:06:46.812970  3045 net.cpp:94] Creating Layer conv5
I0716 13:06:46.812973  3045 net.cpp:435] conv5 <- relu4
I0716 13:06:46.812976  3045 net.cpp:409] conv5 -> conv5
I0716 13:06:46.820830  3045 layer_factory.hpp:77] Creating layer conv5
I0716 13:06:46.828898  3045 net.cpp:144] Setting up conv5
I0716 13:06:46.828912  3045 net.cpp:151] Top shape: 10 256 13 13 (432640)
I0716 13:06:46.828917  3045 net.cpp:159] Memory required for data: 76894360
I0716 13:06:46.828927  3045 layer_factory.hpp:77] Creating layer relu5
I0716 13:06:46.828933  3045 net.cpp:94] Creating Layer relu5
I0716 13:06:46.828936  3045 net.cpp:435] relu5 <- conv5
I0716 13:06:46.828941  3045 net.cpp:409] relu5 -> relu5
I0716 13:06:46.828956  3045 net.cpp:144] Setting up relu5
I0716 13:06:46.828959  3045 net.cpp:151] Top shape: 10 256 13 13 (432640)
I0716 13:06:46.828963  3045 net.cpp:159] Memory required for data: 78624920
I0716 13:06:46.828964  3045 layer_factory.hpp:77] Creating layer pool5
I0716 13:06:46.828969  3045 net.cpp:94] Creating Layer pool5
I0716 13:06:46.828972  3045 net.cpp:435] pool5 <- relu5
I0716 13:06:46.828975  3045 net.cpp:409] pool5 -> pool5
I0716 13:06:46.828994  3045 net.cpp:144] Setting up pool5
I0716 13:06:46.828999  3045 net.cpp:151] Top shape: 10 256 6 6 (92160)
I0716 13:06:46.829002  3045 net.cpp:159] Memory required for data: 78993560
I0716 13:06:46.829005  3045 layer_factory.hpp:77] Creating layer pool5_fixed
I0716 13:06:46.829010  3045 net.cpp:94] Creating Layer pool5_fixed
I0716 13:06:46.829011  3045 net.cpp:435] pool5_fixed <- pool5
I0716 13:06:46.829015  3045 net.cpp:396] pool5_fixed -> pool5 (in-place)
I0716 13:06:46.829033  3045 net.cpp:144] Setting up pool5_fixed
I0716 13:06:46.829037  3045 net.cpp:151] Top shape: 10 256 6 6 (92160)
I0716 13:06:46.829041  3045 net.cpp:159] Memory required for data: 79362200
I0716 13:06:46.829044  3045 layer_factory.hpp:77] Creating layer fc6
I0716 13:06:46.829066  3045 net.cpp:94] Creating Layer fc6
I0716 13:06:46.829069  3045 net.cpp:435] fc6 <- pool5
I0716 13:06:46.829072  3045 net.cpp:409] fc6 -> fc6
I0716 13:06:47.128104  3045 layer_factory.hpp:77] Creating layer fc6
I0716 13:06:47.434283  3045 net.cpp:144] Setting up fc6
I0716 13:06:47.434306  3045 net.cpp:151] Top shape: 10 4096 (40960)
I0716 13:06:47.434312  3045 net.cpp:159] Memory required for data: 79526040
I0716 13:06:47.434324  3045 layer_factory.hpp:77] Creating layer relu6
I0716 13:06:47.434331  3045 net.cpp:94] Creating Layer relu6
I0716 13:06:47.434335  3045 net.cpp:435] relu6 <- fc6
I0716 13:06:47.434340  3045 net.cpp:409] relu6 -> relu6
I0716 13:06:47.434357  3045 net.cpp:144] Setting up relu6
I0716 13:06:47.434360  3045 net.cpp:151] Top shape: 10 4096 (40960)
I0716 13:06:47.434362  3045 net.cpp:159] Memory required for data: 79689880
I0716 13:06:47.434365  3045 layer_factory.hpp:77] Creating layer relu6_fixed
I0716 13:06:47.434371  3045 net.cpp:94] Creating Layer relu6_fixed
I0716 13:06:47.434373  3045 net.cpp:435] relu6_fixed <- relu6
I0716 13:06:47.434376  3045 net.cpp:396] relu6_fixed -> relu6 (in-place)
I0716 13:06:47.434409  3045 net.cpp:144] Setting up relu6_fixed
I0716 13:06:47.434417  3045 net.cpp:151] Top shape: 10 4096 (40960)
I0716 13:06:47.434418  3045 net.cpp:159] Memory required for data: 79853720
I0716 13:06:47.434422  3045 layer_factory.hpp:77] Creating layer fc7
I0716 13:06:47.434427  3045 net.cpp:94] Creating Layer fc7
I0716 13:06:47.434429  3045 net.cpp:435] fc7 <- relu6
I0716 13:06:47.434433  3045 net.cpp:409] fc7 -> bn7
I0716 13:06:47.566843  3045 layer_factory.hpp:77] Creating layer fc7
I0716 13:06:47.699646  3045 net.cpp:144] Setting up fc7
I0716 13:06:47.699671  3045 net.cpp:151] Top shape: 10 4096 (40960)
I0716 13:06:47.699676  3045 net.cpp:159] Memory required for data: 80017560
I0716 13:06:47.699702  3045 layer_factory.hpp:77] Creating layer relu7
I0716 13:06:47.699709  3045 net.cpp:94] Creating Layer relu7
I0716 13:06:47.699713  3045 net.cpp:435] relu7 <- bn7
I0716 13:06:47.699719  3045 net.cpp:409] relu7 -> relu7
I0716 13:06:47.699735  3045 net.cpp:144] Setting up relu7
I0716 13:06:47.699738  3045 net.cpp:151] Top shape: 10 4096 (40960)
I0716 13:06:47.699741  3045 net.cpp:159] Memory required for data: 80181400
I0716 13:06:47.699743  3045 layer_factory.hpp:77] Creating layer relu7_fixed
I0716 13:06:47.699750  3045 net.cpp:94] Creating Layer relu7_fixed
I0716 13:06:47.699753  3045 net.cpp:435] relu7_fixed <- relu7
I0716 13:06:47.699755  3045 net.cpp:396] relu7_fixed -> relu7 (in-place)
I0716 13:06:47.699774  3045 net.cpp:144] Setting up relu7_fixed
I0716 13:06:47.699777  3045 net.cpp:151] Top shape: 10 4096 (40960)
I0716 13:06:47.699780  3045 net.cpp:159] Memory required for data: 80345240
I0716 13:06:47.699784  3045 layer_factory.hpp:77] Creating layer fc8
I0716 13:06:47.699788  3045 net.cpp:94] Creating Layer fc8
I0716 13:06:47.699791  3045 net.cpp:435] fc8 <- relu7
I0716 13:06:47.699796  3045 net.cpp:409] fc8 -> fc8
I0716 13:06:47.699916  3045 layer_factory.hpp:77] Creating layer fc8
I0716 13:06:47.700083  3045 net.cpp:144] Setting up fc8
I0716 13:06:47.700088  3045 net.cpp:151] Top shape: 10 2 (20)
I0716 13:06:47.700091  3045 net.cpp:159] Memory required for data: 80345320
I0716 13:06:47.700096  3045 layer_factory.hpp:77] Creating layer fc8_fixed
I0716 13:06:47.700100  3045 net.cpp:94] Creating Layer fc8_fixed
I0716 13:06:47.700103  3045 net.cpp:435] fc8_fixed <- fc8
I0716 13:06:47.700106  3045 net.cpp:396] fc8_fixed -> fc8 (in-place)
I0716 13:06:47.700125  3045 net.cpp:144] Setting up fc8_fixed
I0716 13:06:47.700130  3045 net.cpp:151] Top shape: 10 2 (20)
I0716 13:06:47.700134  3045 net.cpp:159] Memory required for data: 80345400
I0716 13:06:47.700136  3045 layer_factory.hpp:77] Creating layer loss
I0716 13:06:47.700141  3045 net.cpp:94] Creating Layer loss
I0716 13:06:47.700143  3045 net.cpp:435] loss <- fc8
I0716 13:06:47.700147  3045 net.cpp:435] loss <- label
I0716 13:06:47.700150  3045 net.cpp:409] loss -> loss
I0716 13:06:47.700156  3045 layer_factory.hpp:77] Creating layer loss
…
I0716 13:06:50.797888  3045 net.cpp:284] Network initialization done.
I0716 13:06:50.894469  3045 net.cpp:323] The NetState phase (1) differed from the phase (0) specified by a rule in layer data
I0716 13:06:50.894495  3045 net.cpp:52] Initializing net from parameters: 
layer {
  name: "data"
  type: "Data"
  top: "data"
  top: "label"
  include {
    phase: TEST
  }
  transform_param {
    mirror: false
    crop_size: 227
    mean_value: 106
    mean_value: 116
    mean_value: 124
  }
  data_param {
    source: "input/lmdb/valid_lmdb"
    batch_size: 50
    backend: LMDB
  }
}
layer {
  name: "data_fixed"
  type: "FixedNeuron"
  bottom: "data"
  top: "data"
  param {
    lr_mult: 0
    decay_mult: 0
  }
  fixed_param {
    fixed_method: OVER_FLOW
    bit_width: 8
    follow_data_layer: true
  }
}
layer {
  name: "conv1"
  type: "ConvolutionFixed"
  bottom: "data"
  top: "bn1"
  param {
    lr_mult: 1
    decay_mult: 1
  }
  param {
    lr_mult: 1
    decay_mult: 0
  }
  convolution_param {
    num_output: 96
    bias_term: true
    pad: 1
    kernel_size: 11
    stride: 4
    weight_filler {
      type: "gaussian"
      std: 0.01
    }
    bias_filler {
      type: "constant"
      value: 0
    }
  }
  fixed_param {
    fixed_method: DIFF_S
    bit_width: 8
  }
}
layer {
  name: "relu1"
  type: "ReLU"
  bottom: "bn1"
  top: "relu1"
}
layer {
  name: "pool1"
  type: "Pooling"
  bottom: "relu1"
  top: "pool1"
  pooling_param {
    pool: MAX
    kernel_size: 3
    stride: 2
  }
}
layer {
  name: "pool1_fixed"
  type: "FixedNeuron"
  bottom: "pool1"
  top: "pool1"
  param {
    lr_mult: 0
    decay_mult: 0
  }
  fixed_param {
    fixed_method: DIFF_S
    bit_width: 8
  }
}
layer {
  name: "conv2"
  type: "ConvolutionFixed"
  bottom: "pool1"
  top: "bn2"
  param {
    lr_mult: 1
    decay_mult: 1
  }
  param {
    lr_mult: 1
    decay_mult: 0
  }
  convolution_param {
    num_output: 256
    bias_term: true
    pad: 2
    kernel_size: 5
    group: 1
    weight_filler {
      type: "gaussian"
      std: 0.01
    }
    bias_filler {
      type: "constant"
      value: 1
    }
  }
  fixed_param {
    fixed_method: DIFF_S
    bit_width: 8
  }
}
layer {
  name: "relu2"
  type: "ReLU"
  bottom: "bn2"
  top: "relu2"
}
layer {
  name: "pool2"
  type: "Pooling"
  bottom: "relu2"
  top: "pool2"
  pooling_param {
    pool: MAX
    kernel_size: 3
    stride: 2
  }
}
layer {
  name: "pool2_fixed"
  type: "FixedNeuron"
  bottom: "pool2"
  top: "pool2"
  param {
    lr_mult: 0
    decay_mult: 0
  }
  fixed_param {
    fixed_method: DIFF_S
    bit_width: 8
  }
}
layer {
  name: "conv3"
  type: "ConvolutionFixed"
  bottom: "pool2"
  top: "conv3"
  param {
    lr_mult: 1
    decay_mult: 1
  }
  param {
    lr_mult: 2
    decay_mult: 0
  }
  convolution_param {
    num_output: 384
    pad: 1
    kernel_size: 3
    weight_filler {
      type: "gaussian"
      std: 0.01
    }
    bias_filler {
      type: "constant"
      value: 0
    }
  }
  fixed_param {
    fixed_method: DIFF_S
    bit_width: 8
  }
}
layer {
  name: "relu3"
  type: "ReLU"
  bottom: "conv3"
  top: "relu3"
}
layer {
  name: "relu3_fixed"
  type: "FixedNeuron"
  bottom: "relu3"
  top: "relu3"
  param {
    lr_mult: 0
    decay_mult: 0
  }
  fixed_param {
    fixed_method: DIFF_S
    bit_width: 8
  }
}
layer {
  name: "conv4"
  type: "ConvolutionFixed"
  bottom: "relu3"
  top: "conv4"
  param {
    lr_mult: 1
    decay_mult: 1
  }
  param {
    lr_mult: 2
    decay_mult: 0
  }
  convolution_param {
    num_output: 384
    pad: 1
    kernel_size: 3
    group: 1
    weight_filler {
      type: "gaussian"
      std: 0.01
    }
    bias_filler {
      type: "constant"
      value: 1
    }
  }
  fixed_param {
    fixed_method: DIFF_S
    bit_width: 8
  }
}
layer {
  name: "relu4"
  type: "ReLU"
  bottom: "conv4"
  top: "relu4"
}
layer {
  name: "relu4_fixed"
  type: "FixedNeuron"
  bottom: "relu4"
  top: "relu4"
  param {
    lr_mult: 0
    decay_mult: 0
  }
  fixed_param {
    fixed_method: DIFF_S
    bit_width: 8
  }
}
layer {
  name: "conv5"
  type: "ConvolutionFixed"
  bottom: "relu4"
  top: "conv5"
  param {
    lr_mult: 1
    decay_mult: 1
  }
  param {
    lr_mult: 2
    decay_mult: 0
  }
  convolution_param {
    num_output: 256
    pad: 1
    kernel_size: 3
    group: 1
    weight_filler {
      type: "gaussian"
      std: 0.01
    }
    bias_filler {
      type: "constant"
      value: 1
    }
  }
  fixed_param {
    fixed_method: DIFF_S
    bit_width: 8
  }
}
layer {
  name: "relu5"
  type: "ReLU"
  bottom: "conv5"
  top: "relu5"
}
layer {
  name: "pool5"
  type: "Pooling"
  bottom: "relu5"
  top: "pool5"
  pooling_param {
    pool: MAX
    kernel_size: 3
    stride: 2
  }
}
layer {
  name: "pool5_fixed"
  type: "FixedNeuron"
  bottom: "pool5"
  top: "pool5"
  param {
    lr_mult: 0
    decay_mult: 0
  }
  fixed_param {
    fixed_method: DIFF_S
    bit_width: 8
  }
}
layer {
  name: "fc6"
  type: "InnerProductFixed"
  bottom: "pool5"
  top: "fc6"
  param {
    lr_mult: 1
    decay_mult: 1
  }
  param {
    lr_mult: 2
    decay_mult: 0
  }
  inner_product_param {
    num_output: 4096
    weight_filler {
      type: "gaussian"
      std: 0.005
    }
    bias_filler {
      type: "constant"
      value: 1
    }
  }
  fixed_param {
    fixed_method: DIFF_S
    bit_width: 8
  }
}
layer {
  name: "relu6"
  type: "ReLU"
  bottom: "fc6"
  top: "relu6"
}
layer {
  name: "relu6_fixed"
  type: "FixedNeuron"
  bottom: "relu6"
  top: "relu6"
  param {
    lr_mult: 0
    decay_mult: 0
  }
  fixed_param {
    fixed_method: DIFF_S
    bit_width: 8
  }
}
layer {
  name: "fc7"
  type: "InnerProductFixed"
  bottom: "relu6"
  top: "bn7"
  param {
    lr_mult: 1
    decay_mult: 1
  }
  param {
    lr_mult: 1
    decay_mult: 0
  }
  inner_product_param {
    num_output: 4096
    bias_term: true
    weight_filler {
      type: "gaussian"
      std: 0.005
    }
    bias_filler {
      type: "constant"
      value: 1
    }
  }
  fixed_param {
    fixed_method: DIFF_S
    bit_width: 8
  }
}
layer {
  name: "relu7"
  type: "ReLU"
  bottom: "bn7"
  top: "relu7"
}
layer {
  name: "relu7_fixed"
  type: "FixedNeuron"
  bottom: "relu7"
  top: "relu7"
  param {
    lr_mult: 0
    decay_mult: 0
  }
  fixed_param {
    fixed_method: DIFF_S
    bit_width: 8
  }
}
layer {
  name: "fc8"
  type: "InnerProductFixed"
  bottom: "relu7"
  top: "fc8"
  param {
    lr_mult: 1
    decay_mult: 1
  }
  param {
    lr_mult: 2
    decay_mult: 0
  }
  inner_product_param {
    num_output: 2
    weight_filler {
      type: "gaussian"
      std: 0.01
    }
    bias_filler {
      type: "constant"
      value: 0
    }
  }
  fixed_param {
    fixed_method: DIFF_S
    bit_width: 8
  }
}
layer {
  name: "fc8_fixed"
  type: "FixedNeuron"
  bottom: "fc8"
  top: "fc8"
  param {
    lr_mult: 0
    decay_mult: 0
  }
  fixed_param {
    fixed_method: DIFF_S
    bit_width: 8
  }
}
layer {
  name: "accuracy"
  type: "Accuracy"
  bottom: "fc8"
  bottom: "label"
  top: "accuracy"
  include {
    phase: TEST
  }
}
layer {
  name: "loss"
  type: "SoftmaxWithLoss"
  bottom: "fc8"
  bottom: "label"
  top: "loss"
}
layer {
  name: "accuracy-top1"
  type: "Accuracy"
  bottom: "fc8"
  bottom: "label"
  top: "top-1"
  include {
    phase: TEST
  }
}
I0716 13:06:50.894951  3045 layer_factory.hpp:77] Creating layer data
I0716 13:06:50.894989  3045 internal_thread.cpp:27] Starting internal thread(s) on GPU 0
I0716 13:06:50.896183  3045 net.cpp:94] Creating Layer data
I0716 13:06:50.896193  3045 net.cpp:409] data -> data
I0716 13:06:50.896204  3045 net.cpp:409] data -> label
I0716 13:06:50.897236  3079 db_lmdb.cpp:35] Opened lmdb input/lmdb/valid_lmdb
I0716 13:06:50.897258  3079 db_lmdb.cpp:38] Items count: 4000
I0716 13:06:50.897276  3079 data_reader.cpp:124] TEST: reading data using 1 channel(s)
I0716 13:06:50.897418  3045 data_layer.cpp:78] ReshapePrefetch 50, 3, 227, 227
I0716 13:06:50.897508  3045 data_layer.cpp:83] output data size: 50,3,227,227
I0716 13:06:50.994747  3045 internal_thread.cpp:27] Starting internal thread(s) on GPU 0
I0716 13:06:50.994846  3045 net.cpp:144] Setting up data
I0716 13:06:50.994851  3045 net.cpp:151] Top shape: 50 3 227 227 (7729350)
I0716 13:06:50.994863  3045 net.cpp:151] Top shape: 50 (50)
I0716 13:06:50.994868  3045 net.cpp:159] Memory required for data: 30917600
I0716 13:06:50.994873  3045 layer_factory.hpp:77] Creating layer label_data_1_split
I0716 13:06:50.994884  3045 net.cpp:94] Creating Layer label_data_1_split
I0716 13:06:50.994890  3045 net.cpp:435] label_data_1_split <- label
I0716 13:06:50.994896  3045 net.cpp:409] label_data_1_split -> label_data_1_split_0
I0716 13:06:50.994905  3045 net.cpp:409] label_data_1_split -> label_data_1_split_1
I0716 13:06:50.994910  3045 net.cpp:409] label_data_1_split -> label_data_1_split_2
I0716 13:06:50.994956  3045 net.cpp:144] Setting up label_data_1_split
I0716 13:06:50.994961  3045 net.cpp:151] Top shape: 50 (50)
I0716 13:06:50.994963  3045 net.cpp:151] Top shape: 50 (50)
I0716 13:06:50.994966  3045 net.cpp:151] Top shape: 50 (50)
I0716 13:06:50.994968  3045 net.cpp:159] Memory required for data: 30918200
I0716 13:06:50.994971  3045 layer_factory.hpp:77] Creating layer data_fixed
I0716 13:06:50.994993  3045 net.cpp:94] Creating Layer data_fixed
I0716 13:06:50.994997  3045 net.cpp:435] data_fixed <- data
I0716 13:06:50.995002  3045 net.cpp:396] data_fixed -> data (in-place)
I0716 13:06:50.995029  3045 net.cpp:144] Setting up data_fixed
I0716 13:06:50.995049  3045 net.cpp:151] Top shape: 50 3 227 227 (7729350)
I0716 13:06:50.995054  3045 net.cpp:159] Memory required for data: 61835600
I0716 13:06:50.995062  3045 layer_factory.hpp:77] Creating layer conv1
I0716 13:06:50.995074  3045 net.cpp:94] Creating Layer conv1
I0716 13:06:50.995076  3045 net.cpp:435] conv1 <- data
I0716 13:06:50.995081  3045 net.cpp:409] conv1 -> bn1
I0716 13:06:50.995563  3045 layer_factory.hpp:77] Creating layer conv1
I0716 13:06:50.996080  3045 net.cpp:144] Setting up conv1
I0716 13:06:50.996086  3045 net.cpp:151] Top shape: 50 96 55 55 (14520000)
I0716 13:06:50.996091  3045 net.cpp:159] Memory required for data: 119915600
I0716 13:06:50.996098  3045 layer_factory.hpp:77] Creating layer relu1
I0716 13:06:50.996104  3045 net.cpp:94] Creating Layer relu1
I0716 13:06:50.996109  3045 net.cpp:435] relu1 <- bn1
I0716 13:06:50.996111  3045 net.cpp:409] relu1 -> relu1
I0716 13:06:50.996127  3045 net.cpp:144] Setting up relu1
I0716 13:06:50.996132  3045 net.cpp:151] Top shape: 50 96 55 55 (14520000)
I0716 13:06:50.996137  3045 net.cpp:159] Memory required for data: 177995600
I0716 13:06:50.996140  3045 layer_factory.hpp:77] Creating layer pool1
I0716 13:06:50.996145  3045 net.cpp:94] Creating Layer pool1
I0716 13:06:50.996148  3045 net.cpp:435] pool1 <- relu1
I0716 13:06:50.996152  3045 net.cpp:409] pool1 -> pool1
I0716 13:06:50.996174  3045 net.cpp:144] Setting up pool1
I0716 13:06:50.996178  3045 net.cpp:151] Top shape: 50 96 27 27 (3499200)
I0716 13:06:50.996182  3045 net.cpp:159] Memory required for data: 191992400
I0716 13:06:50.996186  3045 layer_factory.hpp:77] Creating layer pool1_fixed
I0716 13:06:50.996191  3045 net.cpp:94] Creating Layer pool1_fixed
I0716 13:06:50.996193  3045 net.cpp:435] pool1_fixed <- pool1
I0716 13:06:50.996197  3045 net.cpp:396] pool1_fixed -> pool1 (in-place)
I0716 13:06:50.996217  3045 net.cpp:144] Setting up pool1_fixed
I0716 13:06:50.996222  3045 net.cpp:151] Top shape: 50 96 27 27 (3499200)
I0716 13:06:50.996225  3045 net.cpp:159] Memory required for data: 205989200
I0716 13:06:50.996229  3045 layer_factory.hpp:77] Creating layer conv2
I0716 13:06:50.996237  3045 net.cpp:94] Creating Layer conv2
I0716 13:06:50.996239  3045 net.cpp:435] conv2 <- pool1
I0716 13:06:50.996243  3045 net.cpp:409] conv2 -> bn2
I0716 13:06:51.002490  3045 layer_factory.hpp:77] Creating layer conv2
I0716 13:06:51.011385  3045 net.cpp:144] Setting up conv2
I0716 13:06:51.011412  3045 net.cpp:151] Top shape: 50 256 27 27 (9331200)
I0716 13:06:51.011425  3045 net.cpp:159] Memory required for data: 243314000
I0716 13:06:51.011445  3045 layer_factory.hpp:77] Creating layer relu2
I0716 13:06:51.011456  3045 net.cpp:94] Creating Layer relu2
I0716 13:06:51.011461  3045 net.cpp:435] relu2 <- bn2
I0716 13:06:51.011472  3045 net.cpp:409] relu2 -> relu2
I0716 13:06:51.011512  3045 net.cpp:144] Setting up relu2
I0716 13:06:51.011516  3045 net.cpp:151] Top shape: 50 256 27 27 (9331200)
I0716 13:06:51.011523  3045 net.cpp:159] Memory required for data: 280638800
I0716 13:06:51.011528  3045 layer_factory.hpp:77] Creating layer pool2
I0716 13:06:51.011535  3045 net.cpp:94] Creating Layer pool2
I0716 13:06:51.011539  3045 net.cpp:435] pool2 <- relu2
I0716 13:06:51.011545  3045 net.cpp:409] pool2 -> pool2
I0716 13:06:51.011584  3045 net.cpp:144] Setting up pool2
I0716 13:06:51.011588  3045 net.cpp:151] Top shape: 50 256 13 13 (2163200)
I0716 13:06:51.011595  3045 net.cpp:159] Memory required for data: 289291600
I0716 13:06:51.011598  3045 layer_factory.hpp:77] Creating layer pool2_fixed
I0716 13:06:51.011607  3045 net.cpp:94] Creating Layer pool2_fixed
I0716 13:06:51.011611  3045 net.cpp:435] pool2_fixed <- pool2
I0716 13:06:51.011620  3045 net.cpp:396] pool2_fixed -> pool2 (in-place)
I0716 13:06:51.011658  3045 net.cpp:144] Setting up pool2_fixed
I0716 13:06:51.011662  3045 net.cpp:151] Top shape: 50 256 13 13 (2163200)
I0716 13:06:51.011668  3045 net.cpp:159] Memory required for data: 297944400
I0716 13:06:51.011675  3045 layer_factory.hpp:77] Creating layer conv3
I0716 13:06:51.011693  3045 net.cpp:94] Creating Layer conv3
I0716 13:06:51.011696  3045 net.cpp:435] conv3 <- pool2
I0716 13:06:51.011703  3045 net.cpp:409] conv3 -> conv3
I0716 13:06:51.021662  3045 layer_factory.hpp:77] Creating layer conv3
I0716 13:06:51.033851  3045 net.cpp:144] Setting up conv3
I0716 13:06:51.033900  3045 net.cpp:151] Top shape: 50 384 13 13 (3244800)
I0716 13:06:51.033919  3045 net.cpp:159] Memory required for data: 310923600
I0716 13:06:51.033943  3045 layer_factory.hpp:77] Creating layer relu3
I0716 13:06:51.033962  3045 net.cpp:94] Creating Layer relu3
I0716 13:06:51.033969  3045 net.cpp:435] relu3 <- conv3
I0716 13:06:51.033982  3045 net.cpp:409] relu3 -> relu3
I0716 13:06:51.034013  3045 net.cpp:144] Setting up relu3
I0716 13:06:51.034018  3045 net.cpp:151] Top shape: 50 384 13 13 (3244800)
I0716 13:06:51.034030  3045 net.cpp:159] Memory required for data: 323902800
I0716 13:06:51.034035  3045 layer_factory.hpp:77] Creating layer relu3_fixed
I0716 13:06:51.034050  3045 net.cpp:94] Creating Layer relu3_fixed
I0716 13:06:51.034055  3045 net.cpp:435] relu3_fixed <- relu3
I0716 13:06:51.034062  3045 net.cpp:396] relu3_fixed -> relu3 (in-place)
I0716 13:06:51.034104  3045 net.cpp:144] Setting up relu3_fixed
I0716 13:06:51.034113  3045 net.cpp:151] Top shape: 50 384 13 13 (3244800)
I0716 13:06:51.034119  3045 net.cpp:159] Memory required for data: 336882000
I0716 13:06:51.034126  3045 layer_factory.hpp:77] Creating layer conv4
I0716 13:06:51.034142  3045 net.cpp:94] Creating Layer conv4
I0716 13:06:51.034147  3045 net.cpp:435] conv4 <- relu3
I0716 13:06:51.034153  3045 net.cpp:409] conv4 -> conv4
I0716 13:06:51.049402  3045 layer_factory.hpp:77] Creating layer conv4
I0716 13:06:51.064774  3045 net.cpp:144] Setting up conv4
I0716 13:06:51.064810  3045 net.cpp:151] Top shape: 50 384 13 13 (3244800)
I0716 13:06:51.064824  3045 net.cpp:159] Memory required for data: 349861200
I0716 13:06:51.064841  3045 layer_factory.hpp:77] Creating layer relu4
I0716 13:06:51.064857  3045 net.cpp:94] Creating Layer relu4
I0716 13:06:51.064887  3045 net.cpp:435] relu4 <- conv4
I0716 13:06:51.064919  3045 net.cpp:409] relu4 -> relu4
I0716 13:06:51.064996  3045 net.cpp:144] Setting up relu4
I0716 13:06:51.065033  3045 net.cpp:151] Top shape: 50 384 13 13 (3244800)
I0716 13:06:51.065062  3045 net.cpp:159] Memory required for data: 362840400
I0716 13:06:51.065086  3045 layer_factory.hpp:77] Creating layer relu4_fixed
I0716 13:06:51.065120  3045 net.cpp:94] Creating Layer relu4_fixed
I0716 13:06:51.065148  3045 net.cpp:435] relu4_fixed <- relu4
I0716 13:06:51.065178  3045 net.cpp:396] relu4_fixed -> relu4 (in-place)
I0716 13:06:51.065271  3045 net.cpp:144] Setting up relu4_fixed
I0716 13:06:51.065294  3045 net.cpp:151] Top shape: 50 384 13 13 (3244800)
I0716 13:06:51.065323  3045 net.cpp:159] Memory required for data: 375819600
I0716 13:06:51.065353  3045 layer_factory.hpp:77] Creating layer conv5
I0716 13:06:51.065397  3045 net.cpp:94] Creating Layer conv5
I0716 13:06:51.065423  3045 net.cpp:435] conv5 <- relu4
I0716 13:06:51.065450  3045 net.cpp:409] conv5 -> conv5
I0716 13:06:51.074196  3045 layer_factory.hpp:77] Creating layer conv5
I0716 13:06:51.083039  3045 net.cpp:144] Setting up conv5
I0716 13:06:51.083053  3045 net.cpp:151] Top shape: 50 256 13 13 (2163200)
I0716 13:06:51.083060  3045 net.cpp:159] Memory required for data: 384472400
I0716 13:06:51.083068  3045 layer_factory.hpp:77] Creating layer relu5
I0716 13:06:51.083075  3045 net.cpp:94] Creating Layer relu5
I0716 13:06:51.083077  3045 net.cpp:435] relu5 <- conv5
I0716 13:06:51.083083  3045 net.cpp:409] relu5 -> relu5
I0716 13:06:51.083098  3045 net.cpp:144] Setting up relu5
I0716 13:06:51.083101  3045 net.cpp:151] Top shape: 50 256 13 13 (2163200)
I0716 13:06:51.083104  3045 net.cpp:159] Memory required for data: 393125200
I0716 13:06:51.083107  3045 layer_factory.hpp:77] Creating layer pool5
I0716 13:06:51.083112  3045 net.cpp:94] Creating Layer pool5
I0716 13:06:51.083114  3045 net.cpp:435] pool5 <- relu5
I0716 13:06:51.083119  3045 net.cpp:409] pool5 -> pool5
I0716 13:06:51.083143  3045 net.cpp:144] Setting up pool5
I0716 13:06:51.083165  3045 net.cpp:151] Top shape: 50 256 6 6 (460800)
I0716 13:06:51.083170  3045 net.cpp:159] Memory required for data: 394968400
I0716 13:06:51.083173  3045 layer_factory.hpp:77] Creating layer pool5_fixed
I0716 13:06:51.083179  3045 net.cpp:94] Creating Layer pool5_fixed
I0716 13:06:51.083181  3045 net.cpp:435] pool5_fixed <- pool5
I0716 13:06:51.083185  3045 net.cpp:396] pool5_fixed -> pool5 (in-place)
I0716 13:06:51.083220  3045 net.cpp:144] Setting up pool5_fixed
I0716 13:06:51.083223  3045 net.cpp:151] Top shape: 50 256 6 6 (460800)
I0716 13:06:51.083226  3045 net.cpp:159] Memory required for data: 396811600
I0716 13:06:51.083230  3045 layer_factory.hpp:77] Creating layer fc6
I0716 13:06:51.083238  3045 net.cpp:94] Creating Layer fc6
I0716 13:06:51.083242  3045 net.cpp:435] fc6 <- pool5
I0716 13:06:51.083247  3045 net.cpp:409] fc6 -> fc6
I0716 13:06:51.386859  3045 layer_factory.hpp:77] Creating layer fc6
I0716 13:06:51.683171  3045 net.cpp:144] Setting up fc6
I0716 13:06:51.683197  3045 net.cpp:151] Top shape: 50 4096 (204800)
I0716 13:06:51.683207  3045 net.cpp:159] Memory required for data: 397630800
I0716 13:06:51.683218  3045 layer_factory.hpp:77] Creating layer relu6
I0716 13:06:51.683225  3045 net.cpp:94] Creating Layer relu6
I0716 13:06:51.683231  3045 net.cpp:435] relu6 <- fc6
I0716 13:06:51.683239  3045 net.cpp:409] relu6 -> relu6
I0716 13:06:51.683260  3045 net.cpp:144] Setting up relu6
I0716 13:06:51.683282  3045 net.cpp:151] Top shape: 50 4096 (204800)
I0716 13:06:51.683287  3045 net.cpp:159] Memory required for data: 398450000
I0716 13:06:51.683291  3045 layer_factory.hpp:77] Creating layer relu6_fixed
I0716 13:06:51.683298  3045 net.cpp:94] Creating Layer relu6_fixed
I0716 13:06:51.683302  3045 net.cpp:435] relu6_fixed <- relu6
I0716 13:06:51.683307  3045 net.cpp:396] relu6_fixed -> relu6 (in-place)
I0716 13:06:51.683349  3045 net.cpp:144] Setting up relu6_fixed
I0716 13:06:51.683354  3045 net.cpp:151] Top shape: 50 4096 (204800)
I0716 13:06:51.683358  3045 net.cpp:159] Memory required for data: 399269200
I0716 13:06:51.683362  3045 layer_factory.hpp:77] Creating layer fc7
I0716 13:06:51.683372  3045 net.cpp:94] Creating Layer fc7
I0716 13:06:51.683375  3045 net.cpp:435] fc7 <- relu6
I0716 13:06:51.683382  3045 net.cpp:409] fc7 -> bn7
I0716 13:06:51.815860  3045 layer_factory.hpp:77] Creating layer fc7
I0716 13:06:51.947324  3045 net.cpp:144] Setting up fc7
I0716 13:06:51.947350  3045 net.cpp:151] Top shape: 50 4096 (204800)
I0716 13:06:51.947357  3045 net.cpp:159] Memory required for data: 400088400
I0716 13:06:51.947367  3045 layer_factory.hpp:77] Creating layer relu7
I0716 13:06:51.947374  3045 net.cpp:94] Creating Layer relu7
I0716 13:06:51.947378  3045 net.cpp:435] relu7 <- bn7
I0716 13:06:51.947384  3045 net.cpp:409] relu7 -> relu7
I0716 13:06:51.947402  3045 net.cpp:144] Setting up relu7
I0716 13:06:51.947404  3045 net.cpp:151] Top shape: 50 4096 (204800)
I0716 13:06:51.947407  3045 net.cpp:159] Memory required for data: 400907600
I0716 13:06:51.947409  3045 layer_factory.hpp:77] Creating layer relu7_fixed
I0716 13:06:51.947417  3045 net.cpp:94] Creating Layer relu7_fixed
I0716 13:06:51.947419  3045 net.cpp:435] relu7_fixed <- relu7
I0716 13:06:51.947423  3045 net.cpp:396] relu7_fixed -> relu7 (in-place)
I0716 13:06:51.947446  3045 net.cpp:144] Setting up relu7_fixed
I0716 13:06:51.947455  3045 net.cpp:151] Top shape: 50 4096 (204800)
I0716 13:06:51.947474  3045 net.cpp:159] Memory required for data: 401726800
I0716 13:06:51.947479  3045 layer_factory.hpp:77] Creating layer fc8
I0716 13:06:51.947487  3045 net.cpp:94] Creating Layer fc8
I0716 13:06:51.947491  3045 net.cpp:435] fc8 <- relu7
I0716 13:06:51.947497  3045 net.cpp:409] fc8 -> fc8
I0716 13:06:51.947640  3045 layer_factory.hpp:77] Creating layer fc8
I0716 13:06:51.947799  3045 net.cpp:144] Setting up fc8
I0716 13:06:51.947805  3045 net.cpp:151] Top shape: 50 2 (100)
I0716 13:06:51.947809  3045 net.cpp:159] Memory required for data: 401727200
I0716 13:06:51.947813  3045 layer_factory.hpp:77] Creating layer fc8_fixed
I0716 13:06:51.947818  3045 net.cpp:94] Creating Layer fc8_fixed
I0716 13:06:51.947821  3045 net.cpp:435] fc8_fixed <- fc8
I0716 13:06:51.947825  3045 net.cpp:396] fc8_fixed -> fc8 (in-place)
I0716 13:06:51.947854  3045 net.cpp:144] Setting up fc8_fixed
I0716 13:06:51.947858  3045 net.cpp:151] Top shape: 50 2 (100)
I0716 13:06:51.947862  3045 net.cpp:159] Memory required for data: 401727600
I0716 13:06:51.947866  3045 layer_factory.hpp:77] Creating layer fc8_fc8_fixed_0_split
I0716 13:06:51.947872  3045 net.cpp:94] Creating Layer fc8_fc8_fixed_0_split
I0716 13:06:51.947876  3045 net.cpp:435] fc8_fc8_fixed_0_split <- fc8
I0716 13:06:51.947882  3045 net.cpp:409] fc8_fc8_fixed_0_split -> fc8_fc8_fixed_0_split_0
I0716 13:06:51.947890  3045 net.cpp:409] fc8_fc8_fixed_0_split -> fc8_fc8_fixed_0_split_1
I0716 13:06:51.947896  3045 net.cpp:409] fc8_fc8_fixed_0_split -> fc8_fc8_fixed_0_split_2
I0716 13:06:51.947933  3045 net.cpp:144] Setting up fc8_fc8_fixed_0_split
I0716 13:06:51.947938  3045 net.cpp:151] Top shape: 50 2 (100)
I0716 13:06:51.947942  3045 net.cpp:151] Top shape: 50 2 (100)
I0716 13:06:51.947945  3045 net.cpp:151] Top shape: 50 2 (100)
I0716 13:06:51.947950  3045 net.cpp:159] Memory required for data: 401728800
I0716 13:06:51.947954  3045 layer_factory.hpp:77] Creating layer accuracy
I0716 13:06:51.947963  3045 net.cpp:94] Creating Layer accuracy
I0716 13:06:51.947968  3045 net.cpp:435] accuracy <- fc8_fc8_fixed_0_split_0
I0716 13:06:51.947973  3045 net.cpp:435] accuracy <- label_data_1_split_0
I0716 13:06:51.947980  3045 net.cpp:409] accuracy -> accuracy
…
(c) Copyright 2016–2019 Xilinx, Inc. All rights reserved.

I0716 22:47:56.362046 12261 net.cpp:323] The NetState phase (1) differed from the phase (0) specified by a rule in layer data
I0716 22:47:56.362263 12261 net.cpp:52] Initializing net from parameters: 
state {
  phase: TEST
}
layer {
  name: "data"
  type: "Data"
  top: "data"
  top: "label"
  include {
    phase: TEST
  }
  transform_param {
    mirror: false
    crop_size: 227
    mean_value: 106
    mean_value: 116
    mean_value: 124
  }
  data_param {
    source: "input/lmdb/valid_lmdb"
    batch_size: 50
    backend: LMDB
  }
}
layer {
  name: "conv1"
  type: "Convolution"
  bottom: "data"
  top: "conv1"
  param {
    lr_mult: 1
    decay_mult: 1
  }
  param {
    lr_mult: 2
    decay_mult: 0
  }
  convolution_param {
    num_output: 78
    pad: 1
    kernel_size: 11
    stride: 4
    weight_filler {
      type: "gaussian"
      std: 0.01
    }
    bias_filler {
      type: "constant"
      value: 0
    }
  }
}
layer {
  name: "bn1"
  type: "BatchNorm"
  bottom: "conv1"
  top: "bn1"
  param {
    lr_mult: 0
  }
  param {
    lr_mult: 0
  }
  param {
    lr_mult: 0
  }
  batch_norm_param {
    use_global_stats: false
  }
}
layer {
  name: "relu1"
  type: "ReLU"
  bottom: "bn1"
  top: "relu1"
}
layer {
  name: "pool1"
  type: "Pooling"
  bottom: "relu1"
  top: "pool1"
  pooling_param {
    pool: MAX
    kernel_size: 3
    stride: 2
  }
}
layer {
  name: "conv2"
  type: "Convolution"
  bottom: "pool1"
  top: "conv2"
  param {
    lr_mult: 1
    decay_mult: 1
  }
  param {
    lr_mult: 2
    decay_mult: 0
  }
  convolution_param {
    num_output: 154
    pad: 2
    kernel_size: 5
    group: 1
    weight_filler {
      type: "gaussian"
      std: 0.01
    }
    bias_filler {
      type: "constant"
      value: 1
    }
  }
}
layer {
  name: "bn2"
  type: "BatchNorm"
  bottom: "conv2"
  top: "bn2"
  param {
    lr_mult: 0
  }
  param {
    lr_mult: 0
  }
  param {
    lr_mult: 0
  }
  batch_norm_param {
    use_global_stats: false
  }
}
layer {
  name: "relu2"
  type: "ReLU"
  bottom: "bn2"
  top: "relu2"
}
layer {
  name: "pool2"
  type: "Pooling"
  bottom: "relu2"
  top: "pool2"
  pooling_param {
    pool: MAX
    kernel_size: 3
    stride: 2
  }
}
layer {
  name: "conv3"
  type: "Convolution"
  bottom: "pool2"
  top: "conv3"
  param {
    lr_mult: 1
    decay_mult: 1
  }
  param {
    lr_mult: 2
    decay_mult: 0
  }
  convolution_param {
    num_output: 40
    pad: 1
    kernel_size: 3
    weight_filler {
      type: "gaussian"
      std: 0.01
    }
    bias_filler {
      type: "constant"
      value: 0
    }
  }
}
layer {
  name: "relu3"
  type: "ReLU"
  bottom: "conv3"
  top: "relu3"
}
layer {
  name: "conv4"
  type: "Convolution"
  bottom: "relu3"
  top: "conv4"
  param {
    lr_mult: 1
    decay_mult: 1
  }
  param {
    lr_mult: 2
    decay_mult: 0
  }
  convolution_param {
    num_output: 40
    pad: 1
    kernel_size: 3
    group: 1
    weight_filler {
      type: "gaussian"
      std: 0.01
    }
    bias_filler {
      type: "constant"
      value: 1
    }
  }
}
layer {
  name: "relu4"
  type: "ReLU"
  bottom: "conv4"
  top: "relu4"
}
layer {
  name: "conv5"
  type: "Convolution"
  bottom: "relu4"
  top: "conv5"
  param {
    lr_mult: 1
    decay_mult: 1
  }
  param {
    lr_mult: 2
    decay_mult: 0
  }
  convolution_param {
    num_output: 26
    pad: 1
    kernel_size: 3
    group: 1
    weight_filler {
      type: "gaussian"
      std: 0.01
    }
    bias_filler {
      type: "constant"
      value: 1
    }
  }
}
layer {
  name: "relu5"
  type: "ReLU"
  bottom: "conv5"
  top: "relu5"
}
layer {
  name: "pool5"
  type: "Pooling"
  bottom: "relu5"
  top: "pool5"
  pooling_param {
    pool: MAX
    kernel_size: 3
    stride: 2
  }
}
layer {
  name: "fc6"
  type: "InnerProduct"
  bottom: "pool5"
  top: "fc6"
  param {
    lr_mult: 1
    decay_mult: 1
  }
  param {
    lr_mult: 2
    decay_mult: 0
  }
  inner_product_param {
    num_output: 4096
    weight_filler {
      type: "gaussian"
      std: 0.005
    }
    bias_filler {
      type: "constant"
      value: 1
    }
  }
}
layer {
  name: "relu6"
  type: "ReLU"
  bottom: "fc6"
  top: "relu6"
}
layer {
  name: "drop6"
  type: "Dropout"
  bottom: "relu6"
  top: "drop6"
  dropout_param {
    dropout_ratio: 0.5
  }
}
layer {
  name: "fc7"
  type: "InnerProduct"
  bottom: "drop6"
  top: "fc7"
  param {
    lr_mult: 1
    decay_mult: 1
  }
  param {
    lr_mult: 2
    decay_mult: 0
  }
  inner_product_param {
    num_output: 4096
    weight_filler {
      type: "gaussian"
      std: 0.005
    }
    bias_filler {
      type: "constant"
      value: 1
    }
  }
}
layer {
  name: "bn7"
  type: "BatchNorm"
  bottom: "fc7"
  top: "bn7"
  param {
    lr_mult: 0
  }
  param {
    lr_mult: 0
  }
  param {
    lr_mult: 0
  }
  batch_norm_param {
    use_global_stats: false
  }
}
layer {
  name: "relu7"
  type: "ReLU"
  bottom: "bn7"
  top: "relu7"
}
layer {
  name: "drop7"
  type: "Dropout"
  bottom: "relu7"
  top: "drop7"
  dropout_param {
    dropout_ratio: 0.5
  }
}
layer {
  name: "fc8"
  type: "InnerProduct"
  bottom: "drop7"
  top: "fc8"
  param {
    lr_mult: 1
    decay_mult: 1
  }
  param {
    lr_mult: 2
    decay_mult: 0
  }
  inner_product_param {
    num_output: 2
    weight_filler {
      type: "gaussian"
      std: 0.01
    }
    bias_filler {
      type: "constant"
      value: 0
    }
  }
}
layer {
  name: "accuracy"
  type: "Accuracy"
  bottom: "fc8"
  bottom: "label"
  top: "accuracy"
  include {
    phase: TEST
  }
}
layer {
  name: "loss"
  type: "SoftmaxWithLoss"
  bottom: "fc8"
  bottom: "label"
  top: "loss"
}
layer {
  name: "accuracy-top1"
  type: "Accuracy"
  bottom: "fc8"
  bottom: "label"
  top: "top-1"
  include {
    phase: TEST
  }
}
I0716 22:47:56.362514 12261 layer_factory.hpp:77] Creating layer data
I0716 22:47:56.363626 12261 internal_thread.cpp:27] Starting internal thread(s) on GPU 0
I0716 22:47:56.364146 12261 net.cpp:94] Creating Layer data
I0716 22:47:56.364157 12261 net.cpp:409] data -> data
I0716 22:47:56.364171 12261 net.cpp:409] data -> label
I0716 22:47:56.366744 12294 db_lmdb.cpp:35] Opened lmdb input/lmdb/valid_lmdb
I0716 22:47:56.366767 12294 db_lmdb.cpp:38] Items count: 4000
I0716 22:47:56.366787 12294 data_reader.cpp:124] TEST: reading data using 1 channel(s)
I0716 22:47:56.367074 12261 data_layer.cpp:78] ReshapePrefetch 50, 3, 227, 227
I0716 22:47:56.367086 12261 data_layer.cpp:83] output data size: 50,3,227,227
I0716 22:47:56.462630 12261 internal_thread.cpp:27] Starting internal thread(s) on GPU 0
I0716 22:47:56.462735 12261 net.cpp:144] Setting up data
I0716 22:47:56.462741 12261 net.cpp:151] Top shape: 50 3 227 227 (7729350)
I0716 22:47:56.462750 12261 net.cpp:151] Top shape: 50 (50)
I0716 22:47:56.462754 12261 net.cpp:159] Memory required for data: 30917600
I0716 22:47:56.462759 12261 layer_factory.hpp:77] Creating layer label_data_1_split
I0716 22:47:56.462772 12261 net.cpp:94] Creating Layer label_data_1_split
I0716 22:47:56.462777 12261 net.cpp:435] label_data_1_split <- label
I0716 22:47:56.462785 12261 net.cpp:409] label_data_1_split -> label_data_1_split_0
I0716 22:47:56.462792 12261 net.cpp:409] label_data_1_split -> label_data_1_split_1
I0716 22:47:56.462797 12261 net.cpp:409] label_data_1_split -> label_data_1_split_2
I0716 22:47:56.462805 12261 net.cpp:144] Setting up label_data_1_split
I0716 22:47:56.462807 12261 net.cpp:151] Top shape: 50 (50)
I0716 22:47:56.462811 12261 net.cpp:151] Top shape: 50 (50)
I0716 22:47:56.462815 12261 net.cpp:151] Top shape: 50 (50)
I0716 22:47:56.462817 12261 net.cpp:159] Memory required for data: 30918200
I0716 22:47:56.462821 12261 layer_factory.hpp:77] Creating layer conv1
I0716 22:47:56.462836 12261 net.cpp:94] Creating Layer conv1
I0716 22:47:56.462843 12261 net.cpp:435] conv1 <- data
I0716 22:47:56.462850 12261 net.cpp:409] conv1 -> conv1
I0716 22:47:56.463233 12261 net.cpp:144] Setting up conv1
I0716 22:47:56.463240 12261 net.cpp:151] Top shape: 50 78 55 55 (11797500)
I0716 22:47:56.463245 12261 net.cpp:159] Memory required for data: 78108200
I0716 22:47:56.463256 12261 layer_factory.hpp:77] Creating layer bn1
I0716 22:47:56.463263 12261 net.cpp:94] Creating Layer bn1
I0716 22:47:56.463268 12261 net.cpp:435] bn1 <- conv1
I0716 22:47:56.463272 12261 net.cpp:409] bn1 -> bn1
I0716 22:47:56.463304 12261 net.cpp:144] Setting up bn1
I0716 22:47:56.463323 12261 net.cpp:151] Top shape: 50 78 55 55 (11797500)
I0716 22:47:56.463330 12261 net.cpp:159] Memory required for data: 125298200
I0716 22:47:56.463338 12261 layer_factory.hpp:77] Creating layer relu1
I0716 22:47:56.463343 12261 net.cpp:94] Creating Layer relu1
I0716 22:47:56.463347 12261 net.cpp:435] relu1 <- bn1
I0716 22:47:56.463352 12261 net.cpp:409] relu1 -> relu1
I0716 22:47:56.463359 12261 net.cpp:144] Setting up relu1
I0716 22:47:56.463367 12261 net.cpp:151] Top shape: 50 78 55 55 (11797500)
I0716 22:47:56.463374 12261 net.cpp:159] Memory required for data: 172488200
I0716 22:47:56.463379 12261 layer_factory.hpp:77] Creating layer pool1
I0716 22:47:56.463385 12261 net.cpp:94] Creating Layer pool1
I0716 22:47:56.463392 12261 net.cpp:435] pool1 <- relu1
I0716 22:47:56.463397 12261 net.cpp:409] pool1 -> pool1
I0716 22:47:56.463408 12261 net.cpp:144] Setting up pool1
I0716 22:47:56.463414 12261 net.cpp:151] Top shape: 50 78 27 27 (2843100)
I0716 22:47:56.463418 12261 net.cpp:159] Memory required for data: 183860600
I0716 22:47:56.463423 12261 layer_factory.hpp:77] Creating layer conv2
I0716 22:47:56.463429 12261 net.cpp:94] Creating Layer conv2
I0716 22:47:56.463433 12261 net.cpp:435] conv2 <- pool1
I0716 22:47:56.463438 12261 net.cpp:409] conv2 -> conv2
I0716 22:47:56.466835 12261 net.cpp:144] Setting up conv2
I0716 22:47:56.466845 12261 net.cpp:151] Top shape: 50 154 27 27 (5613300)
I0716 22:47:56.466850 12261 net.cpp:159] Memory required for data: 206313800
I0716 22:47:56.466857 12261 layer_factory.hpp:77] Creating layer bn2
I0716 22:47:56.466864 12261 net.cpp:94] Creating Layer bn2
I0716 22:47:56.466867 12261 net.cpp:435] bn2 <- conv2
I0716 22:47:56.466872 12261 net.cpp:409] bn2 -> bn2
I0716 22:47:56.466913 12261 net.cpp:144] Setting up bn2
I0716 22:47:56.466918 12261 net.cpp:151] Top shape: 50 154 27 27 (5613300)
I0716 22:47:56.466924 12261 net.cpp:159] Memory required for data: 228767000
I0716 22:47:56.466931 12261 layer_factory.hpp:77] Creating layer relu2
I0716 22:47:56.466938 12261 net.cpp:94] Creating Layer relu2
I0716 22:47:56.466941 12261 net.cpp:435] relu2 <- bn2
I0716 22:47:56.466948 12261 net.cpp:409] relu2 -> relu2
I0716 22:47:56.466954 12261 net.cpp:144] Setting up relu2
I0716 22:47:56.466958 12261 net.cpp:151] Top shape: 50 154 27 27 (5613300)
I0716 22:47:56.466964 12261 net.cpp:159] Memory required for data: 251220200
I0716 22:47:56.466967 12261 layer_factory.hpp:77] Creating layer pool2
I0716 22:47:56.466974 12261 net.cpp:94] Creating Layer pool2
I0716 22:47:56.466977 12261 net.cpp:435] pool2 <- relu2
I0716 22:47:56.466981 12261 net.cpp:409] pool2 -> pool2
I0716 22:47:56.466989 12261 net.cpp:144] Setting up pool2
I0716 22:47:56.466995 12261 net.cpp:151] Top shape: 50 154 13 13 (1301300)
I0716 22:47:56.467000 12261 net.cpp:159] Memory required for data: 256425400
I0716 22:47:56.467003 12261 layer_factory.hpp:77] Creating layer conv3
I0716 22:47:56.467010 12261 net.cpp:94] Creating Layer conv3
I0716 22:47:56.467015 12261 net.cpp:435] conv3 <- pool2
I0716 22:47:56.467023 12261 net.cpp:409] conv3 -> conv3
I0716 22:47:56.467720 12261 net.cpp:144] Setting up conv3
I0716 22:47:56.467727 12261 net.cpp:151] Top shape: 50 40 13 13 (338000)
I0716 22:47:56.467732 12261 net.cpp:159] Memory required for data: 257777400
I0716 22:47:56.467738 12261 layer_factory.hpp:77] Creating layer relu3
I0716 22:47:56.467744 12261 net.cpp:94] Creating Layer relu3
I0716 22:47:56.467748 12261 net.cpp:435] relu3 <- conv3
I0716 22:47:56.467753 12261 net.cpp:409] relu3 -> relu3
I0716 22:47:56.467759 12261 net.cpp:144] Setting up relu3
I0716 22:47:56.467763 12261 net.cpp:151] Top shape: 50 40 13 13 (338000)
I0716 22:47:56.467768 12261 net.cpp:159] Memory required for data: 259129400
I0716 22:47:56.467772 12261 layer_factory.hpp:77] Creating layer conv4
I0716 22:47:56.467779 12261 net.cpp:94] Creating Layer conv4
I0716 22:47:56.467783 12261 net.cpp:435] conv4 <- relu3
I0716 22:47:56.467789 12261 net.cpp:409] conv4 -> conv4
I0716 22:47:56.467990 12261 net.cpp:144] Setting up conv4
I0716 22:47:56.467996 12261 net.cpp:151] Top shape: 50 40 13 13 (338000)
I0716 22:47:56.468010 12261 net.cpp:159] Memory required for data: 260481400
I0716 22:47:56.468017 12261 layer_factory.hpp:77] Creating layer relu4
I0716 22:47:56.468024 12261 net.cpp:94] Creating Layer relu4
I0716 22:47:56.468027 12261 net.cpp:435] relu4 <- conv4
I0716 22:47:56.468032 12261 net.cpp:409] relu4 -> relu4
I0716 22:47:56.468039 12261 net.cpp:144] Setting up relu4
I0716 22:47:56.468042 12261 net.cpp:151] Top shape: 50 40 13 13 (338000)
I0716 22:47:56.468047 12261 net.cpp:159] Memory required for data: 261833400
I0716 22:47:56.468050 12261 layer_factory.hpp:77] Creating layer conv5
I0716 22:47:56.468058 12261 net.cpp:94] Creating Layer conv5
I0716 22:47:56.468063 12261 net.cpp:435] conv5 <- relu4
I0716 22:47:56.468073 12261 net.cpp:409] conv5 -> conv5
I0716 22:47:56.468212 12261 net.cpp:144] Setting up conv5
I0716 22:47:56.468219 12261 net.cpp:151] Top shape: 50 26 13 13 (219700)
I0716 22:47:56.468225 12261 net.cpp:159] Memory required for data: 262712200
I0716 22:47:56.468230 12261 layer_factory.hpp:77] Creating layer relu5
I0716 22:47:56.468236 12261 net.cpp:94] Creating Layer relu5
I0716 22:47:56.468240 12261 net.cpp:435] relu5 <- conv5
I0716 22:47:56.468245 12261 net.cpp:409] relu5 -> relu5
I0716 22:47:56.468250 12261 net.cpp:144] Setting up relu5
I0716 22:47:56.468255 12261 net.cpp:151] Top shape: 50 26 13 13 (219700)
I0716 22:47:56.468259 12261 net.cpp:159] Memory required for data: 263591000
I0716 22:47:56.468262 12261 layer_factory.hpp:77] Creating layer pool5
I0716 22:47:56.468267 12261 net.cpp:94] Creating Layer pool5
I0716 22:47:56.468271 12261 net.cpp:435] pool5 <- relu5
I0716 22:47:56.468276 12261 net.cpp:409] pool5 -> pool5
I0716 22:47:56.468283 12261 net.cpp:144] Setting up pool5
I0716 22:47:56.468288 12261 net.cpp:151] Top shape: 50 26 6 6 (46800)
I0716 22:47:56.468295 12261 net.cpp:159] Memory required for data: 263778200
I0716 22:47:56.468299 12261 layer_factory.hpp:77] Creating layer fc6
I0716 22:47:56.468310 12261 net.cpp:94] Creating Layer fc6
I0716 22:47:56.468318 12261 net.cpp:435] fc6 <- pool5
I0716 22:47:56.468325 12261 net.cpp:409] fc6 -> fc6
I0716 22:47:56.507997 12261 net.cpp:144] Setting up fc6
I0716 22:47:56.508016 12261 net.cpp:151] Top shape: 50 4096 (204800)
I0716 22:47:56.508023 12261 net.cpp:159] Memory required for data: 264597400
I0716 22:47:56.508030 12261 layer_factory.hpp:77] Creating layer relu6
I0716 22:47:56.508036 12261 net.cpp:94] Creating Layer relu6
I0716 22:47:56.508040 12261 net.cpp:435] relu6 <- fc6
I0716 22:47:56.508045 12261 net.cpp:409] relu6 -> relu6
I0716 22:47:56.508054 12261 net.cpp:144] Setting up relu6
I0716 22:47:56.508057 12261 net.cpp:151] Top shape: 50 4096 (204800)
I0716 22:47:56.508061 12261 net.cpp:159] Memory required for data: 265416600
I0716 22:47:56.508065 12261 layer_factory.hpp:77] Creating layer drop6
I0716 22:47:56.508071 12261 net.cpp:94] Creating Layer drop6
I0716 22:47:56.508090 12261 net.cpp:435] drop6 <- relu6
I0716 22:47:56.508095 12261 net.cpp:409] drop6 -> drop6
I0716 22:47:56.508100 12261 net.cpp:144] Setting up drop6
I0716 22:47:56.508103 12261 net.cpp:151] Top shape: 50 4096 (204800)
I0716 22:47:56.508107 12261 net.cpp:159] Memory required for data: 266235800
I0716 22:47:56.508111 12261 layer_factory.hpp:77] Creating layer fc7
I0716 22:47:56.508117 12261 net.cpp:94] Creating Layer fc7
I0716 22:47:56.508121 12261 net.cpp:435] fc7 <- drop6
I0716 22:47:56.508126 12261 net.cpp:409] fc7 -> fc7
I0716 22:47:56.673718 12261 net.cpp:144] Setting up fc7
I0716 22:47:56.673743 12261 net.cpp:151] Top shape: 50 4096 (204800)
I0716 22:47:56.673751 12261 net.cpp:159] Memory required for data: 267055000
I0716 22:47:56.673763 12261 layer_factory.hpp:77] Creating layer bn7
I0716 22:47:56.673770 12261 net.cpp:94] Creating Layer bn7
I0716 22:47:56.673775 12261 net.cpp:435] bn7 <- fc7
I0716 22:47:56.673782 12261 net.cpp:409] bn7 -> bn7
I0716 22:47:56.673880 12261 net.cpp:144] Setting up bn7
I0716 22:47:56.673885 12261 net.cpp:151] Top shape: 50 4096 (204800)
I0716 22:47:56.673889 12261 net.cpp:159] Memory required for data: 267874200
I0716 22:47:56.673910 12261 layer_factory.hpp:77] Creating layer relu7
I0716 22:47:56.673916 12261 net.cpp:94] Creating Layer relu7
I0716 22:47:56.673918 12261 net.cpp:435] relu7 <- bn7
I0716 22:47:56.673923 12261 net.cpp:409] relu7 -> relu7
I0716 22:47:56.673949 12261 net.cpp:144] Setting up relu7
I0716 22:47:56.673955 12261 net.cpp:151] Top shape: 50 4096 (204800)
I0716 22:47:56.673961 12261 net.cpp:159] Memory required for data: 268693400
I0716 22:47:56.673966 12261 layer_factory.hpp:77] Creating layer drop7
I0716 22:47:56.673974 12261 net.cpp:94] Creating Layer drop7
I0716 22:47:56.673979 12261 net.cpp:435] drop7 <- relu7
I0716 22:47:56.673987 12261 net.cpp:409] drop7 -> drop7
I0716 22:47:56.674000 12261 net.cpp:144] Setting up drop7
I0716 22:47:56.674003 12261 net.cpp:151] Top shape: 50 4096 (204800)
I0716 22:47:56.674027 12261 net.cpp:159] Memory required for data: 269512600
I0716 22:47:56.674031 12261 layer_factory.hpp:77] Creating layer fc8
I0716 22:47:56.674037 12261 net.cpp:94] Creating Layer fc8
I0716 22:47:56.674041 12261 net.cpp:435] fc8 <- drop7
I0716 22:47:56.674046 12261 net.cpp:409] fc8 -> fc8
I0716 22:47:56.674170 12261 net.cpp:144] Setting up fc8
I0716 22:47:56.674175 12261 net.cpp:151] Top shape: 50 2 (100)
I0716 22:47:56.674180 12261 net.cpp:159] Memory required for data: 269513000
I0716 22:47:56.674185 12261 layer_factory.hpp:77] Creating layer fc8_fc8_0_split
I0716 22:47:56.674191 12261 net.cpp:94] Creating Layer fc8_fc8_0_split
I0716 22:47:56.674196 12261 net.cpp:435] fc8_fc8_0_split <- fc8
I0716 22:47:56.674199 12261 net.cpp:409] fc8_fc8_0_split -> fc8_fc8_0_split_0
I0716 22:47:56.674206 12261 net.cpp:409] fc8_fc8_0_split -> fc8_fc8_0_split_1
I0716 22:47:56.674211 12261 net.cpp:409] fc8_fc8_0_split -> fc8_fc8_0_split_2
I0716 22:47:56.674221 12261 net.cpp:144] Setting up fc8_fc8_0_split
I0716 22:47:56.674224 12261 net.cpp:151] Top shape: 50 2 (100)
I0716 22:47:56.674230 12261 net.cpp:151] Top shape: 50 2 (100)
I0716 22:47:56.674237 12261 net.cpp:151] Top shape: 50 2 (100)
I0716 22:47:56.674240 12261 net.cpp:159] Memory required for data: 269514200
I0716 22:47:56.674245 12261 layer_factory.hpp:77] Creating layer accuracy
I0716 22:47:56.674253 12261 net.cpp:94] Creating Layer accuracy
I0716 22:47:56.674258 12261 net.cpp:435] accuracy <- fc8_fc8_0_split_0
I0716 22:47:56.674264 12261 net.cpp:435] accuracy <- label_data_1_split_0
I0716 22:47:56.674271 12261 net.cpp:409] accuracy -> accuracy
…
I0716 22:47:58.990134 12325 net.cpp:323] The NetState phase (0) differed from the phase (1) specified by a rule in layer accuracy-top1
I0716 22:47:58.990137 12325 net.cpp:52] Initializing net from parameters: 
state {
  phase: TRAIN
}
layer {
  name: "data"
  type: "ImageData"
  top: "data"
  top: "label"
  include {
    phase: TRAIN
  }
  transform_param {
    crop_size: 227
    mean_value: 106
    mean_value: 116
    mean_value: 124
  }
  image_data_param {
    source: "deploy/alexnetBNnoLRN/pruned/data/calib/calibration.txt"
    batch_size: 10
    shuffle: true
    root_folder: "deploy/alexnetBNnoLRN/pruned/data/calib/"
  }
}
layer {
  name: "conv1"
  type: "Convolution"
  bottom: "data"
  top: "conv1"
  param {
    lr_mult: 1
    decay_mult: 1
  }
  param {
    lr_mult: 2
    decay_mult: 0
  }
  convolution_param {
    num_output: 78
    pad: 1
    kernel_size: 11
    stride: 4
    weight_filler {
      type: "gaussian"
      std: 0.01
    }
    bias_filler {
      type: "constant"
      value: 0
    }
  }
}
layer {
  name: "bn1"
  type: "BatchNorm"
  bottom: "conv1"
  top: "bn1"
  param {
    lr_mult: 0
  }
  param {
    lr_mult: 0
  }
  param {
    lr_mult: 0
  }
  batch_norm_param {
    use_global_stats: false
  }
}
layer {
  name: "relu1"
  type: "ReLU"
  bottom: "bn1"
  top: "relu1"
}
layer {
  name: "pool1"
  type: "Pooling"
  bottom: "relu1"
  top: "pool1"
  pooling_param {
    pool: MAX
    kernel_size: 3
    stride: 2
  }
}
layer {
  name: "conv2"
  type: "Convolution"
  bottom: "pool1"
  top: "conv2"
  param {
    lr_mult: 1
    decay_mult: 1
  }
  param {
    lr_mult: 2
    decay_mult: 0
  }
  convolution_param {
    num_output: 154
    pad: 2
    kernel_size: 5
    group: 1
    weight_filler {
      type: "gaussian"
      std: 0.01
    }
    bias_filler {
      type: "constant"
      value: 1
    }
  }
}
layer {
  name: "bn2"
  type: "BatchNorm"
  bottom: "conv2"
  top: "bn2"
  param {
    lr_mult: 0
  }
  param {
    lr_mult: 0
  }
  param {
    lr_mult: 0
  }
  batch_norm_param {
    use_global_stats: false
  }
}
layer {
  name: "relu2"
  type: "ReLU"
  bottom: "bn2"
  top: "relu2"
}
layer {
  name: "pool2"
  type: "Pooling"
  bottom: "relu2"
  top: "pool2"
  pooling_param {
    pool: MAX
    kernel_size: 3
    stride: 2
  }
}
layer {
  name: "conv3"
  type: "Convolution"
  bottom: "pool2"
  top: "conv3"
  param {
    lr_mult: 1
    decay_mult: 1
  }
  param {
    lr_mult: 2
    decay_mult: 0
  }
  convolution_param {
    num_output: 40
    pad: 1
    kernel_size: 3
    weight_filler {
      type: "gaussian"
      std: 0.01
    }
    bias_filler {
      type: "constant"
      value: 0
    }
  }
}
layer {
  name: "relu3"
  type: "ReLU"
  bottom: "conv3"
  top: "relu3"
}
layer {
  name: "conv4"
  type: "Convolution"
  bottom: "relu3"
  top: "conv4"
  param {
    lr_mult: 1
    decay_mult: 1
  }
  param {
    lr_mult: 2
    decay_mult: 0
  }
  convolution_param {
    num_output: 40
    pad: 1
    kernel_size: 3
    group: 1
    weight_filler {
      type: "gaussian"
      std: 0.01
    }
    bias_filler {
      type: "constant"
      value: 1
    }
  }
}
layer {
  name: "relu4"
  type: "ReLU"
  bottom: "conv4"
  top: "relu4"
}
layer {
  name: "conv5"
  type: "Convolution"
  bottom: "relu4"
  top: "conv5"
  param {
    lr_mult: 1
    decay_mult: 1
  }
  param {
    lr_mult: 2
    decay_mult: 0
  }
  convolution_param {
    num_output: 26
    pad: 1
    kernel_size: 3
    group: 1
    weight_filler {
      type: "gaussian"
      std: 0.01
    }
    bias_filler {
      type: "constant"
      value: 1
    }
  }
}
layer {
  name: "relu5"
  type: "ReLU"
  bottom: "conv5"
  top: "relu5"
}
layer {
  name: "pool5"
  type: "Pooling"
  bottom: "relu5"
  top: "pool5"
  pooling_param {
    pool: MAX
    kernel_size: 3
    stride: 2
  }
}
layer {
  name: "fc6"
  type: "InnerProduct"
  bottom: "pool5"
  top: "fc6"
  param {
    lr_mult: 1
    decay_mult: 1
  }
  param {
    lr_mult: 2
    decay_mult: 0
  }
  inner_product_param {
    num_output: 4096
    weight_filler {
      type: "gaussian"
      std: 0.005
    }
    bias_filler {
      type: "constant"
      value: 1
    }
  }
}
layer {
  name: "relu6"
  type: "ReLU"
  bottom: "fc6"
  top: "relu6"
}
layer {
  name: "fc7"
  type: "InnerProduct"
  bottom: "relu6"
  top: "fc7"
  param {
    lr_mult: 1
    decay_mult: 1
  }
  param {
    lr_mult: 2
    decay_mult: 0
  }
  inner_product_param {
    num_output: 4096
    weight_filler {
      type: "gaussian"
      std: 0.005
    }
    bias_filler {
      type: "constant"
      value: 1
    }
  }
}
layer {
  name: "bn7"
  type: "BatchNorm"
  bottom: "fc7"
  top: "bn7"
  param {
    lr_mult: 0
  }
  param {
    lr_mult: 0
  }
  param {
    lr_mult: 0
  }
  batch_norm_param {
    use_global_stats: false
  }
}
layer {
  name: "relu7"
  type: "ReLU"
  bottom: "bn7"
  top: "relu7"
}
layer {
  name: "fc8"
  type: "InnerProduct"
  bottom: "relu7"
  top: "fc8"
  param {
    lr_mult: 1
    decay_mult: 1
  }
  param {
    lr_mult: 2
    decay_mult: 0
  }
  inner_product_param {
    num_output: 2
    weight_filler {
      type: "gaussian"
      std: 0.01
    }
    bias_filler {
      type: "constant"
      value: 0
    }
  }
}
layer {
  name: "loss"
  type: "SoftmaxWithLoss"
  bottom: "fc8"
  bottom: "label"
  top: "loss"
}
I0716 22:47:58.990329 12325 layer_factory.hpp:77] Creating layer data
I0716 22:47:58.990351 12325 net.cpp:94] Creating Layer data
I0716 22:47:58.990356 12325 net.cpp:409] data -> data
I0716 22:47:58.990386 12325 net.cpp:409] data -> label
I0716 22:47:58.990759 12325 image_data_layer.cpp:41] Opening file deploy/alexnetBNnoLRN/pruned/data/calib/calibration.txt
I0716 22:47:58.990891 12325 image_data_layer.cpp:51] Shuffling data
I0716 22:47:58.990907 12325 image_data_layer.cpp:56] A total of 200 images.
I0716 22:47:58.992339 12325 image_data_layer.cpp:84] output data size: 10,3,227,227
I0716 22:47:59.013931 12325 internal_thread.cpp:27] Starting internal thread(s) on GPU 0
I0716 22:47:59.014008 12325 net.cpp:144] Setting up data
I0716 22:47:59.014012 12325 net.cpp:151] Top shape: 10 3 227 227 (1545870)
I0716 22:47:59.014022 12325 net.cpp:151] Top shape: 10 (10)
I0716 22:47:59.014025 12325 net.cpp:159] Memory required for data: 6183520
I0716 22:47:59.014030 12325 layer_factory.hpp:77] Creating layer conv1
I0716 22:47:59.014046 12325 net.cpp:94] Creating Layer conv1
I0716 22:47:59.014052 12325 net.cpp:435] conv1 <- data
I0716 22:47:59.014058 12325 net.cpp:409] conv1 -> conv1
I0716 22:47:59.014600 12325 net.cpp:144] Setting up conv1
I0716 22:47:59.014606 12325 net.cpp:151] Top shape: 10 78 55 55 (2359500)
I0716 22:47:59.014611 12325 net.cpp:159] Memory required for data: 15621520
I0716 22:47:59.014632 12325 layer_factory.hpp:77] Creating layer bn1
I0716 22:47:59.014642 12325 net.cpp:94] Creating Layer bn1
I0716 22:47:59.014644 12325 net.cpp:435] bn1 <- conv1
I0716 22:47:59.014649 12325 net.cpp:409] bn1 -> bn1
I0716 22:47:59.015163 12325 net.cpp:144] Setting up bn1
I0716 22:47:59.015168 12325 net.cpp:151] Top shape: 10 78 55 55 (2359500)
I0716 22:47:59.015174 12325 net.cpp:159] Memory required for data: 25059520
I0716 22:47:59.015182 12325 layer_factory.hpp:77] Creating layer relu1
I0716 22:47:59.015187 12325 net.cpp:94] Creating Layer relu1
I0716 22:47:59.015190 12325 net.cpp:435] relu1 <- bn1
I0716 22:47:59.015193 12325 net.cpp:409] relu1 -> relu1
I0716 22:47:59.015213 12325 net.cpp:144] Setting up relu1
I0716 22:47:59.015216 12325 net.cpp:151] Top shape: 10 78 55 55 (2359500)
I0716 22:47:59.015221 12325 net.cpp:159] Memory required for data: 34497520
I0716 22:47:59.015224 12325 layer_factory.hpp:77] Creating layer pool1
I0716 22:47:59.015229 12325 net.cpp:94] Creating Layer pool1
I0716 22:47:59.015233 12325 net.cpp:435] pool1 <- relu1
I0716 22:47:59.015236 12325 net.cpp:409] pool1 -> pool1
I0716 22:47:59.015259 12325 net.cpp:144] Setting up pool1
I0716 22:47:59.015264 12325 net.cpp:151] Top shape: 10 78 27 27 (568620)
I0716 22:47:59.015266 12325 net.cpp:159] Memory required for data: 36772000
I0716 22:47:59.015269 12325 layer_factory.hpp:77] Creating layer conv2
I0716 22:47:59.015276 12325 net.cpp:94] Creating Layer conv2
I0716 22:47:59.015280 12325 net.cpp:435] conv2 <- pool1
I0716 22:47:59.015282 12325 net.cpp:409] conv2 -> conv2
I0716 22:47:59.018258 12325 net.cpp:144] Setting up conv2
I0716 22:47:59.018271 12325 net.cpp:151] Top shape: 10 154 27 27 (1122660)
I0716 22:47:59.018276 12325 net.cpp:159] Memory required for data: 41262640
I0716 22:47:59.018285 12325 layer_factory.hpp:77] Creating layer bn2
I0716 22:47:59.018291 12325 net.cpp:94] Creating Layer bn2
I0716 22:47:59.018294 12325 net.cpp:435] bn2 <- conv2
I0716 22:47:59.018299 12325 net.cpp:409] bn2 -> bn2
I0716 22:47:59.018823 12325 net.cpp:144] Setting up bn2
I0716 22:47:59.018829 12325 net.cpp:151] Top shape: 10 154 27 27 (1122660)
I0716 22:47:59.018834 12325 net.cpp:159] Memory required for data: 45753280
I0716 22:47:59.018841 12325 layer_factory.hpp:77] Creating layer relu2
I0716 22:47:59.018846 12325 net.cpp:94] Creating Layer relu2
I0716 22:47:59.018847 12325 net.cpp:435] relu2 <- bn2
I0716 22:47:59.018851 12325 net.cpp:409] relu2 -> relu2
I0716 22:47:59.018867 12325 net.cpp:144] Setting up relu2
I0716 22:47:59.018872 12325 net.cpp:151] Top shape: 10 154 27 27 (1122660)
I0716 22:47:59.018875 12325 net.cpp:159] Memory required for data: 50243920
I0716 22:47:59.018878 12325 layer_factory.hpp:77] Creating layer pool2
I0716 22:47:59.018883 12325 net.cpp:94] Creating Layer pool2
I0716 22:47:59.018887 12325 net.cpp:435] pool2 <- relu2
I0716 22:47:59.018890 12325 net.cpp:409] pool2 -> pool2
I0716 22:47:59.018913 12325 net.cpp:144] Setting up pool2
I0716 22:47:59.018916 12325 net.cpp:151] Top shape: 10 154 13 13 (260260)
I0716 22:47:59.018921 12325 net.cpp:159] Memory required for data: 51284960
I0716 22:47:59.018924 12325 layer_factory.hpp:77] Creating layer conv3
I0716 22:47:59.018931 12325 net.cpp:94] Creating Layer conv3
I0716 22:47:59.018934 12325 net.cpp:435] conv3 <- pool2
I0716 22:47:59.018939 12325 net.cpp:409] conv3 -> conv3
I0716 22:47:59.019582 12325 net.cpp:144] Setting up conv3
I0716 22:47:59.019588 12325 net.cpp:151] Top shape: 10 40 13 13 (67600)
I0716 22:47:59.019593 12325 net.cpp:159] Memory required for data: 51555360
I0716 22:47:59.019598 12325 layer_factory.hpp:77] Creating layer relu3
I0716 22:47:59.019601 12325 net.cpp:94] Creating Layer relu3
I0716 22:47:59.019605 12325 net.cpp:435] relu3 <- conv3
I0716 22:47:59.019609 12325 net.cpp:409] relu3 -> relu3
I0716 22:47:59.019623 12325 net.cpp:144] Setting up relu3
I0716 22:47:59.019627 12325 net.cpp:151] Top shape: 10 40 13 13 (67600)
I0716 22:47:59.019632 12325 net.cpp:159] Memory required for data: 51825760
I0716 22:47:59.019635 12325 layer_factory.hpp:77] Creating layer conv4
I0716 22:47:59.019641 12325 net.cpp:94] Creating Layer conv4
I0716 22:47:59.019644 12325 net.cpp:435] conv4 <- relu3
I0716 22:47:59.019649 12325 net.cpp:409] conv4 -> conv4
I0716 22:47:59.020475 12325 net.cpp:144] Setting up conv4
I0716 22:47:59.020481 12325 net.cpp:151] Top shape: 10 40 13 13 (67600)
I0716 22:47:59.020486 12325 net.cpp:159] Memory required for data: 52096160
I0716 22:47:59.020493 12325 layer_factory.hpp:77] Creating layer relu4
I0716 22:47:59.020496 12325 net.cpp:94] Creating Layer relu4
I0716 22:47:59.020499 12325 net.cpp:435] relu4 <- conv4
I0716 22:47:59.020503 12325 net.cpp:409] relu4 -> relu4
I0716 22:47:59.020525 12325 net.cpp:144] Setting up relu4
I0716 22:47:59.020530 12325 net.cpp:151] Top shape: 10 40 13 13 (67600)
I0716 22:47:59.020534 12325 net.cpp:159] Memory required for data: 52366560
I0716 22:47:59.020537 12325 layer_factory.hpp:77] Creating layer conv5
I0716 22:47:59.020543 12325 net.cpp:94] Creating Layer conv5
I0716 22:47:59.020546 12325 net.cpp:435] conv5 <- relu4
I0716 22:47:59.020550 12325 net.cpp:409] conv5 -> conv5
I0716 22:47:59.020812 12325 net.cpp:144] Setting up conv5
I0716 22:47:59.020817 12325 net.cpp:151] Top shape: 10 26 13 13 (43940)
I0716 22:47:59.020821 12325 net.cpp:159] Memory required for data: 52542320
I0716 22:47:59.020825 12325 layer_factory.hpp:77] Creating layer relu5
I0716 22:47:59.020829 12325 net.cpp:94] Creating Layer relu5
I0716 22:47:59.020831 12325 net.cpp:435] relu5 <- conv5
I0716 22:47:59.020835 12325 net.cpp:409] relu5 -> relu5
I0716 22:47:59.020849 12325 net.cpp:144] Setting up relu5
I0716 22:47:59.020853 12325 net.cpp:151] Top shape: 10 26 13 13 (43940)
I0716 22:47:59.020857 12325 net.cpp:159] Memory required for data: 52718080
I0716 22:47:59.020860 12325 layer_factory.hpp:77] Creating layer pool5
I0716 22:47:59.020865 12325 net.cpp:94] Creating Layer pool5
I0716 22:47:59.020867 12325 net.cpp:435] pool5 <- relu5
I0716 22:47:59.020871 12325 net.cpp:409] pool5 -> pool5
I0716 22:47:59.020895 12325 net.cpp:144] Setting up pool5
I0716 22:47:59.020900 12325 net.cpp:151] Top shape: 10 26 6 6 (9360)
I0716 22:47:59.020903 12325 net.cpp:159] Memory required for data: 52755520
I0716 22:47:59.020906 12325 layer_factory.hpp:77] Creating layer fc6
I0716 22:47:59.020918 12325 net.cpp:94] Creating Layer fc6
I0716 22:47:59.020923 12325 net.cpp:435] fc6 <- pool5
I0716 22:47:59.020927 12325 net.cpp:409] fc6 -> fc6
I0716 22:47:59.053748 12325 net.cpp:144] Setting up fc6
I0716 22:47:59.053769 12325 net.cpp:151] Top shape: 10 4096 (40960)
I0716 22:47:59.053776 12325 net.cpp:159] Memory required for data: 52919360
I0716 22:47:59.053786 12325 layer_factory.hpp:77] Creating layer relu6
I0716 22:47:59.053793 12325 net.cpp:94] Creating Layer relu6
I0716 22:47:59.053798 12325 net.cpp:435] relu6 <- fc6
I0716 22:47:59.053804 12325 net.cpp:409] relu6 -> relu6
I0716 22:47:59.053828 12325 net.cpp:144] Setting up relu6
I0716 22:47:59.053833 12325 net.cpp:151] Top shape: 10 4096 (40960)
I0716 22:47:59.053836 12325 net.cpp:159] Memory required for data: 53083200
I0716 22:47:59.053839 12325 layer_factory.hpp:77] Creating layer fc7
I0716 22:47:59.053846 12325 net.cpp:94] Creating Layer fc7
I0716 22:47:59.053848 12325 net.cpp:435] fc7 <- relu6
I0716 22:47:59.053853 12325 net.cpp:409] fc7 -> fc7
I0716 22:47:59.194234 12325 net.cpp:144] Setting up fc7
I0716 22:47:59.194258 12325 net.cpp:151] Top shape: 10 4096 (40960)
I0716 22:47:59.194263 12325 net.cpp:159] Memory required for data: 53247040
I0716 22:47:59.194274 12325 layer_factory.hpp:77] Creating layer bn7
I0716 22:47:59.194285 12325 net.cpp:94] Creating Layer bn7
I0716 22:47:59.194289 12325 net.cpp:435] bn7 <- fc7
I0716 22:47:59.194295 12325 net.cpp:409] bn7 -> bn7
I0716 22:47:59.194761 12325 net.cpp:144] Setting up bn7
I0716 22:47:59.194766 12325 net.cpp:151] Top shape: 10 4096 (40960)
I0716 22:47:59.194770 12325 net.cpp:159] Memory required for data: 53410880
I0716 22:47:59.194777 12325 layer_factory.hpp:77] Creating layer relu7
I0716 22:47:59.194782 12325 net.cpp:94] Creating Layer relu7
I0716 22:47:59.194785 12325 net.cpp:435] relu7 <- bn7
I0716 22:47:59.194789 12325 net.cpp:409] relu7 -> relu7
I0716 22:47:59.194805 12325 net.cpp:144] Setting up relu7
I0716 22:47:59.194809 12325 net.cpp:151] Top shape: 10 4096 (40960)
I0716 22:47:59.194813 12325 net.cpp:159] Memory required for data: 53574720
I0716 22:47:59.194815 12325 layer_factory.hpp:77] Creating layer fc8
I0716 22:47:59.194823 12325 net.cpp:94] Creating Layer fc8
I0716 22:47:59.194825 12325 net.cpp:435] fc8 <- relu7
I0716 22:47:59.194829 12325 net.cpp:409] fc8 -> fc8
I0716 22:47:59.194977 12325 net.cpp:144] Setting up fc8
I0716 22:47:59.194981 12325 net.cpp:151] Top shape: 10 2 (20)
I0716 22:47:59.194984 12325 net.cpp:159] Memory required for data: 53574800
I0716 22:47:59.194988 12325 layer_factory.hpp:77] Creating layer loss
I0716 22:47:59.195001 12325 net.cpp:94] Creating Layer loss
I0716 22:47:59.195004 12325 net.cpp:435] loss <- fc8
I0716 22:47:59.195008 12325 net.cpp:435] loss <- label
I0716 22:47:59.195013 12325 net.cpp:409] loss -> loss
I0716 22:47:59.195019 12325 layer_factory.hpp:77] Creating layer loss
…
I0716 22:47:59.601347 12325 net.cpp:323] The NetState phase (0) differed from the phase (1) specified by a rule in layer accuracy-top1
I0716 22:47:59.601351 12325 net.cpp:52] Initializing net from parameters: 
state {
  phase: TRAIN
}
layer {
  name: "data"
  type: "ImageData"
  top: "data"
  top: "label"
  include {
    phase: TRAIN
  }
  transform_param {
    crop_size: 227
    mean_value: 106
    mean_value: 116
    mean_value: 124
  }
  image_data_param {
    source: "deploy/alexnetBNnoLRN/pruned/data/calib/calibration.txt"
    batch_size: 10
    shuffle: true
    root_folder: "deploy/alexnetBNnoLRN/pruned/data/calib/"
  }
}
layer {
  name: "data_fixed"
  type: "FixedNeuron"
  bottom: "data"
  top: "data"
  param {
    lr_mult: 0
    decay_mult: 0
  }
  fixed_param {
    fixed_method: OVER_FLOW
    bit_width: 8
    follow_data_layer: true
  }
}
layer {
  name: "conv1"
  type: "ConvolutionFixed"
  bottom: "data"
  top: "bn1"
  param {
    lr_mult: 1
    decay_mult: 1
  }
  param {
    lr_mult: 1
    decay_mult: 0
  }
  convolution_param {
    num_output: 78
    bias_term: true
    pad: 1
    kernel_size: 11
    stride: 4
    weight_filler {
      type: "gaussian"
      std: 0.01
    }
    bias_filler {
      type: "constant"
      value: 0
    }
  }
  fixed_param {
    fixed_method: DIFF_S
    bit_width: 8
  }
}
layer {
  name: "relu1"
  type: "ReLU"
  bottom: "bn1"
  top: "relu1"
}
layer {
  name: "pool1"
  type: "Pooling"
  bottom: "relu1"
  top: "pool1"
  pooling_param {
    pool: MAX
    kernel_size: 3
    stride: 2
  }
}
layer {
  name: "pool1_fixed"
  type: "FixedNeuron"
  bottom: "pool1"
  top: "pool1"
  param {
    lr_mult: 0
    decay_mult: 0
  }
  fixed_param {
    fixed_method: DIFF_S
    bit_width: 8
  }
}
layer {
  name: "conv2"
  type: "ConvolutionFixed"
  bottom: "pool1"
  top: "bn2"
  param {
    lr_mult: 1
    decay_mult: 1
  }
  param {
    lr_mult: 1
    decay_mult: 0
  }
  convolution_param {
    num_output: 154
    bias_term: true
    pad: 2
    kernel_size: 5
    group: 1
    weight_filler {
      type: "gaussian"
      std: 0.01
    }
    bias_filler {
      type: "constant"
      value: 1
    }
  }
  fixed_param {
    fixed_method: DIFF_S
    bit_width: 8
  }
}
layer {
  name: "relu2"
  type: "ReLU"
  bottom: "bn2"
  top: "relu2"
}
layer {
  name: "pool2"
  type: "Pooling"
  bottom: "relu2"
  top: "pool2"
  pooling_param {
    pool: MAX
    kernel_size: 3
    stride: 2
  }
}
layer {
  name: "pool2_fixed"
  type: "FixedNeuron"
  bottom: "pool2"
  top: "pool2"
  param {
    lr_mult: 0
    decay_mult: 0
  }
  fixed_param {
    fixed_method: DIFF_S
    bit_width: 8
  }
}
layer {
  name: "conv3"
  type: "ConvolutionFixed"
  bottom: "pool2"
  top: "conv3"
  param {
    lr_mult: 1
    decay_mult: 1
  }
  param {
    lr_mult: 2
    decay_mult: 0
  }
  convolution_param {
    num_output: 40
    pad: 1
    kernel_size: 3
    weight_filler {
      type: "gaussian"
      std: 0.01
    }
    bias_filler {
      type: "constant"
      value: 0
    }
  }
  fixed_param {
    fixed_method: DIFF_S
    bit_width: 8
  }
}
layer {
  name: "relu3"
  type: "ReLU"
  bottom: "conv3"
  top: "relu3"
}
layer {
  name: "relu3_fixed"
  type: "FixedNeuron"
  bottom: "relu3"
  top: "relu3"
  param {
    lr_mult: 0
    decay_mult: 0
  }
  fixed_param {
    fixed_method: DIFF_S
    bit_width: 8
  }
}
layer {
  name: "conv4"
  type: "ConvolutionFixed"
  bottom: "relu3"
  top: "conv4"
  param {
    lr_mult: 1
    decay_mult: 1
  }
  param {
    lr_mult: 2
    decay_mult: 0
  }
  convolution_param {
    num_output: 40
    pad: 1
    kernel_size: 3
    group: 1
    weight_filler {
      type: "gaussian"
      std: 0.01
    }
    bias_filler {
      type: "constant"
      value: 1
    }
  }
  fixed_param {
    fixed_method: DIFF_S
    bit_width: 8
  }
}
layer {
  name: "relu4"
  type: "ReLU"
  bottom: "conv4"
  top: "relu4"
}
layer {
  name: "relu4_fixed"
  type: "FixedNeuron"
  bottom: "relu4"
  top: "relu4"
  param {
    lr_mult: 0
    decay_mult: 0
  }
  fixed_param {
    fixed_method: DIFF_S
    bit_width: 8
  }
}
layer {
  name: "conv5"
  type: "ConvolutionFixed"
  bottom: "relu4"
  top: "conv5"
  param {
    lr_mult: 1
    decay_mult: 1
  }
  param {
    lr_mult: 2
    decay_mult: 0
  }
  convolution_param {
    num_output: 26
    pad: 1
    kernel_size: 3
    group: 1
    weight_filler {
      type: "gaussian"
      std: 0.01
    }
    bias_filler {
      type: "constant"
      value: 1
    }
  }
  fixed_param {
    fixed_method: DIFF_S
    bit_width: 8
  }
}
layer {
  name: "relu5"
  type: "ReLU"
  bottom: "conv5"
  top: "relu5"
}
layer {
  name: "pool5"
  type: "Pooling"
  bottom: "relu5"
  top: "pool5"
  pooling_param {
    pool: MAX
    kernel_size: 3
    stride: 2
  }
}
layer {
  name: "pool5_fixed"
  type: "FixedNeuron"
  bottom: "pool5"
  top: "pool5"
  param {
    lr_mult: 0
    decay_mult: 0
  }
  fixed_param {
    fixed_method: DIFF_S
    bit_width: 8
  }
}
layer {
  name: "fc6"
  type: "InnerProductFixed"
  bottom: "pool5"
  top: "fc6"
  param {
    lr_mult: 1
    decay_mult: 1
  }
  param {
    lr_mult: 2
    decay_mult: 0
  }
  inner_product_param {
    num_output: 4096
    weight_filler {
      type: "gaussian"
      std: 0.005
    }
    bias_filler {
      type: "constant"
      value: 1
    }
  }
  fixed_param {
    fixed_method: DIFF_S
    bit_width: 8
  }
}
layer {
  name: "relu6"
  type: "ReLU"
  bottom: "fc6"
  top: "relu6"
}
layer {
  name: "relu6_fixed"
  type: "FixedNeuron"
  bottom: "relu6"
  top: "relu6"
  param {
    lr_mult: 0
    decay_mult: 0
  }
  fixed_param {
    fixed_method: DIFF_S
    bit_width: 8
  }
}
layer {
  name: "fc7"
  type: "InnerProductFixed"
  bottom: "relu6"
  top: "bn7"
  param {
    lr_mult: 1
    decay_mult: 1
  }
  param {
    lr_mult: 1
    decay_mult: 0
  }
  inner_product_param {
    num_output: 4096
    bias_term: true
    weight_filler {
      type: "gaussian"
      std: 0.005
    }
    bias_filler {
      type: "constant"
      value: 1
    }
  }
  fixed_param {
    fixed_method: DIFF_S
    bit_width: 8
  }
}
layer {
  name: "relu7"
  type: "ReLU"
  bottom: "bn7"
  top: "relu7"
}
layer {
  name: "relu7_fixed"
  type: "FixedNeuron"
  bottom: "relu7"
  top: "relu7"
  param {
    lr_mult: 0
    decay_mult: 0
  }
  fixed_param {
    fixed_method: DIFF_S
    bit_width: 8
  }
}
layer {
  name: "fc8"
  type: "InnerProductFixed"
  bottom: "relu7"
  top: "fc8"
  param {
    lr_mult: 1
    decay_mult: 1
  }
  param {
    lr_mult: 2
    decay_mult: 0
  }
  inner_product_param {
    num_output: 2
    weight_filler {
      type: "gaussian"
      std: 0.01
    }
    bias_filler {
      type: "constant"
      value: 0
    }
  }
  fixed_param {
    fixed_method: DIFF_S
    bit_width: 8
  }
}
layer {
  name: "fc8_fixed"
  type: "FixedNeuron"
  bottom: "fc8"
  top: "fc8"
  param {
    lr_mult: 0
    decay_mult: 0
  }
  fixed_param {
    fixed_method: DIFF_S
    bit_width: 8
  }
}
layer {
  name: "loss"
  type: "SoftmaxWithLoss"
  bottom: "fc8"
  bottom: "label"
  top: "loss"
}
I0716 22:47:59.601526 12325 layer_factory.hpp:77] Creating layer data
I0716 22:47:59.601541 12325 net.cpp:94] Creating Layer data
I0716 22:47:59.601548 12325 net.cpp:409] data -> data
I0716 22:47:59.601555 12325 net.cpp:409] data -> label
I0716 22:47:59.601565 12325 image_data_layer.cpp:41] Opening file deploy/alexnetBNnoLRN/pruned/data/calib/calibration.txt
I0716 22:47:59.601644 12325 image_data_layer.cpp:51] Shuffling data
I0716 22:47:59.601657 12325 image_data_layer.cpp:56] A total of 200 images.
I0716 22:47:59.603130 12325 image_data_layer.cpp:84] output data size: 10,3,227,227
I0716 22:47:59.625612 12325 internal_thread.cpp:27] Starting internal thread(s) on GPU 0
I0716 22:47:59.625706 12325 net.cpp:144] Setting up data
I0716 22:47:59.625711 12325 net.cpp:151] Top shape: 10 3 227 227 (1545870)
I0716 22:47:59.625720 12325 net.cpp:151] Top shape: 10 (10)
I0716 22:47:59.625723 12325 net.cpp:159] Memory required for data: 6183520
I0716 22:47:59.625727 12325 layer_factory.hpp:77] Creating layer data_fixed
I0716 22:47:59.625746 12325 net.cpp:94] Creating Layer data_fixed
I0716 22:47:59.625752 12325 net.cpp:435] data_fixed <- data
I0716 22:47:59.625758 12325 net.cpp:396] data_fixed -> data (in-place)
I0716 22:47:59.625808 12325 net.cpp:144] Setting up data_fixed
I0716 22:47:59.625813 12325 net.cpp:151] Top shape: 10 3 227 227 (1545870)
I0716 22:47:59.625818 12325 net.cpp:159] Memory required for data: 12367000
I0716 22:47:59.625842 12325 layer_factory.hpp:77] Creating layer conv1
I0716 22:47:59.625852 12325 net.cpp:94] Creating Layer conv1
I0716 22:47:59.625855 12325 net.cpp:435] conv1 <- data
I0716 22:47:59.625859 12325 net.cpp:409] conv1 -> bn1
I0716 22:47:59.626298 12325 layer_factory.hpp:77] Creating layer conv1
I0716 22:47:59.626772 12325 net.cpp:144] Setting up conv1
I0716 22:47:59.626780 12325 net.cpp:151] Top shape: 10 78 55 55 (2359500)
I0716 22:47:59.626785 12325 net.cpp:159] Memory required for data: 21805000
I0716 22:47:59.626791 12325 layer_factory.hpp:77] Creating layer relu1
I0716 22:47:59.626796 12325 net.cpp:94] Creating Layer relu1
I0716 22:47:59.626801 12325 net.cpp:435] relu1 <- bn1
I0716 22:47:59.626803 12325 net.cpp:409] relu1 -> relu1
I0716 22:47:59.626821 12325 net.cpp:144] Setting up relu1
I0716 22:47:59.626825 12325 net.cpp:151] Top shape: 10 78 55 55 (2359500)
I0716 22:47:59.626829 12325 net.cpp:159] Memory required for data: 31243000
I0716 22:47:59.626832 12325 layer_factory.hpp:77] Creating layer pool1
I0716 22:47:59.626838 12325 net.cpp:94] Creating Layer pool1
I0716 22:47:59.626840 12325 net.cpp:435] pool1 <- relu1
I0716 22:47:59.626844 12325 net.cpp:409] pool1 -> pool1
I0716 22:47:59.626868 12325 net.cpp:144] Setting up pool1
I0716 22:47:59.626873 12325 net.cpp:151] Top shape: 10 78 27 27 (568620)
I0716 22:47:59.626878 12325 net.cpp:159] Memory required for data: 33517480
I0716 22:47:59.626880 12325 layer_factory.hpp:77] Creating layer pool1_fixed
I0716 22:47:59.626884 12325 net.cpp:94] Creating Layer pool1_fixed
I0716 22:47:59.626888 12325 net.cpp:435] pool1_fixed <- pool1
I0716 22:47:59.626891 12325 net.cpp:396] pool1_fixed -> pool1 (in-place)
I0716 22:47:59.626914 12325 net.cpp:144] Setting up pool1_fixed
I0716 22:47:59.626917 12325 net.cpp:151] Top shape: 10 78 27 27 (568620)
I0716 22:47:59.626921 12325 net.cpp:159] Memory required for data: 35791960
I0716 22:47:59.626925 12325 layer_factory.hpp:77] Creating layer conv2
I0716 22:47:59.626931 12325 net.cpp:94] Creating Layer conv2
I0716 22:47:59.626935 12325 net.cpp:435] conv2 <- pool1
I0716 22:47:59.626938 12325 net.cpp:409] conv2 -> bn2
I0716 22:47:59.630038 12325 layer_factory.hpp:77] Creating layer conv2
I0716 22:47:59.633859 12325 net.cpp:144] Setting up conv2
I0716 22:47:59.633872 12325 net.cpp:151] Top shape: 10 154 27 27 (1122660)
I0716 22:47:59.633877 12325 net.cpp:159] Memory required for data: 40282600
I0716 22:47:59.633885 12325 layer_factory.hpp:77] Creating layer relu2
I0716 22:47:59.633891 12325 net.cpp:94] Creating Layer relu2
I0716 22:47:59.633894 12325 net.cpp:435] relu2 <- bn2
I0716 22:47:59.633899 12325 net.cpp:409] relu2 -> relu2
I0716 22:47:59.633913 12325 net.cpp:144] Setting up relu2
I0716 22:47:59.633918 12325 net.cpp:151] Top shape: 10 154 27 27 (1122660)
I0716 22:47:59.633920 12325 net.cpp:159] Memory required for data: 44773240
I0716 22:47:59.633924 12325 layer_factory.hpp:77] Creating layer pool2
I0716 22:47:59.633929 12325 net.cpp:94] Creating Layer pool2
I0716 22:47:59.633930 12325 net.cpp:435] pool2 <- relu2
I0716 22:47:59.633934 12325 net.cpp:409] pool2 -> pool2
I0716 22:47:59.633955 12325 net.cpp:144] Setting up pool2
I0716 22:47:59.633958 12325 net.cpp:151] Top shape: 10 154 13 13 (260260)
I0716 22:47:59.633961 12325 net.cpp:159] Memory required for data: 45814280
I0716 22:47:59.633963 12325 layer_factory.hpp:77] Creating layer pool2_fixed
I0716 22:47:59.633968 12325 net.cpp:94] Creating Layer pool2_fixed
I0716 22:47:59.633971 12325 net.cpp:435] pool2_fixed <- pool2
I0716 22:47:59.633975 12325 net.cpp:396] pool2_fixed -> pool2 (in-place)
I0716 22:47:59.633992 12325 net.cpp:144] Setting up pool2_fixed
I0716 22:47:59.633996 12325 net.cpp:151] Top shape: 10 154 13 13 (260260)
I0716 22:47:59.633999 12325 net.cpp:159] Memory required for data: 46855320
I0716 22:47:59.634002 12325 layer_factory.hpp:77] Creating layer conv3
I0716 22:47:59.634009 12325 net.cpp:94] Creating Layer conv3
I0716 22:47:59.634011 12325 net.cpp:435] conv3 <- pool2
I0716 22:47:59.634016 12325 net.cpp:409] conv3 -> conv3
I0716 22:47:59.634622 12325 layer_factory.hpp:77] Creating layer conv3
I0716 22:47:59.635313 12325 net.cpp:144] Setting up conv3
I0716 22:47:59.635318 12325 net.cpp:151] Top shape: 10 40 13 13 (67600)
I0716 22:47:59.635324 12325 net.cpp:159] Memory required for data: 47125720
I0716 22:47:59.635329 12325 layer_factory.hpp:77] Creating layer relu3
I0716 22:47:59.635334 12325 net.cpp:94] Creating Layer relu3
I0716 22:47:59.635336 12325 net.cpp:435] relu3 <- conv3
I0716 22:47:59.635341 12325 net.cpp:409] relu3 -> relu3
I0716 22:47:59.635355 12325 net.cpp:144] Setting up relu3
I0716 22:47:59.635360 12325 net.cpp:151] Top shape: 10 40 13 13 (67600)
I0716 22:47:59.635365 12325 net.cpp:159] Memory required for data: 47396120
I0716 22:47:59.635368 12325 layer_factory.hpp:77] Creating layer relu3_fixed
I0716 22:47:59.635372 12325 net.cpp:94] Creating Layer relu3_fixed
I0716 22:47:59.635375 12325 net.cpp:435] relu3_fixed <- relu3
I0716 22:47:59.635380 12325 net.cpp:396] relu3_fixed -> relu3 (in-place)
I0716 22:47:59.635401 12325 net.cpp:144] Setting up relu3_fixed
I0716 22:47:59.635406 12325 net.cpp:151] Top shape: 10 40 13 13 (67600)
I0716 22:47:59.635409 12325 net.cpp:159] Memory required for data: 47666520
I0716 22:47:59.635413 12325 layer_factory.hpp:77] Creating layer conv4
I0716 22:47:59.635419 12325 net.cpp:94] Creating Layer conv4
I0716 22:47:59.635422 12325 net.cpp:435] conv4 <- relu3
I0716 22:47:59.635426 12325 net.cpp:409] conv4 -> conv4
I0716 22:47:59.635674 12325 layer_factory.hpp:77] Creating layer conv4
I0716 22:47:59.636019 12325 net.cpp:144] Setting up conv4
I0716 22:47:59.636024 12325 net.cpp:151] Top shape: 10 40 13 13 (67600)
I0716 22:47:59.636029 12325 net.cpp:159] Memory required for data: 47936920
I0716 22:47:59.636034 12325 layer_factory.hpp:77] Creating layer relu4
I0716 22:47:59.636037 12325 net.cpp:94] Creating Layer relu4
I0716 22:47:59.636040 12325 net.cpp:435] relu4 <- conv4
I0716 22:47:59.636044 12325 net.cpp:409] relu4 -> relu4
I0716 22:47:59.636059 12325 net.cpp:144] Setting up relu4
I0716 22:47:59.636062 12325 net.cpp:151] Top shape: 10 40 13 13 (67600)
I0716 22:47:59.636066 12325 net.cpp:159] Memory required for data: 48207320
I0716 22:47:59.636070 12325 layer_factory.hpp:77] Creating layer relu4_fixed
I0716 22:47:59.636075 12325 net.cpp:94] Creating Layer relu4_fixed
I0716 22:47:59.636077 12325 net.cpp:435] relu4_fixed <- relu4
I0716 22:47:59.636080 12325 net.cpp:396] relu4_fixed -> relu4 (in-place)
I0716 22:47:59.636101 12325 net.cpp:144] Setting up relu4_fixed
I0716 22:47:59.636106 12325 net.cpp:151] Top shape: 10 40 13 13 (67600)
I0716 22:47:59.636109 12325 net.cpp:159] Memory required for data: 48477720
I0716 22:47:59.636112 12325 layer_factory.hpp:77] Creating layer conv5
I0716 22:47:59.636119 12325 net.cpp:94] Creating Layer conv5
I0716 22:47:59.636121 12325 net.cpp:435] conv5 <- relu4
I0716 22:47:59.636126 12325 net.cpp:409] conv5 -> conv5
I0716 22:47:59.636338 12325 layer_factory.hpp:77] Creating layer conv5
I0716 22:47:59.636660 12325 net.cpp:144] Setting up conv5
I0716 22:47:59.636667 12325 net.cpp:151] Top shape: 10 26 13 13 (43940)
I0716 22:47:59.636670 12325 net.cpp:159] Memory required for data: 48653480
I0716 22:47:59.636677 12325 layer_factory.hpp:77] Creating layer relu5
I0716 22:47:59.636680 12325 net.cpp:94] Creating Layer relu5
I0716 22:47:59.636683 12325 net.cpp:435] relu5 <- conv5
I0716 22:47:59.636687 12325 net.cpp:409] relu5 -> relu5
I0716 22:47:59.636701 12325 net.cpp:144] Setting up relu5
I0716 22:47:59.636705 12325 net.cpp:151] Top shape: 10 26 13 13 (43940)
I0716 22:47:59.636709 12325 net.cpp:159] Memory required for data: 48829240
I0716 22:47:59.636713 12325 layer_factory.hpp:77] Creating layer pool5
I0716 22:47:59.636716 12325 net.cpp:94] Creating Layer pool5
I0716 22:47:59.636719 12325 net.cpp:435] pool5 <- relu5
I0716 22:47:59.636723 12325 net.cpp:409] pool5 -> pool5
I0716 22:47:59.636746 12325 net.cpp:144] Setting up pool5
I0716 22:47:59.636750 12325 net.cpp:151] Top shape: 10 26 6 6 (9360)
I0716 22:47:59.636754 12325 net.cpp:159] Memory required for data: 48866680
I0716 22:47:59.636757 12325 layer_factory.hpp:77] Creating layer pool5_fixed
I0716 22:47:59.636761 12325 net.cpp:94] Creating Layer pool5_fixed
I0716 22:47:59.636765 12325 net.cpp:435] pool5_fixed <- pool5
I0716 22:47:59.636768 12325 net.cpp:396] pool5_fixed -> pool5 (in-place)
I0716 22:47:59.636790 12325 net.cpp:144] Setting up pool5_fixed
I0716 22:47:59.636795 12325 net.cpp:151] Top shape: 10 26 6 6 (9360)
I0716 22:47:59.636798 12325 net.cpp:159] Memory required for data: 48904120
I0716 22:47:59.636801 12325 layer_factory.hpp:77] Creating layer fc6
I0716 22:47:59.636807 12325 net.cpp:94] Creating Layer fc6
I0716 22:47:59.636811 12325 net.cpp:435] fc6 <- pool5
I0716 22:47:59.636816 12325 net.cpp:409] fc6 -> fc6
I0716 22:47:59.671489 12325 layer_factory.hpp:77] Creating layer fc6
I0716 22:47:59.704349 12325 net.cpp:144] Setting up fc6
I0716 22:47:59.704370 12325 net.cpp:151] Top shape: 10 4096 (40960)
I0716 22:47:59.704375 12325 net.cpp:159] Memory required for data: 49067960
I0716 22:47:59.704388 12325 layer_factory.hpp:77] Creating layer relu6
I0716 22:47:59.704396 12325 net.cpp:94] Creating Layer relu6
I0716 22:47:59.704399 12325 net.cpp:435] relu6 <- fc6
I0716 22:47:59.704404 12325 net.cpp:409] relu6 -> relu6
I0716 22:47:59.704422 12325 net.cpp:144] Setting up relu6
I0716 22:47:59.704424 12325 net.cpp:151] Top shape: 10 4096 (40960)
I0716 22:47:59.704427 12325 net.cpp:159] Memory required for data: 49231800
I0716 22:47:59.704430 12325 layer_factory.hpp:77] Creating layer relu6_fixed
I0716 22:47:59.704437 12325 net.cpp:94] Creating Layer relu6_fixed
I0716 22:47:59.704438 12325 net.cpp:435] relu6_fixed <- relu6
I0716 22:47:59.704442 12325 net.cpp:396] relu6_fixed -> relu6 (in-place)
I0716 22:47:59.704459 12325 net.cpp:144] Setting up relu6_fixed
I0716 22:47:59.704464 12325 net.cpp:151] Top shape: 10 4096 (40960)
I0716 22:47:59.704468 12325 net.cpp:159] Memory required for data: 49395640
I0716 22:47:59.704470 12325 layer_factory.hpp:77] Creating layer fc7
I0716 22:47:59.704475 12325 net.cpp:94] Creating Layer fc7
I0716 22:47:59.704478 12325 net.cpp:435] fc7 <- relu6
I0716 22:47:59.704483 12325 net.cpp:409] fc7 -> bn7
I0716 22:47:59.843307 12325 layer_factory.hpp:77] Creating layer fc7
I0716 22:47:59.976387 12325 net.cpp:144] Setting up fc7
I0716 22:47:59.976410 12325 net.cpp:151] Top shape: 10 4096 (40960)
I0716 22:47:59.976416 12325 net.cpp:159] Memory required for data: 49559480
I0716 22:47:59.976442 12325 layer_factory.hpp:77] Creating layer relu7
I0716 22:47:59.976449 12325 net.cpp:94] Creating Layer relu7
I0716 22:47:59.976454 12325 net.cpp:435] relu7 <- bn7
I0716 22:47:59.976459 12325 net.cpp:409] relu7 -> relu7
I0716 22:47:59.976475 12325 net.cpp:144] Setting up relu7
I0716 22:47:59.976478 12325 net.cpp:151] Top shape: 10 4096 (40960)
I0716 22:47:59.976480 12325 net.cpp:159] Memory required for data: 49723320
I0716 22:47:59.976483 12325 layer_factory.hpp:77] Creating layer relu7_fixed
I0716 22:47:59.976490 12325 net.cpp:94] Creating Layer relu7_fixed
I0716 22:47:59.976491 12325 net.cpp:435] relu7_fixed <- relu7
I0716 22:47:59.976495 12325 net.cpp:396] relu7_fixed -> relu7 (in-place)
I0716 22:47:59.976521 12325 net.cpp:144] Setting up relu7_fixed
I0716 22:47:59.976524 12325 net.cpp:151] Top shape: 10 4096 (40960)
I0716 22:47:59.976527 12325 net.cpp:159] Memory required for data: 49887160
I0716 22:47:59.976531 12325 layer_factory.hpp:77] Creating layer fc8
I0716 22:47:59.976536 12325 net.cpp:94] Creating Layer fc8
I0716 22:47:59.976538 12325 net.cpp:435] fc8 <- relu7
I0716 22:47:59.976542 12325 net.cpp:409] fc8 -> fc8
I0716 22:47:59.976682 12325 layer_factory.hpp:77] Creating layer fc8
I0716 22:47:59.976851 12325 net.cpp:144] Setting up fc8
I0716 22:47:59.976856 12325 net.cpp:151] Top shape: 10 2 (20)
I0716 22:47:59.976860 12325 net.cpp:159] Memory required for data: 49887240
I0716 22:47:59.976863 12325 layer_factory.hpp:77] Creating layer fc8_fixed
I0716 22:47:59.976867 12325 net.cpp:94] Creating Layer fc8_fixed
I0716 22:47:59.976871 12325 net.cpp:435] fc8_fixed <- fc8
I0716 22:47:59.976874 12325 net.cpp:396] fc8_fixed -> fc8 (in-place)
I0716 22:47:59.976895 12325 net.cpp:144] Setting up fc8_fixed
I0716 22:47:59.976900 12325 net.cpp:151] Top shape: 10 2 (20)
I0716 22:47:59.976903 12325 net.cpp:159] Memory required for data: 49887320
I0716 22:47:59.976907 12325 layer_factory.hpp:77] Creating layer loss
I0716 22:47:59.976912 12325 net.cpp:94] Creating Layer loss
I0716 22:47:59.976914 12325 net.cpp:435] loss <- fc8
I0716 22:47:59.976917 12325 net.cpp:435] loss <- label
I0716 22:47:59.976922 12325 net.cpp:409] loss -> loss
I0716 22:47:59.976928 12325 layer_factory.hpp:77] Creating layer loss
…
I0716 22:48:02.025094 12325 net.cpp:284] Network initialization done.
I0716 22:48:02.072530 12325 net.cpp:323] The NetState phase (1) differed from the phase (0) specified by a rule in layer data
I0716 22:48:02.072557 12325 net.cpp:52] Initializing net from parameters: 
layer {
  name: "data"
  type: "Data"
  top: "data"
  top: "label"
  include {
    phase: TEST
  }
  transform_param {
    mirror: false
    crop_size: 227
    mean_value: 106
    mean_value: 116
    mean_value: 124
  }
  data_param {
    source: "input/lmdb/valid_lmdb"
    batch_size: 50
    backend: LMDB
  }
}
layer {
  name: "data_fixed"
  type: "FixedNeuron"
  bottom: "data"
  top: "data"
  param {
    lr_mult: 0
    decay_mult: 0
  }
  fixed_param {
    fixed_method: OVER_FLOW
    bit_width: 8
    follow_data_layer: true
  }
}
layer {
  name: "conv1"
  type: "ConvolutionFixed"
  bottom: "data"
  top: "bn1"
  param {
    lr_mult: 1
    decay_mult: 1
  }
  param {
    lr_mult: 1
    decay_mult: 0
  }
  convolution_param {
    num_output: 78
    bias_term: true
    pad: 1
    kernel_size: 11
    stride: 4
    weight_filler {
      type: "gaussian"
      std: 0.01
    }
    bias_filler {
      type: "constant"
      value: 0
    }
  }
  fixed_param {
    fixed_method: DIFF_S
    bit_width: 8
  }
}
layer {
  name: "relu1"
  type: "ReLU"
  bottom: "bn1"
  top: "relu1"
}
layer {
  name: "pool1"
  type: "Pooling"
  bottom: "relu1"
  top: "pool1"
  pooling_param {
    pool: MAX
    kernel_size: 3
    stride: 2
  }
}
layer {
  name: "pool1_fixed"
  type: "FixedNeuron"
  bottom: "pool1"
  top: "pool1"
  param {
    lr_mult: 0
    decay_mult: 0
  }
  fixed_param {
    fixed_method: DIFF_S
    bit_width: 8
  }
}
layer {
  name: "conv2"
  type: "ConvolutionFixed"
  bottom: "pool1"
  top: "bn2"
  param {
    lr_mult: 1
    decay_mult: 1
  }
  param {
    lr_mult: 1
    decay_mult: 0
  }
  convolution_param {
    num_output: 154
    bias_term: true
    pad: 2
    kernel_size: 5
    group: 1
    weight_filler {
      type: "gaussian"
      std: 0.01
    }
    bias_filler {
      type: "constant"
      value: 1
    }
  }
  fixed_param {
    fixed_method: DIFF_S
    bit_width: 8
  }
}
layer {
  name: "relu2"
  type: "ReLU"
  bottom: "bn2"
  top: "relu2"
}
layer {
  name: "pool2"
  type: "Pooling"
  bottom: "relu2"
  top: "pool2"
  pooling_param {
    pool: MAX
    kernel_size: 3
    stride: 2
  }
}
layer {
  name: "pool2_fixed"
  type: "FixedNeuron"
  bottom: "pool2"
  top: "pool2"
  param {
    lr_mult: 0
    decay_mult: 0
  }
  fixed_param {
    fixed_method: DIFF_S
    bit_width: 8
  }
}
layer {
  name: "conv3"
  type: "ConvolutionFixed"
  bottom: "pool2"
  top: "conv3"
  param {
    lr_mult: 1
    decay_mult: 1
  }
  param {
    lr_mult: 2
    decay_mult: 0
  }
  convolution_param {
    num_output: 40
    pad: 1
    kernel_size: 3
    weight_filler {
      type: "gaussian"
      std: 0.01
    }
    bias_filler {
      type: "constant"
      value: 0
    }
  }
  fixed_param {
    fixed_method: DIFF_S
    bit_width: 8
  }
}
layer {
  name: "relu3"
  type: "ReLU"
  bottom: "conv3"
  top: "relu3"
}
layer {
  name: "relu3_fixed"
  type: "FixedNeuron"
  bottom: "relu3"
  top: "relu3"
  param {
    lr_mult: 0
    decay_mult: 0
  }
  fixed_param {
    fixed_method: DIFF_S
    bit_width: 8
  }
}
layer {
  name: "conv4"
  type: "ConvolutionFixed"
  bottom: "relu3"
  top: "conv4"
  param {
    lr_mult: 1
    decay_mult: 1
  }
  param {
    lr_mult: 2
    decay_mult: 0
  }
  convolution_param {
    num_output: 40
    pad: 1
    kernel_size: 3
    group: 1
    weight_filler {
      type: "gaussian"
      std: 0.01
    }
    bias_filler {
      type: "constant"
      value: 1
    }
  }
  fixed_param {
    fixed_method: DIFF_S
    bit_width: 8
  }
}
layer {
  name: "relu4"
  type: "ReLU"
  bottom: "conv4"
  top: "relu4"
}
layer {
  name: "relu4_fixed"
  type: "FixedNeuron"
  bottom: "relu4"
  top: "relu4"
  param {
    lr_mult: 0
    decay_mult: 0
  }
  fixed_param {
    fixed_method: DIFF_S
    bit_width: 8
  }
}
layer {
  name: "conv5"
  type: "ConvolutionFixed"
  bottom: "relu4"
  top: "conv5"
  param {
    lr_mult: 1
    decay_mult: 1
  }
  param {
    lr_mult: 2
    decay_mult: 0
  }
  convolution_param {
    num_output: 26
    pad: 1
    kernel_size: 3
    group: 1
    weight_filler {
      type: "gaussian"
      std: 0.01
    }
    bias_filler {
      type: "constant"
      value: 1
    }
  }
  fixed_param {
    fixed_method: DIFF_S
    bit_width: 8
  }
}
layer {
  name: "relu5"
  type: "ReLU"
  bottom: "conv5"
  top: "relu5"
}
layer {
  name: "pool5"
  type: "Pooling"
  bottom: "relu5"
  top: "pool5"
  pooling_param {
    pool: MAX
    kernel_size: 3
    stride: 2
  }
}
layer {
  name: "pool5_fixed"
  type: "FixedNeuron"
  bottom: "pool5"
  top: "pool5"
  param {
    lr_mult: 0
    decay_mult: 0
  }
  fixed_param {
    fixed_method: DIFF_S
    bit_width: 8
  }
}
layer {
  name: "fc6"
  type: "InnerProductFixed"
  bottom: "pool5"
  top: "fc6"
  param {
    lr_mult: 1
    decay_mult: 1
  }
  param {
    lr_mult: 2
    decay_mult: 0
  }
  inner_product_param {
    num_output: 4096
    weight_filler {
      type: "gaussian"
      std: 0.005
    }
    bias_filler {
      type: "constant"
      value: 1
    }
  }
  fixed_param {
    fixed_method: DIFF_S
    bit_width: 8
  }
}
layer {
  name: "relu6"
  type: "ReLU"
  bottom: "fc6"
  top: "relu6"
}
layer {
  name: "relu6_fixed"
  type: "FixedNeuron"
  bottom: "relu6"
  top: "relu6"
  param {
    lr_mult: 0
    decay_mult: 0
  }
  fixed_param {
    fixed_method: DIFF_S
    bit_width: 8
  }
}
layer {
  name: "fc7"
  type: "InnerProductFixed"
  bottom: "relu6"
  top: "bn7"
  param {
    lr_mult: 1
    decay_mult: 1
  }
  param {
    lr_mult: 1
    decay_mult: 0
  }
  inner_product_param {
    num_output: 4096
    bias_term: true
    weight_filler {
      type: "gaussian"
      std: 0.005
    }
    bias_filler {
      type: "constant"
      value: 1
    }
  }
  fixed_param {
    fixed_method: DIFF_S
    bit_width: 8
  }
}
layer {
  name: "relu7"
  type: "ReLU"
  bottom: "bn7"
  top: "relu7"
}
layer {
  name: "relu7_fixed"
  type: "FixedNeuron"
  bottom: "relu7"
  top: "relu7"
  param {
    lr_mult: 0
    decay_mult: 0
  }
  fixed_param {
    fixed_method: DIFF_S
    bit_width: 8
  }
}
layer {
  name: "fc8"
  type: "InnerProductFixed"
  bottom: "relu7"
  top: "fc8"
  param {
    lr_mult: 1
    decay_mult: 1
  }
  param {
    lr_mult: 2
    decay_mult: 0
  }
  inner_product_param {
    num_output: 2
    weight_filler {
      type: "gaussian"
      std: 0.01
    }
    bias_filler {
      type: "constant"
      value: 0
    }
  }
  fixed_param {
    fixed_method: DIFF_S
    bit_width: 8
  }
}
layer {
  name: "fc8_fixed"
  type: "FixedNeuron"
  bottom: "fc8"
  top: "fc8"
  param {
    lr_mult: 0
    decay_mult: 0
  }
  fixed_param {
    fixed_method: DIFF_S
    bit_width: 8
  }
}
layer {
  name: "accuracy"
  type: "Accuracy"
  bottom: "fc8"
  bottom: "label"
  top: "accuracy"
  include {
    phase: TEST
  }
}
layer {
  name: "loss"
  type: "SoftmaxWithLoss"
  bottom: "fc8"
  bottom: "label"
  top: "loss"
}
layer {
  name: "accuracy-top1"
  type: "Accuracy"
  bottom: "fc8"
  bottom: "label"
  top: "top-1"
  include {
    phase: TEST
  }
}
I0716 22:48:02.073014 12325 layer_factory.hpp:77] Creating layer data
I0716 22:48:02.073050 12325 internal_thread.cpp:27] Starting internal thread(s) on GPU 0
I0716 22:48:02.074234 12325 net.cpp:94] Creating Layer data
I0716 22:48:02.074244 12325 net.cpp:409] data -> data
I0716 22:48:02.074254 12325 net.cpp:409] data -> label
I0716 22:48:02.075352 12359 db_lmdb.cpp:35] Opened lmdb input/lmdb/valid_lmdb
I0716 22:48:02.075374 12359 db_lmdb.cpp:38] Items count: 4000
I0716 22:48:02.075393 12359 data_reader.cpp:124] TEST: reading data using 1 channel(s)
I0716 22:48:02.075580 12325 data_layer.cpp:78] ReshapePrefetch 50, 3, 227, 227
I0716 22:48:02.075680 12325 data_layer.cpp:83] output data size: 50,3,227,227
I0716 22:48:02.173599 12325 internal_thread.cpp:27] Starting internal thread(s) on GPU 0
I0716 22:48:02.173678 12325 net.cpp:144] Setting up data
I0716 22:48:02.173682 12325 net.cpp:151] Top shape: 50 3 227 227 (7729350)
I0716 22:48:02.173707 12325 net.cpp:151] Top shape: 50 (50)
I0716 22:48:02.173710 12325 net.cpp:159] Memory required for data: 30917600
I0716 22:48:02.173714 12325 layer_factory.hpp:77] Creating layer label_data_1_split
I0716 22:48:02.173725 12325 net.cpp:94] Creating Layer label_data_1_split
I0716 22:48:02.173732 12325 net.cpp:435] label_data_1_split <- label
I0716 22:48:02.173738 12325 net.cpp:409] label_data_1_split -> label_data_1_split_0
I0716 22:48:02.173744 12325 net.cpp:409] label_data_1_split -> label_data_1_split_1
I0716 22:48:02.173751 12325 net.cpp:409] label_data_1_split -> label_data_1_split_2
I0716 22:48:02.173799 12325 net.cpp:144] Setting up label_data_1_split
I0716 22:48:02.173804 12325 net.cpp:151] Top shape: 50 (50)
I0716 22:48:02.173806 12325 net.cpp:151] Top shape: 50 (50)
I0716 22:48:02.173810 12325 net.cpp:151] Top shape: 50 (50)
I0716 22:48:02.173812 12325 net.cpp:159] Memory required for data: 30918200
I0716 22:48:02.173815 12325 layer_factory.hpp:77] Creating layer data_fixed
I0716 22:48:02.173821 12325 net.cpp:94] Creating Layer data_fixed
I0716 22:48:02.173823 12325 net.cpp:435] data_fixed <- data
I0716 22:48:02.173826 12325 net.cpp:396] data_fixed -> data (in-place)
I0716 22:48:02.173930 12325 net.cpp:144] Setting up data_fixed
I0716 22:48:02.173935 12325 net.cpp:151] Top shape: 50 3 227 227 (7729350)
I0716 22:48:02.173939 12325 net.cpp:159] Memory required for data: 61835600
I0716 22:48:02.173946 12325 layer_factory.hpp:77] Creating layer conv1
I0716 22:48:02.173957 12325 net.cpp:94] Creating Layer conv1
I0716 22:48:02.173961 12325 net.cpp:435] conv1 <- data
I0716 22:48:02.173966 12325 net.cpp:409] conv1 -> bn1
I0716 22:48:02.174404 12325 layer_factory.hpp:77] Creating layer conv1
I0716 22:48:02.174880 12325 net.cpp:144] Setting up conv1
I0716 22:48:02.174886 12325 net.cpp:151] Top shape: 50 78 55 55 (11797500)
I0716 22:48:02.174891 12325 net.cpp:159] Memory required for data: 109025600
I0716 22:48:02.174898 12325 layer_factory.hpp:77] Creating layer relu1
I0716 22:48:02.174904 12325 net.cpp:94] Creating Layer relu1
I0716 22:48:02.174907 12325 net.cpp:435] relu1 <- bn1
I0716 22:48:02.174911 12325 net.cpp:409] relu1 -> relu1
I0716 22:48:02.174927 12325 net.cpp:144] Setting up relu1
I0716 22:48:02.174932 12325 net.cpp:151] Top shape: 50 78 55 55 (11797500)
I0716 22:48:02.174937 12325 net.cpp:159] Memory required for data: 156215600
I0716 22:48:02.174939 12325 layer_factory.hpp:77] Creating layer pool1
I0716 22:48:02.174944 12325 net.cpp:94] Creating Layer pool1
I0716 22:48:02.174947 12325 net.cpp:435] pool1 <- relu1
I0716 22:48:02.174952 12325 net.cpp:409] pool1 -> pool1
I0716 22:48:02.174974 12325 net.cpp:144] Setting up pool1
I0716 22:48:02.174979 12325 net.cpp:151] Top shape: 50 78 27 27 (2843100)
I0716 22:48:02.174983 12325 net.cpp:159] Memory required for data: 167588000
I0716 22:48:02.174986 12325 layer_factory.hpp:77] Creating layer pool1_fixed
I0716 22:48:02.174991 12325 net.cpp:94] Creating Layer pool1_fixed
I0716 22:48:02.174994 12325 net.cpp:435] pool1_fixed <- pool1
I0716 22:48:02.174998 12325 net.cpp:396] pool1_fixed -> pool1 (in-place)
I0716 22:48:02.175019 12325 net.cpp:144] Setting up pool1_fixed
I0716 22:48:02.175024 12325 net.cpp:151] Top shape: 50 78 27 27 (2843100)
I0716 22:48:02.175029 12325 net.cpp:159] Memory required for data: 178960400
I0716 22:48:02.175032 12325 layer_factory.hpp:77] Creating layer conv2
I0716 22:48:02.175038 12325 net.cpp:94] Creating Layer conv2
I0716 22:48:02.175041 12325 net.cpp:435] conv2 <- pool1
I0716 22:48:02.175045 12325 net.cpp:409] conv2 -> bn2
I0716 22:48:02.180109 12325 layer_factory.hpp:77] Creating layer conv2
I0716 22:48:02.184078 12325 net.cpp:144] Setting up conv2
I0716 22:48:02.184094 12325 net.cpp:151] Top shape: 50 154 27 27 (5613300)
I0716 22:48:02.184103 12325 net.cpp:159] Memory required for data: 201413600
I0716 22:48:02.184114 12325 layer_factory.hpp:77] Creating layer relu2
I0716 22:48:02.184123 12325 net.cpp:94] Creating Layer relu2
I0716 22:48:02.184126 12325 net.cpp:435] relu2 <- bn2
I0716 22:48:02.184132 12325 net.cpp:409] relu2 -> relu2
I0716 22:48:02.184149 12325 net.cpp:144] Setting up relu2
I0716 22:48:02.184154 12325 net.cpp:151] Top shape: 50 154 27 27 (5613300)
I0716 22:48:02.184159 12325 net.cpp:159] Memory required for data: 223866800
I0716 22:48:02.184161 12325 layer_factory.hpp:77] Creating layer pool2
I0716 22:48:02.184167 12325 net.cpp:94] Creating Layer pool2
I0716 22:48:02.184170 12325 net.cpp:435] pool2 <- relu2
I0716 22:48:02.184175 12325 net.cpp:409] pool2 -> pool2
I0716 22:48:02.184196 12325 net.cpp:144] Setting up pool2
I0716 22:48:02.184201 12325 net.cpp:151] Top shape: 50 154 13 13 (1301300)
I0716 22:48:02.184206 12325 net.cpp:159] Memory required for data: 229072000
I0716 22:48:02.184209 12325 layer_factory.hpp:77] Creating layer pool2_fixed
I0716 22:48:02.184216 12325 net.cpp:94] Creating Layer pool2_fixed
I0716 22:48:02.184218 12325 net.cpp:435] pool2_fixed <- pool2
I0716 22:48:02.184222 12325 net.cpp:396] pool2_fixed -> pool2 (in-place)
I0716 22:48:02.184244 12325 net.cpp:144] Setting up pool2_fixed
I0716 22:48:02.184248 12325 net.cpp:151] Top shape: 50 154 13 13 (1301300)
I0716 22:48:02.184252 12325 net.cpp:159] Memory required for data: 234277200
I0716 22:48:02.184257 12325 layer_factory.hpp:77] Creating layer conv3
I0716 22:48:02.184264 12325 net.cpp:94] Creating Layer conv3
I0716 22:48:02.184267 12325 net.cpp:435] conv3 <- pool2
I0716 22:48:02.184270 12325 net.cpp:409] conv3 -> conv3
I0716 22:48:02.184923 12325 layer_factory.hpp:77] Creating layer conv3
I0716 22:48:02.185624 12325 net.cpp:144] Setting up conv3
I0716 22:48:02.185631 12325 net.cpp:151] Top shape: 50 40 13 13 (338000)
I0716 22:48:02.185637 12325 net.cpp:159] Memory required for data: 235629200
I0716 22:48:02.185644 12325 layer_factory.hpp:77] Creating layer relu3
I0716 22:48:02.185649 12325 net.cpp:94] Creating Layer relu3
I0716 22:48:02.185653 12325 net.cpp:435] relu3 <- conv3
I0716 22:48:02.185657 12325 net.cpp:409] relu3 -> relu3
I0716 22:48:02.185672 12325 net.cpp:144] Setting up relu3
I0716 22:48:02.185678 12325 net.cpp:151] Top shape: 50 40 13 13 (338000)
I0716 22:48:02.185683 12325 net.cpp:159] Memory required for data: 236981200
I0716 22:48:02.185685 12325 layer_factory.hpp:77] Creating layer relu3_fixed
I0716 22:48:02.185689 12325 net.cpp:94] Creating Layer relu3_fixed
I0716 22:48:02.185693 12325 net.cpp:435] relu3_fixed <- relu3
I0716 22:48:02.185696 12325 net.cpp:396] relu3_fixed -> relu3 (in-place)
I0716 22:48:02.185716 12325 net.cpp:144] Setting up relu3_fixed
I0716 22:48:02.185720 12325 net.cpp:151] Top shape: 50 40 13 13 (338000)
I0716 22:48:02.185724 12325 net.cpp:159] Memory required for data: 238333200
I0716 22:48:02.185729 12325 layer_factory.hpp:77] Creating layer conv4
I0716 22:48:02.185734 12325 net.cpp:94] Creating Layer conv4
I0716 22:48:02.185736 12325 net.cpp:435] conv4 <- relu3
I0716 22:48:02.185741 12325 net.cpp:409] conv4 -> conv4
I0716 22:48:02.185994 12325 layer_factory.hpp:77] Creating layer conv4
I0716 22:48:02.186347 12325 net.cpp:144] Setting up conv4
I0716 22:48:02.186352 12325 net.cpp:151] Top shape: 50 40 13 13 (338000)
I0716 22:48:02.186357 12325 net.cpp:159] Memory required for data: 239685200
I0716 22:48:02.186360 12325 layer_factory.hpp:77] Creating layer relu4
I0716 22:48:02.186365 12325 net.cpp:94] Creating Layer relu4
I0716 22:48:02.186368 12325 net.cpp:435] relu4 <- conv4
I0716 22:48:02.186372 12325 net.cpp:409] relu4 -> relu4
I0716 22:48:02.186386 12325 net.cpp:144] Setting up relu4
I0716 22:48:02.186390 12325 net.cpp:151] Top shape: 50 40 13 13 (338000)
I0716 22:48:02.186394 12325 net.cpp:159] Memory required for data: 241037200
I0716 22:48:02.186398 12325 layer_factory.hpp:77] Creating layer relu4_fixed
I0716 22:48:02.186403 12325 net.cpp:94] Creating Layer relu4_fixed
I0716 22:48:02.186406 12325 net.cpp:435] relu4_fixed <- relu4
I0716 22:48:02.186410 12325 net.cpp:396] relu4_fixed -> relu4 (in-place)
I0716 22:48:02.186431 12325 net.cpp:144] Setting up relu4_fixed
I0716 22:48:02.186436 12325 net.cpp:151] Top shape: 50 40 13 13 (338000)
I0716 22:48:02.186440 12325 net.cpp:159] Memory required for data: 242389200
I0716 22:48:02.186444 12325 layer_factory.hpp:77] Creating layer conv5
I0716 22:48:02.186450 12325 net.cpp:94] Creating Layer conv5
I0716 22:48:02.186452 12325 net.cpp:435] conv5 <- relu4
I0716 22:48:02.186456 12325 net.cpp:409] conv5 -> conv5
I0716 22:48:02.186673 12325 layer_factory.hpp:77] Creating layer conv5
I0716 22:48:02.187016 12325 net.cpp:144] Setting up conv5
I0716 22:48:02.187022 12325 net.cpp:151] Top shape: 50 26 13 13 (219700)
I0716 22:48:02.187026 12325 net.cpp:159] Memory required for data: 243268000
I0716 22:48:02.187031 12325 layer_factory.hpp:77] Creating layer relu5
I0716 22:48:02.187036 12325 net.cpp:94] Creating Layer relu5
I0716 22:48:02.187038 12325 net.cpp:435] relu5 <- conv5
I0716 22:48:02.187043 12325 net.cpp:409] relu5 -> relu5
I0716 22:48:02.187059 12325 net.cpp:144] Setting up relu5
I0716 22:48:02.187063 12325 net.cpp:151] Top shape: 50 26 13 13 (219700)
I0716 22:48:02.187068 12325 net.cpp:159] Memory required for data: 244146800
I0716 22:48:02.187072 12325 layer_factory.hpp:77] Creating layer pool5
I0716 22:48:02.187077 12325 net.cpp:94] Creating Layer pool5
I0716 22:48:02.187078 12325 net.cpp:435] pool5 <- relu5
I0716 22:48:02.187083 12325 net.cpp:409] pool5 -> pool5
I0716 22:48:02.189491 12325 net.cpp:144] Setting up pool5
I0716 22:48:02.189497 12325 net.cpp:151] Top shape: 50 26 6 6 (46800)
I0716 22:48:02.189503 12325 net.cpp:159] Memory required for data: 244334000
I0716 22:48:02.189507 12325 layer_factory.hpp:77] Creating layer pool5_fixed
I0716 22:48:02.189512 12325 net.cpp:94] Creating Layer pool5_fixed
I0716 22:48:02.189515 12325 net.cpp:435] pool5_fixed <- pool5
I0716 22:48:02.189519 12325 net.cpp:396] pool5_fixed -> pool5 (in-place)
I0716 22:48:02.189543 12325 net.cpp:144] Setting up pool5_fixed
I0716 22:48:02.189546 12325 net.cpp:151] Top shape: 50 26 6 6 (46800)
I0716 22:48:02.189550 12325 net.cpp:159] Memory required for data: 244521200
I0716 22:48:02.189555 12325 layer_factory.hpp:77] Creating layer fc6
I0716 22:48:02.189561 12325 net.cpp:94] Creating Layer fc6
I0716 22:48:02.189563 12325 net.cpp:435] fc6 <- pool5
I0716 22:48:02.189568 12325 net.cpp:409] fc6 -> fc6
I0716 22:48:02.226205 12325 layer_factory.hpp:77] Creating layer fc6
I0716 22:48:02.260851 12325 net.cpp:144] Setting up fc6
I0716 22:48:02.260872 12325 net.cpp:151] Top shape: 50 4096 (204800)
I0716 22:48:02.260879 12325 net.cpp:159] Memory required for data: 245340400
I0716 22:48:02.260891 12325 layer_factory.hpp:77] Creating layer relu6
I0716 22:48:02.260898 12325 net.cpp:94] Creating Layer relu6
I0716 22:48:02.260901 12325 net.cpp:435] relu6 <- fc6
I0716 22:48:02.260907 12325 net.cpp:409] relu6 -> relu6
I0716 22:48:02.260924 12325 net.cpp:144] Setting up relu6
I0716 22:48:02.260926 12325 net.cpp:151] Top shape: 50 4096 (204800)
I0716 22:48:02.260929 12325 net.cpp:159] Memory required for data: 246159600
I0716 22:48:02.260932 12325 layer_factory.hpp:77] Creating layer relu6_fixed
I0716 22:48:02.260937 12325 net.cpp:94] Creating Layer relu6_fixed
I0716 22:48:02.260941 12325 net.cpp:435] relu6_fixed <- relu6
I0716 22:48:02.260943 12325 net.cpp:396] relu6_fixed -> relu6 (in-place)
I0716 22:48:02.260979 12325 net.cpp:144] Setting up relu6_fixed
I0716 22:48:02.260984 12325 net.cpp:151] Top shape: 50 4096 (204800)
I0716 22:48:02.260987 12325 net.cpp:159] Memory required for data: 246978800
I0716 22:48:02.260990 12325 layer_factory.hpp:77] Creating layer fc7
I0716 22:48:02.260996 12325 net.cpp:94] Creating Layer fc7
I0716 22:48:02.260998 12325 net.cpp:435] fc7 <- relu6
I0716 22:48:02.261003 12325 net.cpp:409] fc7 -> bn7
I0716 22:48:02.393496 12325 layer_factory.hpp:77] Creating layer fc7
I0716 22:48:02.526242 12325 net.cpp:144] Setting up fc7
I0716 22:48:02.526268 12325 net.cpp:151] Top shape: 50 4096 (204800)
I0716 22:48:02.526275 12325 net.cpp:159] Memory required for data: 247798000
I0716 22:48:02.526301 12325 layer_factory.hpp:77] Creating layer relu7
I0716 22:48:02.526307 12325 net.cpp:94] Creating Layer relu7
I0716 22:48:02.526311 12325 net.cpp:435] relu7 <- bn7
I0716 22:48:02.526317 12325 net.cpp:409] relu7 -> relu7
I0716 22:48:02.526335 12325 net.cpp:144] Setting up relu7
I0716 22:48:02.526336 12325 net.cpp:151] Top shape: 50 4096 (204800)
I0716 22:48:02.526340 12325 net.cpp:159] Memory required for data: 248617200
I0716 22:48:02.526341 12325 layer_factory.hpp:77] Creating layer relu7_fixed
I0716 22:48:02.526348 12325 net.cpp:94] Creating Layer relu7_fixed
I0716 22:48:02.526350 12325 net.cpp:435] relu7_fixed <- relu7
I0716 22:48:02.526355 12325 net.cpp:396] relu7_fixed -> relu7 (in-place)
I0716 22:48:02.526372 12325 net.cpp:144] Setting up relu7_fixed
I0716 22:48:02.526376 12325 net.cpp:151] Top shape: 50 4096 (204800)
I0716 22:48:02.526379 12325 net.cpp:159] Memory required for data: 249436400
I0716 22:48:02.526382 12325 layer_factory.hpp:77] Creating layer fc8
I0716 22:48:02.526388 12325 net.cpp:94] Creating Layer fc8
I0716 22:48:02.526391 12325 net.cpp:435] fc8 <- relu7
I0716 22:48:02.526394 12325 net.cpp:409] fc8 -> fc8
I0716 22:48:02.526515 12325 layer_factory.hpp:77] Creating layer fc8
I0716 22:48:02.526675 12325 net.cpp:144] Setting up fc8
I0716 22:48:02.526679 12325 net.cpp:151] Top shape: 50 2 (100)
I0716 22:48:02.526684 12325 net.cpp:159] Memory required for data: 249436800
I0716 22:48:02.526687 12325 layer_factory.hpp:77] Creating layer fc8_fixed
I0716 22:48:02.526691 12325 net.cpp:94] Creating Layer fc8_fixed
I0716 22:48:02.526695 12325 net.cpp:435] fc8_fixed <- fc8
I0716 22:48:02.526698 12325 net.cpp:396] fc8_fixed -> fc8 (in-place)
I0716 22:48:02.526717 12325 net.cpp:144] Setting up fc8_fixed
I0716 22:48:02.526721 12325 net.cpp:151] Top shape: 50 2 (100)
I0716 22:48:02.526724 12325 net.cpp:159] Memory required for data: 249437200
I0716 22:48:02.526728 12325 layer_factory.hpp:77] Creating layer fc8_fc8_fixed_0_split
I0716 22:48:02.526733 12325 net.cpp:94] Creating Layer fc8_fc8_fixed_0_split
I0716 22:48:02.526736 12325 net.cpp:435] fc8_fc8_fixed_0_split <- fc8
I0716 22:48:02.526741 12325 net.cpp:409] fc8_fc8_fixed_0_split -> fc8_fc8_fixed_0_split_0
I0716 22:48:02.526744 12325 net.cpp:409] fc8_fc8_fixed_0_split -> fc8_fc8_fixed_0_split_1
I0716 22:48:02.526749 12325 net.cpp:409] fc8_fc8_fixed_0_split -> fc8_fc8_fixed_0_split_2
I0716 22:48:02.526791 12325 net.cpp:144] Setting up fc8_fc8_fixed_0_split
I0716 22:48:02.526796 12325 net.cpp:151] Top shape: 50 2 (100)
I0716 22:48:02.526799 12325 net.cpp:151] Top shape: 50 2 (100)
I0716 22:48:02.526803 12325 net.cpp:151] Top shape: 50 2 (100)
I0716 22:48:02.526805 12325 net.cpp:159] Memory required for data: 249438400
I0716 22:48:02.526808 12325 layer_factory.hpp:77] Creating layer accuracy
I0716 22:48:02.526815 12325 net.cpp:94] Creating Layer accuracy
I0716 22:48:02.526818 12325 net.cpp:435] accuracy <- fc8_fc8_fixed_0_split_0
I0716 22:48:02.526823 12325 net.cpp:435] accuracy <- label_data_1_split_0
I0716 22:48:02.526826 12325 net.cpp:409] accuracy -> accuracy
…
