…
I0108 16:55:23.152292    90 net.cpp:323] The NetState phase (0) differed from the phase (1) specified by a rule in layer accuracy-top1
I0108 16:55:23.152295    90 net.cpp:52] Initializing net from parameters:
name: "alexnetBNnoLRN m2 (as m3 but less DROP and less BN)"
state {
  phase: TRAIN
}
layer {
  name: "data"
  type: "Data"
  top: "data"
  top: "label"
  include {
    phase: TRAIN
  }
  transform_param {
    mirror: true
    crop_size: 227
    mean_value: 106
    mean_value: 116
    mean_value: 124
  }
  data_param {
    source: "input/lmdb/train_lmdb"
    batch_size: 256
    backend: LMDB
  }
}
layer {
  name: "conv1"
  type: "Convolution"
  bottom: "data"
  top: "conv1"
  param {
    lr_mult: 1
    decay_mult: 1
  }
  param {
    lr_mult: 2
    decay_mult: 0
  }
  convolution_param {
    num_output: 96
    pad: 1
    kernel_size: 11
    stride: 4
    weight_filler {
      type: "gaussian"
      std: 0.01
    }
    bias_filler {
      type: "constant"
      value: 0
    }
  }
}
layer {
  name: "bn1"
  type: "BatchNorm"
  bottom: "conv1"
  top: "bn1"
  param {
    lr_mult: 0
  }
  param {
    lr_mult: 0
  }
  param {
    lr_mult: 0
  }
  batch_norm_param {
    use_global_stats: false
  }
}
layer {
  name: "relu1"
  type: "ReLU"
  bottom: "bn1"
  top: "relu1"
}
layer {
  name: "pool1"
  type: "Pooling"
  bottom: "relu1"
  top: "pool1"
  pooling_param {
    pool: MAX
    kernel_size: 3
    stride: 2
  }
}
layer {
  name: "conv2"
  type: "Convolution"
  bottom: "pool1"
  top: "conv2"
  param {
    lr_mult: 1
    decay_mult: 1
  }
  param {
    lr_mult: 2
    decay_mult: 0
  }
  convolution_param {
    num_output: 256
    pad: 2
    kernel_size: 5
    group: 1
    weight_filler {
      type: "gaussian"
      std: 0.01
    }
    bias_filler {
      type: "constant"
      value: 1
    }
  }
}
layer {
  name: "bn2"
  type: "BatchNorm"
  bottom: "conv2"
  top: "bn2"
  param {
    lr_mult: 0
  }
  param {
    lr_mult: 0
  }
  param {
    lr_mult: 0
  }
  batch_norm_param {
    use_global_stats: false
  }
}
layer {
  name: "relu2"
  type: "ReLU"
  bottom: "bn2"
  top: "relu2"
}
layer {
  name: "pool2"
  type: "Pooling"
  bottom: "relu2"
  top: "pool2"
  pooling_param {
    pool: MAX
    kernel_size: 3
    stride: 2
  }
}
layer {
  name: "conv3"
  type: "Convolution"
  bottom: "pool2"
  top: "conv3"
  param {
    lr_mult: 1
    decay_mult: 1
  }
  param {
    lr_mult: 2
    decay_mult: 0
  }
  convolution_param {
    num_output: 384
    pad: 1
    kernel_size: 3
    weight_filler {
      type: "gaussian"
      std: 0.01
    }
    bias_filler {
      type: "constant"
      value: 0
    }
  }
}
layer {
  name: "relu3"
  type: "ReLU"
  bottom: "conv3"
  top: "relu3"
}
layer {
  name: "conv4"
  type: "Convolution"
  bottom: "relu3"
  top: "conv4"
  param {
    lr_mult: 1
    decay_mult: 1
  }
  param {
    lr_mult: 2
    decay_mult: 0
  }
  convolution_param {
    num_output: 384
    pad: 1
    kernel_size: 3
    group: 1
    weight_filler {
      type: "gaussian"
      std: 0.01
    }
    bias_filler {
      type: "constant"
      value: 1
    }
  }
}
layer {
  name: "relu4"
  type: "ReLU"
  bottom: "conv4"
  top: "relu4"
}
layer {
  name: "conv5"
  type: "Convolution"
  bottom: "relu4"
  top: "conv5"
  param {
    lr_mult: 1
    decay_mult: 1
  }
  param {
    lr_mult: 2
    decay_mult: 0
  }
  convolution_param {
    num_output: 256
    pad: 1
    kernel_size: 3
    group: 1
    weight_filler {
      type: "gaussian"
      std: 0.01
    }
    bias_filler {
      type: "constant"
      value: 1
    }
  }
}
layer {
  name: "relu5"
  type: "ReLU"
  bottom: "conv5"
  top: "relu5"
}
layer {
  name: "pool5"
  type: "Pooling"
  bottom: "relu5"
  top: "pool5"
  pooling_param {
    pool: MAX
    kernel_size: 3
    stride: 2
  }
}
layer {
  name: "fc6"
  type: "InnerProduct"
  bottom: "pool5"
  top: "fc6"
  param {
    lr_mult: 1
    decay_mult: 1
  }
  param {
    lr_mult: 2
    decay_mult: 0
  }
  inner_product_param {
    num_output: 4096
    weight_filler {
      type: "gaussian"
      std: 0.005
    }
    bias_filler {
      type: "constant"
      value: 1
    }
  }
}
layer {
  name: "relu6"
  type: "ReLU"
  bottom: "fc6"
  top: "relu6"
}
layer {
  name: "drop6"
  type: "Dropout"
  bottom: "relu6"
  top: "drop6"
  dropout_param {
    dropout_ratio: 0.5
  }
}
layer {
  name: "fc7"
  type: "InnerProduct"
  bottom: "drop6"
  top: "fc7"
  param {
    lr_mult: 1
    decay_mult: 1
  }
  param {
    lr_mult: 2
    decay_mult: 0
  }
  inner_product_param {
    num_output: 4096
    weight_filler {
      type: "gaussian"
      std: 0.005
    }
    bias_filler {
      type: "constant"
      value: 1
    }
  }
}
layer {
  name: "bn7"
  type: "BatchNorm"
  bottom: "fc7"
  top: "bn7"
  param {
    lr_mult: 0
  }
  param {
    lr_mult: 0
  }
  param {
    lr_mult: 0
  }
  batch_norm_param {
    use_global_stats: false
  }
}
layer {
  name: "relu7"
  type: "ReLU"
  bottom: "bn7"
  top: "relu7"
}
layer {
  name: "drop7"
  type: "Dropout"
  bottom: "relu7"
  top: "drop7"
  dropout_param {
    dropout_ratio: 0.5
  }
}
layer {
  name: "fc8"
  type: "InnerProduct"
  bottom: "drop7"
  top: "fc8"
  param {
    lr_mult: 1
    decay_mult: 1
  }
  param {
    lr_mult: 2
    decay_mult: 0
  }
  inner_product_param {
    num_output: 2
    weight_filler {
      type: "gaussian"
      std: 0.01
    }
    bias_filler {
      type: "constant"
      value: 0
    }
  }
}
layer {
  name: "loss"
  type: "SoftmaxWithLoss"
  bottom: "fc8"
  bottom: "label"
  top: "loss"
}
I0108 16:55:23.152484    90 layer_factory.hpp:77] Creating layer data
I0108 16:55:23.153110    90 internal_thread.cpp:27] Starting internal thread(s) on GPU 0
I0108 16:55:23.154356    90 net.cpp:94] Creating Layer data
I0108 16:55:23.154369    90 net.cpp:409] data -> data
I0108 16:55:23.154382    90 net.cpp:409] data -> label
I0108 16:55:23.157148   122 db_lmdb.cpp:35] Opened lmdb input/lmdb/train_lmdb
I0108 16:55:23.157179   122 db_lmdb.cpp:38] Items count: 20000
I0108 16:55:23.158313   122 data_reader.cpp:124] TRAIN: reading data using 1 channel(s)
I0108 16:55:23.159696    90 data_layer.cpp:78] ReshapePrefetch 256, 3, 227, 227
I0108 16:55:23.159893    90 data_layer.cpp:83] output data size: 256,3,227,227
I0108 16:55:23.647508    90 internal_thread.cpp:27] Starting internal thread(s) on GPU 0
I0108 16:55:23.647573    90 net.cpp:144] Setting up data
I0108 16:55:23.647578    90 net.cpp:151] Top shape: 256 3 227 227 (39574272)
I0108 16:55:23.647588    90 net.cpp:151] Top shape: 256 (256)
I0108 16:55:23.647591    90 net.cpp:159] Memory required for data: 158298112
I0108 16:55:23.647596    90 layer_factory.hpp:77] Creating layer conv1
I0108 16:55:23.647611    90 net.cpp:94] Creating Layer conv1
I0108 16:55:23.647615    90 net.cpp:435] conv1 <- data
I0108 16:55:23.647622    90 net.cpp:409] conv1 -> conv1
I0108 16:55:23.649850    90 net.cpp:144] Setting up conv1
I0108 16:55:23.649869    90 net.cpp:151] Top shape: 256 96 55 55 (74342400)
I0108 16:55:23.649876    90 net.cpp:159] Memory required for data: 455667712
I0108 16:55:23.649888    90 layer_factory.hpp:77] Creating layer bn1
I0108 16:55:23.649911    90 net.cpp:94] Creating Layer bn1
I0108 16:55:23.649916    90 net.cpp:435] bn1 <- conv1
I0108 16:55:23.649921    90 net.cpp:409] bn1 -> bn1
I0108 16:55:23.650676    90 net.cpp:144] Setting up bn1
I0108 16:55:23.650684    90 net.cpp:151] Top shape: 256 96 55 55 (74342400)
I0108 16:55:23.650691    90 net.cpp:159] Memory required for data: 753037312
I0108 16:55:23.650701    90 layer_factory.hpp:77] Creating layer relu1
I0108 16:55:23.650707    90 net.cpp:94] Creating Layer relu1
I0108 16:55:23.650710    90 net.cpp:435] relu1 <- bn1
I0108 16:55:23.650715    90 net.cpp:409] relu1 -> relu1
I0108 16:55:23.650760    90 net.cpp:144] Setting up relu1
I0108 16:55:23.650766    90 net.cpp:151] Top shape: 256 96 55 55 (74342400)
I0108 16:55:23.650771    90 net.cpp:159] Memory required for data: 1050406912
I0108 16:55:23.650775    90 layer_factory.hpp:77] Creating layer pool1
I0108 16:55:23.650781    90 net.cpp:94] Creating Layer pool1
I0108 16:55:23.650785    90 net.cpp:435] pool1 <- relu1
I0108 16:55:23.650789    90 net.cpp:409] pool1 -> pool1
I0108 16:55:23.650817    90 net.cpp:144] Setting up pool1
I0108 16:55:23.650823    90 net.cpp:151] Top shape: 256 96 27 27 (17915904)
I0108 16:55:23.650828    90 net.cpp:159] Memory required for data: 1122070528
I0108 16:55:23.650833    90 layer_factory.hpp:77] Creating layer conv2
I0108 16:55:23.650841    90 net.cpp:94] Creating Layer conv2
I0108 16:55:23.650846    90 net.cpp:435] conv2 <- pool1
I0108 16:55:23.650851    90 net.cpp:409] conv2 -> conv2
I0108 16:55:23.665534    90 net.cpp:144] Setting up conv2
I0108 16:55:23.665570    90 net.cpp:151] Top shape: 256 256 27 27 (47775744)
I0108 16:55:23.665578    90 net.cpp:159] Memory required for data: 1313173504
I0108 16:55:23.665588    90 layer_factory.hpp:77] Creating layer bn2
I0108 16:55:23.665599    90 net.cpp:94] Creating Layer bn2
I0108 16:55:23.665604    90 net.cpp:435] bn2 <- conv2
I0108 16:55:23.665611    90 net.cpp:409] bn2 -> bn2
I0108 16:55:23.666106    90 net.cpp:144] Setting up bn2
I0108 16:55:23.666112    90 net.cpp:151] Top shape: 256 256 27 27 (47775744)
I0108 16:55:23.666118    90 net.cpp:159] Memory required for data: 1504276480
I0108 16:55:23.666127    90 layer_factory.hpp:77] Creating layer relu2
I0108 16:55:23.666133    90 net.cpp:94] Creating Layer relu2
I0108 16:55:23.666137    90 net.cpp:435] relu2 <- bn2
I0108 16:55:23.666142    90 net.cpp:409] relu2 -> relu2
I0108 16:55:23.666160    90 net.cpp:144] Setting up relu2
I0108 16:55:23.666167    90 net.cpp:151] Top shape: 256 256 27 27 (47775744)
I0108 16:55:23.666172    90 net.cpp:159] Memory required for data: 1695379456
I0108 16:55:23.666177    90 layer_factory.hpp:77] Creating layer pool2
I0108 16:55:23.666182    90 net.cpp:94] Creating Layer pool2
I0108 16:55:23.666186    90 net.cpp:435] pool2 <- relu2
I0108 16:55:23.666193    90 net.cpp:409] pool2 -> pool2
I0108 16:55:23.666218    90 net.cpp:144] Setting up pool2
I0108 16:55:23.666224    90 net.cpp:151] Top shape: 256 256 13 13 (11075584)
I0108 16:55:23.666229    90 net.cpp:159] Memory required for data: 1739681792
I0108 16:55:23.666234    90 layer_factory.hpp:77] Creating layer conv3
I0108 16:55:23.666241    90 net.cpp:94] Creating Layer conv3
I0108 16:55:23.666245    90 net.cpp:435] conv3 <- pool2
I0108 16:55:23.666260    90 net.cpp:409] conv3 -> conv3
I0108 16:55:23.674309   151 blocking_queue.cpp:50] Waiting for data
I0108 16:55:23.676681    90 net.cpp:144] Setting up conv3
I0108 16:55:23.676697    90 net.cpp:151] Top shape: 256 384 13 13 (16613376)
I0108 16:55:23.676707    90 net.cpp:159] Memory required for data: 1806135296
I0108 16:55:23.676718    90 layer_factory.hpp:77] Creating layer relu3
I0108 16:55:23.676726    90 net.cpp:94] Creating Layer relu3
I0108 16:55:23.676731    90 net.cpp:435] relu3 <- conv3
I0108 16:55:23.676738    90 net.cpp:409] relu3 -> relu3
I0108 16:55:23.676760    90 net.cpp:144] Setting up relu3
I0108 16:55:23.676765    90 net.cpp:151] Top shape: 256 384 13 13 (16613376)
I0108 16:55:23.676771    90 net.cpp:159] Memory required for data: 1872588800
I0108 16:55:23.676787    90 layer_factory.hpp:77] Creating layer conv4
I0108 16:55:23.676797    90 net.cpp:94] Creating Layer conv4
I0108 16:55:23.676801    90 net.cpp:435] conv4 <- relu3
I0108 16:55:23.676806    90 net.cpp:409] conv4 -> conv4
I0108 16:55:23.689597    90 net.cpp:144] Setting up conv4
I0108 16:55:23.689615    90 net.cpp:151] Top shape: 256 384 13 13 (16613376)
I0108 16:55:23.689623    90 net.cpp:159] Memory required for data: 1939042304
I0108 16:55:23.689635    90 layer_factory.hpp:77] Creating layer relu4
I0108 16:55:23.689642    90 net.cpp:94] Creating Layer relu4
I0108 16:55:23.689647    90 net.cpp:435] relu4 <- conv4
I0108 16:55:23.689653    90 net.cpp:409] relu4 -> relu4
I0108 16:55:23.689672    90 net.cpp:144] Setting up relu4
I0108 16:55:23.689675    90 net.cpp:151] Top shape: 256 384 13 13 (16613376)
I0108 16:55:23.689679    90 net.cpp:159] Memory required for data: 2005495808
I0108 16:55:23.689682    90 layer_factory.hpp:77] Creating layer conv5
I0108 16:55:23.689692    90 net.cpp:94] Creating Layer conv5
I0108 16:55:23.689694    90 net.cpp:435] conv5 <- relu4
I0108 16:55:23.689698    90 net.cpp:409] conv5 -> conv5
I0108 16:55:23.698072    90 net.cpp:144] Setting up conv5
I0108 16:55:23.698088    90 net.cpp:151] Top shape: 256 256 13 13 (11075584)
I0108 16:55:23.698096    90 net.cpp:159] Memory required for data: 2049798144
I0108 16:55:23.698107    90 layer_factory.hpp:77] Creating layer relu5
I0108 16:55:23.698113    90 net.cpp:94] Creating Layer relu5
I0108 16:55:23.698117    90 net.cpp:435] relu5 <- conv5
I0108 16:55:23.698123    90 net.cpp:409] relu5 -> relu5
I0108 16:55:23.698143    90 net.cpp:144] Setting up relu5
I0108 16:55:23.698146    90 net.cpp:151] Top shape: 256 256 13 13 (11075584)
I0108 16:55:23.698150    90 net.cpp:159] Memory required for data: 2094100480
I0108 16:55:23.698153    90 layer_factory.hpp:77] Creating layer pool5
I0108 16:55:23.698159    90 net.cpp:94] Creating Layer pool5
I0108 16:55:23.698163    90 net.cpp:435] pool5 <- relu5
I0108 16:55:23.698165    90 net.cpp:409] pool5 -> pool5
I0108 16:55:23.698202    90 net.cpp:144] Setting up pool5
I0108 16:55:23.698207    90 net.cpp:151] Top shape: 256 256 6 6 (2359296)
I0108 16:55:23.698213    90 net.cpp:159] Memory required for data: 2103537664
I0108 16:55:23.698216    90 layer_factory.hpp:77] Creating layer fc6
I0108 16:55:23.698673    90 net.cpp:94] Creating Layer fc6
I0108 16:55:23.698679    90 net.cpp:435] fc6 <- pool5
I0108 16:55:23.698684    90 net.cpp:409] fc6 -> fc6
I0108 16:55:24.023164    90 net.cpp:144] Setting up fc6
I0108 16:55:24.023187    90 net.cpp:151] Top shape: 256 4096 (1048576)
I0108 16:55:24.023224    90 net.cpp:159] Memory required for data: 2107731968
I0108 16:55:24.023236    90 layer_factory.hpp:77] Creating layer relu6
I0108 16:55:24.023244    90 net.cpp:94] Creating Layer relu6
I0108 16:55:24.023249    90 net.cpp:435] relu6 <- fc6
I0108 16:55:24.023255    90 net.cpp:409] relu6 -> relu6
I0108 16:55:24.023272    90 net.cpp:144] Setting up relu6
I0108 16:55:24.023274    90 net.cpp:151] Top shape: 256 4096 (1048576)
I0108 16:55:24.023278    90 net.cpp:159] Memory required for data: 2111926272
I0108 16:55:24.023281    90 layer_factory.hpp:77] Creating layer drop6
I0108 16:55:24.023319    90 net.cpp:94] Creating Layer drop6
I0108 16:55:24.023324    90 net.cpp:435] drop6 <- relu6
I0108 16:55:24.023327    90 net.cpp:409] drop6 -> drop6
I0108 16:55:24.023348    90 net.cpp:144] Setting up drop6
I0108 16:55:24.023353    90 net.cpp:151] Top shape: 256 4096 (1048576)
I0108 16:55:24.023357    90 net.cpp:159] Memory required for data: 2116120576
I0108 16:55:24.023360    90 layer_factory.hpp:77] Creating layer fc7
I0108 16:55:24.023367    90 net.cpp:94] Creating Layer fc7
I0108 16:55:24.023370    90 net.cpp:435] fc7 <- drop6
I0108 16:55:24.023375    90 net.cpp:409] fc7 -> fc7
I0108 16:55:24.167707    90 net.cpp:144] Setting up fc7
I0108 16:55:24.167729    90 net.cpp:151] Top shape: 256 4096 (1048576)
I0108 16:55:24.167737    90 net.cpp:159] Memory required for data: 2120314880
I0108 16:55:24.167784    90 layer_factory.hpp:77] Creating layer bn7
I0108 16:55:24.167804    90 net.cpp:94] Creating Layer bn7
I0108 16:55:24.167809    90 net.cpp:435] bn7 <- fc7
I0108 16:55:24.167815    90 net.cpp:409] bn7 -> bn7
I0108 16:55:24.168284    90 net.cpp:144] Setting up bn7
I0108 16:55:24.168290    90 net.cpp:151] Top shape: 256 4096 (1048576)
I0108 16:55:24.168295    90 net.cpp:159] Memory required for data: 2124509184
I0108 16:55:24.168304    90 layer_factory.hpp:77] Creating layer relu7
I0108 16:55:24.168309    90 net.cpp:94] Creating Layer relu7
I0108 16:55:24.168313    90 net.cpp:435] relu7 <- bn7
I0108 16:55:24.168318    90 net.cpp:409] relu7 -> relu7
I0108 16:55:24.168335    90 net.cpp:144] Setting up relu7
I0108 16:55:24.168341    90 net.cpp:151] Top shape: 256 4096 (1048576)
I0108 16:55:24.168345    90 net.cpp:159] Memory required for data: 2128703488
I0108 16:55:24.168349    90 layer_factory.hpp:77] Creating layer drop7
I0108 16:55:24.168354    90 net.cpp:94] Creating Layer drop7
I0108 16:55:24.168359    90 net.cpp:435] drop7 <- relu7
I0108 16:55:24.168362    90 net.cpp:409] drop7 -> drop7
I0108 16:55:24.168385    90 net.cpp:144] Setting up drop7
I0108 16:55:24.168390    90 net.cpp:151] Top shape: 256 4096 (1048576)
I0108 16:55:24.168395    90 net.cpp:159] Memory required for data: 2132897792
I0108 16:55:24.168399    90 layer_factory.hpp:77] Creating layer fc8
I0108 16:55:24.168406    90 net.cpp:94] Creating Layer fc8
I0108 16:55:24.168409    90 net.cpp:435] fc8 <- drop7
I0108 16:55:24.168413    90 net.cpp:409] fc8 -> fc8
I0108 16:55:24.168570    90 net.cpp:144] Setting up fc8
I0108 16:55:24.168574    90 net.cpp:151] Top shape: 256 2 (512)
I0108 16:55:24.168579    90 net.cpp:159] Memory required for data: 2132899840
I0108 16:55:24.168584    90 layer_factory.hpp:77] Creating layer loss
I0108 16:55:24.169224    90 net.cpp:94] Creating Layer loss
I0108 16:55:24.169230    90 net.cpp:435] loss <- fc8
I0108 16:55:24.169234    90 net.cpp:435] loss <- label
I0108 16:55:24.169239    90 net.cpp:409] loss -> loss
I0108 16:55:24.169248    90 layer_factory.hpp:77] Creating layer loss
…
I0108 16:55:24.169847    90 net.cpp:323] The NetState phase (1) differed from the phase (0) specified by a rule in layer data
I0108 16:55:24.169862    90 net.cpp:52] Initializing net from parameters:
name: "alexnetBNnoLRN m2 (as m3 but less DROP and less BN)"
state {
  phase: TEST
}
layer {
  name: "data"
  type: "Data"
  top: "data"
  top: "label"
  include {
    phase: TEST
  }
  transform_param {
    mirror: false
    crop_size: 227
    mean_value: 106
    mean_value: 116
    mean_value: 124
  }
  data_param {
    source: "input/lmdb/valid_lmdb"
    batch_size: 50
    backend: LMDB
  }
}
layer {
  name: "conv1"
  type: "Convolution"
  bottom: "data"
  top: "conv1"
  param {
    lr_mult: 1
    decay_mult: 1
  }
  param {
    lr_mult: 2
    decay_mult: 0
  }
  convolution_param {
    num_output: 96
    pad: 1
    kernel_size: 11
    stride: 4
    weight_filler {
      type: "gaussian"
      std: 0.01
    }
    bias_filler {
      type: "constant"
      value: 0
    }
  }
}
layer {
  name: "bn1"
  type: "BatchNorm"
  bottom: "conv1"
  top: "bn1"
  param {
    lr_mult: 0
  }
  param {
    lr_mult: 0
  }
  param {
    lr_mult: 0
  }
  batch_norm_param {
    use_global_stats: false
  }
}
layer {
  name: "relu1"
  type: "ReLU"
  bottom: "bn1"
  top: "relu1"
}
layer {
  name: "pool1"
  type: "Pooling"
  bottom: "relu1"
  top: "pool1"
  pooling_param {
    pool: MAX
    kernel_size: 3
    stride: 2
  }
}
layer {
  name: "conv2"
  type: "Convolution"
  bottom: "pool1"
  top: "conv2"
  param {
    lr_mult: 1
    decay_mult: 1
  }
  param {
    lr_mult: 2
    decay_mult: 0
  }
  convolution_param {
    num_output: 256
    pad: 2
    kernel_size: 5
    group: 1
    weight_filler {
      type: "gaussian"
      std: 0.01
    }
    bias_filler {
      type: "constant"
      value: 1
    }
  }
}
layer {
  name: "bn2"
  type: "BatchNorm"
  bottom: "conv2"
  top: "bn2"
  param {
    lr_mult: 0
  }
  param {
    lr_mult: 0
  }
  param {
    lr_mult: 0
  }
  batch_norm_param {
    use_global_stats: false
  }
}
layer {
  name: "relu2"
  type: "ReLU"
  bottom: "bn2"
  top: "relu2"
}
layer {
  name: "pool2"
  type: "Pooling"
  bottom: "relu2"
  top: "pool2"
  pooling_param {
    pool: MAX
    kernel_size: 3
    stride: 2
  }
}
layer {
  name: "conv3"
  type: "Convolution"
  bottom: "pool2"
  top: "conv3"
  param {
    lr_mult: 1
    decay_mult: 1
  }
  param {
    lr_mult: 2
    decay_mult: 0
  }
  convolution_param {
    num_output: 384
    pad: 1
    kernel_size: 3
    weight_filler {
      type: "gaussian"
      std: 0.01
    }
    bias_filler {
      type: "constant"
      value: 0
    }
  }
}
layer {
  name: "relu3"
  type: "ReLU"
  bottom: "conv3"
  top: "relu3"
}
layer {
  name: "conv4"
  type: "Convolution"
  bottom: "relu3"
  top: "conv4"
  param {
    lr_mult: 1
    decay_mult: 1
  }
  param {
    lr_mult: 2
    decay_mult: 0
  }
  convolution_param {
    num_output: 384
    pad: 1
    kernel_size: 3
    group: 1
    weight_filler {
      type: "gaussian"
      std: 0.01
    }
    bias_filler {
      type: "constant"
      value: 1
    }
  }
}
layer {
  name: "relu4"
  type: "ReLU"
  bottom: "conv4"
  top: "relu4"
}
layer {
  name: "conv5"
  type: "Convolution"
  bottom: "relu4"
  top: "conv5"
  param {
    lr_mult: 1
    decay_mult: 1
  }
  param {
    lr_mult: 2
    decay_mult: 0
  }
  convolution_param {
    num_output: 256
    pad: 1
    kernel_size: 3
    group: 1
    weight_filler {
      type: "gaussian"
      std: 0.01
    }
    bias_filler {
      type: "constant"
      value: 1
    }
  }
}
layer {
  name: "relu5"
  type: "ReLU"
  bottom: "conv5"
  top: "relu5"
}
layer {
  name: "pool5"
  type: "Pooling"
  bottom: "relu5"
  top: "pool5"
  pooling_param {
    pool: MAX
    kernel_size: 3
    stride: 2
  }
}
layer {
  name: "fc6"
  type: "InnerProduct"
  bottom: "pool5"
  top: "fc6"
  param {
    lr_mult: 1
    decay_mult: 1
  }
  param {
    lr_mult: 2
    decay_mult: 0
  }
  inner_product_param {
    num_output: 4096
    weight_filler {
      type: "gaussian"
      std: 0.005
    }
    bias_filler {
      type: "constant"
      value: 1
    }
  }
}
layer {
  name: "relu6"
  type: "ReLU"
  bottom: "fc6"
  top: "relu6"
}
layer {
  name: "drop6"
  type: "Dropout"
  bottom: "relu6"
  top: "drop6"
  dropout_param {
    dropout_ratio: 0.5
  }
}
layer {
  name: "fc7"
  type: "InnerProduct"
  bottom: "drop6"
  top: "fc7"
  param {
    lr_mult: 1
    decay_mult: 1
  }
  param {
    lr_mult: 2
    decay_mult: 0
  }
  inner_product_param {
    num_output: 4096
    weight_filler {
      type: "gaussian"
      std: 0.005
    }
    bias_filler {
      type: "constant"
      value: 1
    }
  }
}
layer {
  name: "bn7"
  type: "BatchNorm"
  bottom: "fc7"
  top: "bn7"
  param {
    lr_mult: 0
  }
  param {
    lr_mult: 0
  }
  param {
    lr_mult: 0
  }
  batch_norm_param {
    use_global_stats: false
  }
}
layer {
  name: "relu7"
  type: "ReLU"
  bottom: "bn7"
  top: "relu7"
}
layer {
  name: "drop7"
  type: "Dropout"
  bottom: "relu7"
  top: "drop7"
  dropout_param {
    dropout_ratio: 0.5
  }
}
layer {
  name: "fc8"
  type: "InnerProduct"
  bottom: "drop7"
  top: "fc8"
  param {
    lr_mult: 1
    decay_mult: 1
  }
  param {
    lr_mult: 2
    decay_mult: 0
  }
  inner_product_param {
    num_output: 2
    weight_filler {
      type: "gaussian"
      std: 0.01
    }
    bias_filler {
      type: "constant"
      value: 0
    }
  }
}
layer {
  name: "accuracy"
  type: "Accuracy"
  bottom: "fc8"
  bottom: "label"
  top: "accuracy"
  include {
    phase: TEST
  }
}
layer {
  name: "loss"
  type: "SoftmaxWithLoss"
  bottom: "fc8"
  bottom: "label"
  top: "loss"
}
layer {
  name: "accuracy-top1"
  type: "Accuracy"
  bottom: "fc8"
  bottom: "label"
  top: "top-1"
  include {
    phase: TEST
  }
}
I0108 16:55:24.170086    90 layer_factory.hpp:77] Creating layer data
I0108 16:55:24.170123    90 internal_thread.cpp:27] Starting internal thread(s) on GPU 0
I0108 16:55:24.171134    90 net.cpp:94] Creating Layer data
I0108 16:55:24.171149    90 net.cpp:409] data -> data
I0108 16:55:24.171159    90 net.cpp:409] data -> label
I0108 16:55:24.175196   152 db_lmdb.cpp:35] Opened lmdb input/lmdb/valid_lmdb
I0108 16:55:24.175222   152 db_lmdb.cpp:38] Items count: 4000
I0108 16:55:24.176043   152 data_reader.cpp:124] TEST: reading data using 1 channel(s)
I0108 16:55:24.177903    90 data_layer.cpp:78] ReshapePrefetch 50, 3, 227, 227
I0108 16:55:24.178112    90 data_layer.cpp:83] output data size: 50,3,227,227
I0108 16:55:24.286093    90 internal_thread.cpp:27] Starting internal thread(s) on GPU 0
I0108 16:55:24.286164    90 net.cpp:144] Setting up data
I0108 16:55:24.286170    90 net.cpp:151] Top shape: 50 3 227 227 (7729350)
I0108 16:55:24.286178    90 net.cpp:151] Top shape: 50 (50)
I0108 16:55:24.286181    90 net.cpp:159] Memory required for data: 30917600
I0108 16:55:24.286186    90 layer_factory.hpp:77] Creating layer label_data_1_split
I0108 16:55:24.286196    90 net.cpp:94] Creating Layer label_data_1_split
I0108 16:55:24.286201    90 net.cpp:435] label_data_1_split <- label
I0108 16:55:24.286207    90 net.cpp:409] label_data_1_split -> label_data_1_split_0
I0108 16:55:24.286216    90 net.cpp:409] label_data_1_split -> label_data_1_split_1
I0108 16:55:24.286226    90 net.cpp:409] label_data_1_split -> label_data_1_split_2
I0108 16:55:24.286288    90 net.cpp:144] Setting up label_data_1_split
I0108 16:55:24.286293    90 net.cpp:151] Top shape: 50 (50)
I0108 16:55:24.286296    90 net.cpp:151] Top shape: 50 (50)
I0108 16:55:24.286316    90 net.cpp:151] Top shape: 50 (50)
I0108 16:55:24.286320    90 net.cpp:159] Memory required for data: 30918200
I0108 16:55:24.286324    90 layer_factory.hpp:77] Creating layer conv1
I0108 16:55:24.286350    90 net.cpp:94] Creating Layer conv1
I0108 16:55:24.286353    90 net.cpp:435] conv1 <- data
I0108 16:55:24.286360    90 net.cpp:409] conv1 -> conv1
I0108 16:55:24.312249    90 net.cpp:144] Setting up conv1
I0108 16:55:24.312273    90 net.cpp:151] Top shape: 50 96 55 55 (14520000)
I0108 16:55:24.312283    90 net.cpp:159] Memory required for data: 88998200
I0108 16:55:24.312299    90 layer_factory.hpp:77] Creating layer bn1
I0108 16:55:24.312314    90 net.cpp:94] Creating Layer bn1
I0108 16:55:24.312320    90 net.cpp:435] bn1 <- conv1
I0108 16:55:24.312330    90 net.cpp:409] bn1 -> bn1
I0108 16:55:24.316268    90 net.cpp:144] Setting up bn1
I0108 16:55:24.316294    90 net.cpp:151] Top shape: 50 96 55 55 (14520000)
I0108 16:55:24.316310    90 net.cpp:159] Memory required for data: 147078200
I0108 16:55:24.316337    90 layer_factory.hpp:77] Creating layer relu1
I0108 16:55:24.316354    90 net.cpp:94] Creating Layer relu1
I0108 16:55:24.316362    90 net.cpp:435] relu1 <- bn1
I0108 16:55:24.316373    90 net.cpp:409] relu1 -> relu1
I0108 16:55:24.316413    90 net.cpp:144] Setting up relu1
I0108 16:55:24.316423    90 net.cpp:151] Top shape: 50 96 55 55 (14520000)
I0108 16:55:24.316434    90 net.cpp:159] Memory required for data: 205158200
I0108 16:55:24.316442    90 layer_factory.hpp:77] Creating layer pool1
I0108 16:55:24.316453    90 net.cpp:94] Creating Layer pool1
I0108 16:55:24.316462    90 net.cpp:435] pool1 <- relu1
I0108 16:55:24.316471    90 net.cpp:409] pool1 -> pool1
I0108 16:55:24.316522    90 net.cpp:144] Setting up pool1
I0108 16:55:24.316532    90 net.cpp:151] Top shape: 50 96 27 27 (3499200)
I0108 16:55:24.316542    90 net.cpp:159] Memory required for data: 219155000
I0108 16:55:24.316550    90 layer_factory.hpp:77] Creating layer conv2
I0108 16:55:24.316567    90 net.cpp:94] Creating Layer conv2
I0108 16:55:24.316577    90 net.cpp:435] conv2 <- pool1
I0108 16:55:24.316596    90 net.cpp:409] conv2 -> conv2
I0108 16:55:24.330456    90 net.cpp:144] Setting up conv2
I0108 16:55:24.330477    90 net.cpp:151] Top shape: 50 256 27 27 (9331200)
I0108 16:55:24.330489    90 net.cpp:159] Memory required for data: 256479800
I0108 16:55:24.330504    90 layer_factory.hpp:77] Creating layer bn2
I0108 16:55:24.330518    90 net.cpp:94] Creating Layer bn2
I0108 16:55:24.330528    90 net.cpp:435] bn2 <- conv2
I0108 16:55:24.330538    90 net.cpp:409] bn2 -> bn2
I0108 16:55:24.331216    90 net.cpp:144] Setting up bn2
I0108 16:55:24.331224    90 net.cpp:151] Top shape: 50 256 27 27 (9331200)
I0108 16:55:24.331234    90 net.cpp:159] Memory required for data: 293804600
I0108 16:55:24.331246    90 layer_factory.hpp:77] Creating layer relu2
I0108 16:55:24.331257    90 net.cpp:94] Creating Layer relu2
I0108 16:55:24.331262    90 net.cpp:435] relu2 <- bn2
I0108 16:55:24.331269    90 net.cpp:409] relu2 -> relu2
I0108 16:55:24.331291    90 net.cpp:144] Setting up relu2
I0108 16:55:24.331298    90 net.cpp:151] Top shape: 50 256 27 27 (9331200)
I0108 16:55:24.331305    90 net.cpp:159] Memory required for data: 331129400
I0108 16:55:24.331310    90 layer_factory.hpp:77] Creating layer pool2
I0108 16:55:24.331321    90 net.cpp:94] Creating Layer pool2
I0108 16:55:24.331326    90 net.cpp:435] pool2 <- relu2
I0108 16:55:24.331332    90 net.cpp:409] pool2 -> pool2
I0108 16:55:24.331367    90 net.cpp:144] Setting up pool2
I0108 16:55:24.331373    90 net.cpp:151] Top shape: 50 256 13 13 (2163200)
I0108 16:55:24.331380    90 net.cpp:159] Memory required for data: 339782200
I0108 16:55:24.331384    90 layer_factory.hpp:77] Creating layer conv3
I0108 16:55:24.331396    90 net.cpp:94] Creating Layer conv3
I0108 16:55:24.331403    90 net.cpp:435] conv3 <- pool2
I0108 16:55:24.331410    90 net.cpp:409] conv3 -> conv3
I0108 16:55:24.342694    90 net.cpp:144] Setting up conv3
I0108 16:55:24.342711    90 net.cpp:151] Top shape: 50 384 13 13 (3244800)
I0108 16:55:24.342720    90 net.cpp:159] Memory required for data: 352761400
I0108 16:55:24.342730    90 layer_factory.hpp:77] Creating layer relu3
I0108 16:55:24.342738    90 net.cpp:94] Creating Layer relu3
I0108 16:55:24.342759    90 net.cpp:435] relu3 <- conv3
I0108 16:55:24.342767    90 net.cpp:409] relu3 -> relu3
I0108 16:55:24.342790    90 net.cpp:144] Setting up relu3
I0108 16:55:24.342795    90 net.cpp:151] Top shape: 50 384 13 13 (3244800)
I0108 16:55:24.342800    90 net.cpp:159] Memory required for data: 365740600
I0108 16:55:24.342803    90 layer_factory.hpp:77] Creating layer conv4
I0108 16:55:24.342813    90 net.cpp:94] Creating Layer conv4
I0108 16:55:24.342815    90 net.cpp:435] conv4 <- relu3
I0108 16:55:24.342820    90 net.cpp:409] conv4 -> conv4
I0108 16:55:24.355497    90 net.cpp:144] Setting up conv4
I0108 16:55:24.355515    90 net.cpp:151] Top shape: 50 384 13 13 (3244800)
I0108 16:55:24.355523    90 net.cpp:159] Memory required for data: 378719800
I0108 16:55:24.355535    90 layer_factory.hpp:77] Creating layer relu4
I0108 16:55:24.355541    90 net.cpp:94] Creating Layer relu4
I0108 16:55:24.355546    90 net.cpp:435] relu4 <- conv4
I0108 16:55:24.355552    90 net.cpp:409] relu4 -> relu4
I0108 16:55:24.355574    90 net.cpp:144] Setting up relu4
I0108 16:55:24.355579    90 net.cpp:151] Top shape: 50 384 13 13 (3244800)
I0108 16:55:24.355582    90 net.cpp:159] Memory required for data: 391699000
I0108 16:55:24.355585    90 layer_factory.hpp:77] Creating layer conv5
I0108 16:55:24.355594    90 net.cpp:94] Creating Layer conv5
I0108 16:55:24.355597    90 net.cpp:435] conv5 <- relu4
I0108 16:55:24.355602    90 net.cpp:409] conv5 -> conv5
I0108 16:55:24.363865    90 net.cpp:144] Setting up conv5
I0108 16:55:24.363881    90 net.cpp:151] Top shape: 50 256 13 13 (2163200)
I0108 16:55:24.363889    90 net.cpp:159] Memory required for data: 400351800
I0108 16:55:24.363898    90 layer_factory.hpp:77] Creating layer relu5
I0108 16:55:24.363906    90 net.cpp:94] Creating Layer relu5
I0108 16:55:24.363910    90 net.cpp:435] relu5 <- conv5
I0108 16:55:24.363919    90 net.cpp:409] relu5 -> relu5
I0108 16:55:24.363940    90 net.cpp:144] Setting up relu5
I0108 16:55:24.363942    90 net.cpp:151] Top shape: 50 256 13 13 (2163200)
I0108 16:55:24.363946    90 net.cpp:159] Memory required for data: 409004600
I0108 16:55:24.363948    90 layer_factory.hpp:77] Creating layer pool5
I0108 16:55:24.363955    90 net.cpp:94] Creating Layer pool5
I0108 16:55:24.363958    90 net.cpp:435] pool5 <- relu5
I0108 16:55:24.363963    90 net.cpp:409] pool5 -> pool5
I0108 16:55:24.363986    90 net.cpp:144] Setting up pool5
I0108 16:55:24.363991    90 net.cpp:151] Top shape: 50 256 6 6 (460800)
I0108 16:55:24.363994    90 net.cpp:159] Memory required for data: 410847800
I0108 16:55:24.363997    90 layer_factory.hpp:77] Creating layer fc6
I0108 16:55:24.364020    90 net.cpp:94] Creating Layer fc6
I0108 16:55:24.364024    90 net.cpp:435] fc6 <- pool5
I0108 16:55:24.364028    90 net.cpp:409] fc6 -> fc6
I0108 16:55:24.690814    90 net.cpp:144] Setting up fc6
I0108 16:55:24.690835    90 net.cpp:151] Top shape: 50 4096 (204800)
I0108 16:55:24.690843    90 net.cpp:159] Memory required for data: 411667000
I0108 16:55:24.690855    90 layer_factory.hpp:77] Creating layer relu6
I0108 16:55:24.690863    90 net.cpp:94] Creating Layer relu6
I0108 16:55:24.690867    90 net.cpp:435] relu6 <- fc6
I0108 16:55:24.690874    90 net.cpp:409] relu6 -> relu6
I0108 16:55:24.690901    90 net.cpp:144] Setting up relu6
I0108 16:55:24.690907    90 net.cpp:151] Top shape: 50 4096 (204800)
I0108 16:55:24.690910    90 net.cpp:159] Memory required for data: 412486200
I0108 16:55:24.690913    90 layer_factory.hpp:77] Creating layer drop6
I0108 16:55:24.690934    90 net.cpp:94] Creating Layer drop6
I0108 16:55:24.690937    90 net.cpp:435] drop6 <- relu6
I0108 16:55:24.690941    90 net.cpp:409] drop6 -> drop6
I0108 16:55:24.690965    90 net.cpp:144] Setting up drop6
I0108 16:55:24.690970    90 net.cpp:151] Top shape: 50 4096 (204800)
I0108 16:55:24.690975    90 net.cpp:159] Memory required for data: 413305400
I0108 16:55:24.690979    90 layer_factory.hpp:77] Creating layer fc7
I0108 16:55:24.690985    90 net.cpp:94] Creating Layer fc7
I0108 16:55:24.690989    90 net.cpp:435] fc7 <- drop6
I0108 16:55:24.691495    90 net.cpp:409] fc7 -> fc7
I0108 16:55:24.745337   181 blocking_queue.cpp:50] Waiting for data
I0108 16:55:24.837399    90 net.cpp:144] Setting up fc7
I0108 16:55:24.837419    90 net.cpp:151] Top shape: 50 4096 (204800)
I0108 16:55:24.837428    90 net.cpp:159] Memory required for data: 414124600
I0108 16:55:24.837440    90 layer_factory.hpp:77] Creating layer bn7
I0108 16:55:24.837450    90 net.cpp:94] Creating Layer bn7
I0108 16:55:24.837455    90 net.cpp:435] bn7 <- fc7
I0108 16:55:24.837461    90 net.cpp:409] bn7 -> bn7
I0108 16:55:24.837981    90 net.cpp:144] Setting up bn7
I0108 16:55:24.837987    90 net.cpp:151] Top shape: 50 4096 (204800)
I0108 16:55:24.837993    90 net.cpp:159] Memory required for data: 414943800
I0108 16:55:24.838001    90 layer_factory.hpp:77] Creating layer relu7
I0108 16:55:24.838006    90 net.cpp:94] Creating Layer relu7
I0108 16:55:24.838011    90 net.cpp:435] relu7 <- bn7
I0108 16:55:24.838016    90 net.cpp:409] relu7 -> relu7
I0108 16:55:24.838032    90 net.cpp:144] Setting up relu7
I0108 16:55:24.838038    90 net.cpp:151] Top shape: 50 4096 (204800)
I0108 16:55:24.838042    90 net.cpp:159] Memory required for data: 415763000
I0108 16:55:24.838047    90 layer_factory.hpp:77] Creating layer drop7
I0108 16:55:24.838052    90 net.cpp:94] Creating Layer drop7
I0108 16:55:24.838054    90 net.cpp:435] drop7 <- relu7
I0108 16:55:24.838059    90 net.cpp:409] drop7 -> drop7
I0108 16:55:24.838084    90 net.cpp:144] Setting up drop7
I0108 16:55:24.838091    90 net.cpp:151] Top shape: 50 4096 (204800)
I0108 16:55:24.838096    90 net.cpp:159] Memory required for data: 416582200
I0108 16:55:24.838099    90 layer_factory.hpp:77] Creating layer fc8
I0108 16:55:24.838106    90 net.cpp:94] Creating Layer fc8
I0108 16:55:24.838110    90 net.cpp:435] fc8 <- drop7
I0108 16:55:24.838116    90 net.cpp:409] fc8 -> fc8
I0108 16:55:24.838279    90 net.cpp:144] Setting up fc8
I0108 16:55:24.838284    90 net.cpp:151] Top shape: 50 2 (100)
I0108 16:55:24.838289    90 net.cpp:159] Memory required for data: 416582600
I0108 16:55:24.838294    90 layer_factory.hpp:77] Creating layer fc8_fc8_0_split
I0108 16:55:24.838299    90 net.cpp:94] Creating Layer fc8_fc8_0_split
I0108 16:55:24.838304    90 net.cpp:435] fc8_fc8_0_split <- fc8
I0108 16:55:24.838308    90 net.cpp:409] fc8_fc8_0_split -> fc8_fc8_0_split_0
I0108 16:55:24.838313    90 net.cpp:409] fc8_fc8_0_split -> fc8_fc8_0_split_1
I0108 16:55:24.838318    90 net.cpp:409] fc8_fc8_0_split -> fc8_fc8_0_split_2
I0108 16:55:24.838352    90 net.cpp:144] Setting up fc8_fc8_0_split
I0108 16:55:24.838357    90 net.cpp:151] Top shape: 50 2 (100)
I0108 16:55:24.838361    90 net.cpp:151] Top shape: 50 2 (100)
I0108 16:55:24.838366    90 net.cpp:151] Top shape: 50 2 (100)
I0108 16:55:24.838369    90 net.cpp:159] Memory required for data: 416583800
I0108 16:55:24.838373    90 layer_factory.hpp:77] Creating layer accuracy
I0108 16:55:24.838379    90 net.cpp:94] Creating Layer accuracy
I0108 16:55:24.838383    90 net.cpp:435] accuracy <- fc8_fc8_0_split_0
I0108 16:55:24.838388    90 net.cpp:435] accuracy <- label_data_1_split_0
I0108 16:55:24.838392    90 net.cpp:409] accuracy -> accuracy
…
WARNING: Logging before InitGoogleLogging() is written to STDERR
I0108 18:22:23.857134   216 gpu_memory.cpp:53] GPUMemory::Manager initialized with Caching (CUB) GPU Allocator
I0108 18:22:23.857158   216 gpu_memory.cpp:55] Total memory: 25620447232, Free: 24852234240, dev_info[0]: total=25620447232 free=24852234240
I0108 18:22:23.860394   216 net.cpp:52] Initializing net from parameters:
name: "AlexNet_BNnoLRN m2 deploy"
state {
  phase: TEST
}
layer {
  name: "data"
  type: "Input"
  top: "data"
  input_param {
    shape {
      dim: 1
      dim: 3
      dim: 227
      dim: 227
    }
  }
}
layer {
  name: "conv1"
  type: "Convolution"
  bottom: "data"
  top: "conv1"
  param {
    lr_mult: 1
    decay_mult: 1
  }
  param {
    lr_mult: 2
    decay_mult: 0
  }
  convolution_param {
    num_output: 96
    pad: 1
    kernel_size: 11
    stride: 4
    weight_filler {
      type: "gaussian"
      std: 0.01
    }
    bias_filler {
      type: "constant"
      value: 0
    }
  }
}
layer {
  name: "bn1"
  type: "BatchNorm"
  bottom: "conv1"
  top: "bn1"
  param {
    lr_mult: 0
  }
  param {
    lr_mult: 0
  }
  param {
    lr_mult: 0
  }
  batch_norm_param {
    use_global_stats: true
  }
}
layer {
  name: "relu1"
  type: "ReLU"
  bottom: "bn1"
  top: "relu1"
}
layer {
  name: "pool1"
  type: "Pooling"
  bottom: "relu1"
  top: "pool1"
  pooling_param {
    pool: MAX
    kernel_size: 3
    stride: 2
  }
}
layer {
  name: "conv2"
  type: "Convolution"
  bottom: "pool1"
  top: "conv2"
  param {
    lr_mult: 1
    decay_mult: 1
  }
  param {
    lr_mult: 2
    decay_mult: 0
  }
  convolution_param {
    num_output: 256
    pad: 2
    kernel_size: 5
    group: 1
    weight_filler {
      type: "gaussian"
      std: 0.01
    }
    bias_filler {
      type: "constant"
      value: 1
    }
  }
}
layer {
  name: "bn2"
  type: "BatchNorm"
  bottom: "conv2"
  top: "bn2"
  param {
    lr_mult: 0
  }
  param {
    lr_mult: 0
  }
  param {
    lr_mult: 0
  }
  batch_norm_param {
    use_global_stats: true
  }
}
layer {
  name: "relu2"
  type: "ReLU"
  bottom: "bn2"
  top: "relu2"
}
layer {
  name: "pool2"
  type: "Pooling"
  bottom: "relu2"
  top: "pool2"
  pooling_param {
    pool: MAX
    kernel_size: 3
    stride: 2
  }
}
layer {
  name: "conv3"
  type: "Convolution"
  bottom: "pool2"
  top: "conv3"
  param {
    lr_mult: 1
    decay_mult: 1
  }
  param {
    lr_mult: 2
    decay_mult: 0
  }
  convolution_param {
    num_output: 384
    pad: 1
    kernel_size: 3
    weight_filler {
      type: "gaussian"
      std: 0.01
    }
    bias_filler {
      type: "constant"
      value: 0
    }
  }
}
layer {
  name: "relu3"
  type: "ReLU"
  bottom: "conv3"
  top: "relu3"
}
layer {
  name: "conv4"
  type: "Convolution"
  bottom: "relu3"
  top: "conv4"
  param {
    lr_mult: 1
    decay_mult: 1
  }
  param {
    lr_mult: 2
    decay_mult: 0
  }
  convolution_param {
    num_output: 384
    pad: 1
    kernel_size: 3
    group: 1
    weight_filler {
      type: "gaussian"
      std: 0.01
    }
    bias_filler {
      type: "constant"
      value: 1
    }
  }
}
layer {
  name: "relu4"
  type: "ReLU"
  bottom: "conv4"
  top: "relu4"
}
layer {
  name: "conv5"
  type: "Convolution"
  bottom: "relu4"
  top: "conv5"
  param {
    lr_mult: 1
    decay_mult: 1
  }
  param {
    lr_mult: 2
    decay_mult: 0
  }
  convolution_param {
    num_output: 256
    pad: 1
    kernel_size: 3
    group: 1
    weight_filler {
      type: "gaussian"
      std: 0.01
    }
    bias_filler {
      type: "constant"
      value: 1
    }
  }
}
layer {
  name: "relu5"
  type: "ReLU"
  bottom: "conv5"
  top: "relu5"
}
layer {
  name: "pool5"
  type: "Pooling"
  bottom: "relu5"
  top: "pool5"
  pooling_param {
    pool: MAX
    kernel_size: 3
    stride: 2
  }
}
layer {
  name: "fc6"
  type: "InnerProduct"
  bottom: "pool5"
  top: "fc6"
  param {
    lr_mult: 1
    decay_mult: 1
  }
  param {
    lr_mult: 2
    decay_mult: 0
  }
  inner_product_param {
    num_output: 4096
    weight_filler {
      type: "gaussian"
      std: 0.005
    }
    bias_filler {
      type: "constant"
      value: 1
    }
  }
}
layer {
  name: "relu6"
  type: "ReLU"
  bottom: "fc6"
  top: "relu6"
}
layer {
  name: "drop6"
  type: "Dropout"
  bottom: "relu6"
  top: "drop6"
  dropout_param {
    dropout_ratio: 0.5
  }
}
layer {
  name: "fc7"
  type: "InnerProduct"
  bottom: "drop6"
  top: "fc7"
  param {
    lr_mult: 1
    decay_mult: 1
  }
  param {
    lr_mult: 2
    decay_mult: 0
  }
  inner_product_param {
    num_output: 4096
    weight_filler {
      type: "gaussian"
      std: 0.005
    }
    bias_filler {
      type: "constant"
      value: 1
    }
  }
}
layer {
  name: "bn7"
  type: "BatchNorm"
  bottom: "fc7"
  top: "bn7"
  param {
    lr_mult: 0
  }
  param {
    lr_mult: 0
  }
  param {
    lr_mult: 0
  }
  batch_norm_param {
    use_global_stats: true
  }
}
layer {
  name: "relu7"
  type: "ReLU"
  bottom: "bn7"
  top: "relu7"
}
layer {
  name: "drop7"
  type: "Dropout"
  bottom: "relu7"
  top: "drop7"
  dropout_param {
    dropout_ratio: 0.5
  }
}
layer {
  name: "fc8"
  type: "InnerProduct"
  bottom: "drop7"
  top: "fc8"
  param {
    lr_mult: 1
    decay_mult: 1
  }
  param {
    lr_mult: 2
    decay_mult: 0
  }
  inner_product_param {
    num_output: 2
    weight_filler {
      type: "gaussian"
      std: 0.01
    }
    bias_filler {
      type: "constant"
      value: 0
    }
  }
}
layer {
  name: "prob"
  type: "Softmax"
  bottom: "fc8"
  top: "prob"
}
I0108 18:22:23.860754   216 layer_factory.hpp:77] Creating layer data
I0108 18:22:23.860777   216 net.cpp:94] Creating Layer data
I0108 18:22:23.860793   216 net.cpp:409] data -> data
I0108 18:22:23.860879   216 net.cpp:144] Setting up data
I0108 18:22:23.860888   216 net.cpp:151] Top shape: 1 3 227 227 (154587)
I0108 18:22:23.860901   216 net.cpp:159] Memory required for data: 618348
I0108 18:22:23.860908   216 layer_factory.hpp:77] Creating layer conv1
I0108 18:22:23.860930   216 net.cpp:94] Creating Layer conv1
I0108 18:22:23.860939   216 net.cpp:435] conv1 <- data
I0108 18:22:23.860950   216 net.cpp:409] conv1 -> conv1
I0108 18:22:23.862574   216 net.cpp:144] Setting up conv1
I0108 18:22:23.862588   216 net.cpp:151] Top shape: 1 96 55 55 (290400)
I0108 18:22:23.862599   216 net.cpp:159] Memory required for data: 1779948
I0108 18:22:23.862617   216 layer_factory.hpp:77] Creating layer bn1
I0108 18:22:23.862632   216 net.cpp:94] Creating Layer bn1
I0108 18:22:23.862640   216 net.cpp:435] bn1 <- conv1
I0108 18:22:23.862649   216 net.cpp:409] bn1 -> bn1
I0108 18:22:23.863727   216 net.cpp:144] Setting up bn1
I0108 18:22:23.863739   216 net.cpp:151] Top shape: 1 96 55 55 (290400)
I0108 18:22:23.863749   216 net.cpp:159] Memory required for data: 2941548
I0108 18:22:23.863765   216 layer_factory.hpp:77] Creating layer relu1
I0108 18:22:23.863775   216 net.cpp:94] Creating Layer relu1
I0108 18:22:23.863781   216 net.cpp:435] relu1 <- bn1
I0108 18:22:23.863790   216 net.cpp:409] relu1 -> relu1
I0108 18:22:23.863824   216 net.cpp:144] Setting up relu1
I0108 18:22:23.863833   216 net.cpp:151] Top shape: 1 96 55 55 (290400)
I0108 18:22:23.863842   216 net.cpp:159] Memory required for data: 4103148
I0108 18:22:23.863848   216 layer_factory.hpp:77] Creating layer pool1
I0108 18:22:23.863862   216 net.cpp:94] Creating Layer pool1
I0108 18:22:23.863870   216 net.cpp:435] pool1 <- relu1
I0108 18:22:23.863878   216 net.cpp:409] pool1 -> pool1
I0108 18:22:23.863927   216 net.cpp:144] Setting up pool1
I0108 18:22:23.863936   216 net.cpp:151] Top shape: 1 96 27 27 (69984)
I0108 18:22:23.863945   216 net.cpp:159] Memory required for data: 4383084
I0108 18:22:23.863951   216 layer_factory.hpp:77] Creating layer conv2
I0108 18:22:23.863965   216 net.cpp:94] Creating Layer conv2
I0108 18:22:23.863974   216 net.cpp:435] conv2 <- pool1
I0108 18:22:23.863983   216 net.cpp:409] conv2 -> conv2
I0108 18:22:23.875407   216 net.cpp:144] Setting up conv2
I0108 18:22:23.875422   216 net.cpp:151] Top shape: 1 256 27 27 (186624)
I0108 18:22:23.875430   216 net.cpp:159] Memory required for data: 5129580
I0108 18:22:23.875442   216 layer_factory.hpp:77] Creating layer bn2
I0108 18:22:23.875452   216 net.cpp:94] Creating Layer bn2
I0108 18:22:23.875458   216 net.cpp:435] bn2 <- conv2
I0108 18:22:23.875466   216 net.cpp:409] bn2 -> bn2
I0108 18:22:23.876119   216 net.cpp:144] Setting up bn2
I0108 18:22:23.876127   216 net.cpp:151] Top shape: 1 256 27 27 (186624)
I0108 18:22:23.876133   216 net.cpp:159] Memory required for data: 5876076
I0108 18:22:23.876144   216 layer_factory.hpp:77] Creating layer relu2
I0108 18:22:23.876150   216 net.cpp:94] Creating Layer relu2
I0108 18:22:23.876155   216 net.cpp:435] relu2 <- bn2
I0108 18:22:23.876160   216 net.cpp:409] relu2 -> relu2
I0108 18:22:23.876181   216 net.cpp:144] Setting up relu2
I0108 18:22:23.876188   216 net.cpp:151] Top shape: 1 256 27 27 (186624)
I0108 18:22:23.876194   216 net.cpp:159] Memory required for data: 6622572
I0108 18:22:23.876199   216 layer_factory.hpp:77] Creating layer pool2
I0108 18:22:23.876207   216 net.cpp:94] Creating Layer pool2
I0108 18:22:23.876214   216 net.cpp:435] pool2 <- relu2
I0108 18:22:23.876219   216 net.cpp:409] pool2 -> pool2
I0108 18:22:23.876253   216 net.cpp:144] Setting up pool2
I0108 18:22:23.876261   216 net.cpp:151] Top shape: 1 256 13 13 (43264)
I0108 18:22:23.876267   216 net.cpp:159] Memory required for data: 6795628
I0108 18:22:23.876271   216 layer_factory.hpp:77] Creating layer conv3
I0108 18:22:23.876282   216 net.cpp:94] Creating Layer conv3
I0108 18:22:23.876286   216 net.cpp:435] conv3 <- pool2
I0108 18:22:23.876292   216 net.cpp:409] conv3 -> conv3
I0108 18:22:23.886709   216 net.cpp:144] Setting up conv3
I0108 18:22:23.886721   216 net.cpp:151] Top shape: 1 384 13 13 (64896)
I0108 18:22:23.886727   216 net.cpp:159] Memory required for data: 7055212
I0108 18:22:23.886734   216 layer_factory.hpp:77] Creating layer relu3
I0108 18:22:23.886740   216 net.cpp:94] Creating Layer relu3
I0108 18:22:23.886744   216 net.cpp:435] relu3 <- conv3
I0108 18:22:23.886749   216 net.cpp:409] relu3 -> relu3
I0108 18:22:23.886770   216 net.cpp:144] Setting up relu3
I0108 18:22:23.886775   216 net.cpp:151] Top shape: 1 384 13 13 (64896)
I0108 18:22:23.886781   216 net.cpp:159] Memory required for data: 7314796
I0108 18:22:23.886785   216 layer_factory.hpp:77] Creating layer conv4
I0108 18:22:23.886790   216 net.cpp:94] Creating Layer conv4
I0108 18:22:23.886793   216 net.cpp:435] conv4 <- relu3
I0108 18:22:23.886797   216 net.cpp:409] conv4 -> conv4
I0108 18:22:23.898183   216 net.cpp:144] Setting up conv4
I0108 18:22:23.898195   216 net.cpp:151] Top shape: 1 384 13 13 (64896)
I0108 18:22:23.898200   216 net.cpp:159] Memory required for data: 7574380
I0108 18:22:23.898207   216 layer_factory.hpp:77] Creating layer relu4
I0108 18:22:23.898212   216 net.cpp:94] Creating Layer relu4
I0108 18:22:23.898216   216 net.cpp:435] relu4 <- conv4
I0108 18:22:23.898221   216 net.cpp:409] relu4 -> relu4
I0108 18:22:23.898234   216 net.cpp:144] Setting up relu4
I0108 18:22:23.898237   216 net.cpp:151] Top shape: 1 384 13 13 (64896)
I0108 18:22:23.898241   216 net.cpp:159] Memory required for data: 7833964
I0108 18:22:23.898244   216 layer_factory.hpp:77] Creating layer conv5
I0108 18:22:23.898258   216 net.cpp:94] Creating Layer conv5
I0108 18:22:23.898260   216 net.cpp:435] conv5 <- relu4
I0108 18:22:23.898263   216 net.cpp:409] conv5 -> conv5
I0108 18:22:23.905716   216 net.cpp:144] Setting up conv5
I0108 18:22:23.905727   216 net.cpp:151] Top shape: 1 256 13 13 (43264)
I0108 18:22:23.905732   216 net.cpp:159] Memory required for data: 8007020
I0108 18:22:23.905740   216 layer_factory.hpp:77] Creating layer relu5
I0108 18:22:23.905745   216 net.cpp:94] Creating Layer relu5
I0108 18:22:23.905747   216 net.cpp:435] relu5 <- conv5
I0108 18:22:23.905750   216 net.cpp:409] relu5 -> relu5
I0108 18:22:23.905767   216 net.cpp:144] Setting up relu5
I0108 18:22:23.905769   216 net.cpp:151] Top shape: 1 256 13 13 (43264)
I0108 18:22:23.905772   216 net.cpp:159] Memory required for data: 8180076
I0108 18:22:23.905776   216 layer_factory.hpp:77] Creating layer pool5
I0108 18:22:23.905778   216 net.cpp:94] Creating Layer pool5
I0108 18:22:23.905781   216 net.cpp:435] pool5 <- relu5
I0108 18:22:23.905783   216 net.cpp:409] pool5 -> pool5
I0108 18:22:23.905819   216 net.cpp:144] Setting up pool5
I0108 18:22:23.905822   216 net.cpp:151] Top shape: 1 256 6 6 (9216)
I0108 18:22:23.905824   216 net.cpp:159] Memory required for data: 8216940
I0108 18:22:23.905827   216 layer_factory.hpp:77] Creating layer fc6
I0108 18:22:23.905835   216 net.cpp:94] Creating Layer fc6
I0108 18:22:23.905838   216 net.cpp:435] fc6 <- pool5
I0108 18:22:23.905840   216 net.cpp:409] fc6 -> fc6
I0108 18:22:24.201273   216 net.cpp:144] Setting up fc6
I0108 18:22:24.201295   216 net.cpp:151] Top shape: 1 4096 (4096)
I0108 18:22:24.201301   216 net.cpp:159] Memory required for data: 8233324
I0108 18:22:24.201313   216 layer_factory.hpp:77] Creating layer relu6
I0108 18:22:24.201321   216 net.cpp:94] Creating Layer relu6
I0108 18:22:24.201325   216 net.cpp:435] relu6 <- fc6
I0108 18:22:24.201330   216 net.cpp:409] relu6 -> relu6
I0108 18:22:24.201349   216 net.cpp:144] Setting up relu6
I0108 18:22:24.201351   216 net.cpp:151] Top shape: 1 4096 (4096)
I0108 18:22:24.201354   216 net.cpp:159] Memory required for data: 8249708
I0108 18:22:24.201356   216 layer_factory.hpp:77] Creating layer drop6
I0108 18:22:24.201361   216 net.cpp:94] Creating Layer drop6
I0108 18:22:24.201364   216 net.cpp:435] drop6 <- relu6
I0108 18:22:24.201367   216 net.cpp:409] drop6 -> drop6
I0108 18:22:24.201401   216 net.cpp:144] Setting up drop6
I0108 18:22:24.201406   216 net.cpp:151] Top shape: 1 4096 (4096)
I0108 18:22:24.201409   216 net.cpp:159] Memory required for data: 8266092
I0108 18:22:24.201411   216 layer_factory.hpp:77] Creating layer fc7
I0108 18:22:24.201417   216 net.cpp:94] Creating Layer fc7
I0108 18:22:24.201421   216 net.cpp:435] fc7 <- drop6
I0108 18:22:24.201423   216 net.cpp:409] fc7 -> fc7
I0108 18:22:24.333305   216 net.cpp:144] Setting up fc7
I0108 18:22:24.333328   216 net.cpp:151] Top shape: 1 4096 (4096)
I0108 18:22:24.333334   216 net.cpp:159] Memory required for data: 8282476
I0108 18:22:24.333362   216 layer_factory.hpp:77] Creating layer bn7
I0108 18:22:24.333372   216 net.cpp:94] Creating Layer bn7
I0108 18:22:24.333376   216 net.cpp:435] bn7 <- fc7
I0108 18:22:24.333382   216 net.cpp:409] bn7 -> bn7
I0108 18:22:24.333832   216 net.cpp:144] Setting up bn7
I0108 18:22:24.333838   216 net.cpp:151] Top shape: 1 4096 (4096)
I0108 18:22:24.333842   216 net.cpp:159] Memory required for data: 8298860
I0108 18:22:24.333849   216 layer_factory.hpp:77] Creating layer relu7
I0108 18:22:24.333855   216 net.cpp:94] Creating Layer relu7
I0108 18:22:24.333858   216 net.cpp:435] relu7 <- bn7
I0108 18:22:24.333863   216 net.cpp:409] relu7 -> relu7
I0108 18:22:24.333876   216 net.cpp:144] Setting up relu7
I0108 18:22:24.333881   216 net.cpp:151] Top shape: 1 4096 (4096)
I0108 18:22:24.333884   216 net.cpp:159] Memory required for data: 8315244
I0108 18:22:24.333887   216 layer_factory.hpp:77] Creating layer drop7
I0108 18:22:24.333894   216 net.cpp:94] Creating Layer drop7
I0108 18:22:24.333896   216 net.cpp:435] drop7 <- relu7
I0108 18:22:24.333899   216 net.cpp:409] drop7 -> drop7
I0108 18:22:24.333921   216 net.cpp:144] Setting up drop7
I0108 18:22:24.333926   216 net.cpp:151] Top shape: 1 4096 (4096)
I0108 18:22:24.333930   216 net.cpp:159] Memory required for data: 8331628
I0108 18:22:24.333948   216 layer_factory.hpp:77] Creating layer fc8
I0108 18:22:24.333954   216 net.cpp:94] Creating Layer fc8
I0108 18:22:24.333957   216 net.cpp:435] fc8 <- drop7
I0108 18:22:24.333962   216 net.cpp:409] fc8 -> fc8
I0108 18:22:24.334110   216 net.cpp:144] Setting up fc8
I0108 18:22:24.334115   216 net.cpp:151] Top shape: 1 2 (2)
I0108 18:22:24.334118   216 net.cpp:159] Memory required for data: 8331636
I0108 18:22:24.334123   216 layer_factory.hpp:77] Creating layer prob
I0108 18:22:24.334127   216 net.cpp:94] Creating Layer prob
I0108 18:22:24.334131   216 net.cpp:435] prob <- fc8
I0108 18:22:24.334134   216 net.cpp:409] prob -> prob
I0108 18:22:24.334180   216 net.cpp:144] Setting up prob
I0108 18:22:24.334185   216 net.cpp:151] Top shape: 1 2 (2)
I0108 18:22:24.334189   216 net.cpp:159] Memory required for data: 8331644
I0108 18:22:24.334192   216 net.cpp:222] prob does not need backward computation.
I0108 18:22:24.334195   216 net.cpp:222] fc8 does not need backward computation.
I0108 18:22:24.334198   216 net.cpp:222] drop7 does not need backward computation.
I0108 18:22:24.334201   216 net.cpp:222] relu7 does not need backward computation.
…
I0108 19:49:34.390134   346 net.cpp:323] The NetState phase (0) differed from the phase (1) specified by a rule in layer accuracy-top1
I0108 19:49:34.390138   346 net.cpp:52] Initializing net from parameters:
state {
  phase: TRAIN
}
layer {
  name: "data"
  type: "ImageData"
  top: "data"
  top: "label"
  include {
    phase: TRAIN
  }
  transform_param {
    crop_size: 227
    mean_value: 106
    mean_value: 116
    mean_value: 124
  }
  image_data_param {
    source: "deploy/alexnetBNnoLRN/quantiz/data/calib/calibration.txt"
    batch_size: 10
    shuffle: true
    root_folder: "deploy/alexnetBNnoLRN/quantiz/data/calib/"
  }
}
layer {
  name: "conv1"
  type: "Convolution"
  bottom: "data"
  top: "conv1"
  param {
    lr_mult: 1
    decay_mult: 1
  }
  param {
    lr_mult: 2
    decay_mult: 0
  }
  convolution_param {
    num_output: 96
    pad: 1
    kernel_size: 11
    stride: 4
    weight_filler {
      type: "gaussian"
      std: 0.01
    }
    bias_filler {
      type: "constant"
      value: 0
    }
  }
}
layer {
  name: "bn1"
  type: "BatchNorm"
  bottom: "conv1"
  top: "bn1"
  param {
    lr_mult: 0
  }
  param {
    lr_mult: 0
  }
  param {
    lr_mult: 0
  }
  batch_norm_param {
    use_global_stats: false
  }
}
layer {
  name: "relu1"
  type: "ReLU"
  bottom: "bn1"
  top: "relu1"
}
layer {
  name: "pool1"
  type: "Pooling"
  bottom: "relu1"
  top: "pool1"
  pooling_param {
    pool: MAX
    kernel_size: 3
    stride: 2
  }
}
layer {
  name: "conv2"
  type: "Convolution"
  bottom: "pool1"
  top: "conv2"
  param {
    lr_mult: 1
    decay_mult: 1
  }
  param {
    lr_mult: 2
    decay_mult: 0
  }
  convolution_param {
    num_output: 256
    pad: 2
    kernel_size: 5
    group: 1
    weight_filler {
      type: "gaussian"
      std: 0.01
    }
    bias_filler {
      type: "constant"
      value: 1
    }
  }
}
layer {
  name: "bn2"
  type: "BatchNorm"
  bottom: "conv2"
  top: "bn2"
  param {
    lr_mult: 0
  }
  param {
    lr_mult: 0
  }
  param {
    lr_mult: 0
  }
  batch_norm_param {
    use_global_stats: false
  }
}
layer {
  name: "relu2"
  type: "ReLU"
  bottom: "bn2"
  top: "relu2"
}
layer {
  name: "pool2"
  type: "Pooling"
  bottom: "relu2"
  top: "pool2"
  pooling_param {
    pool: MAX
    kernel_size: 3
    stride: 2
  }
}
layer {
  name: "conv3"
  type: "Convolution"
  bottom: "pool2"
  top: "conv3"
  param {
    lr_mult: 1
    decay_mult: 1
  }
  param {
    lr_mult: 2
    decay_mult: 0
  }
  convolution_param {
    num_output: 384
    pad: 1
    kernel_size: 3
    weight_filler {
      type: "gaussian"
      std: 0.01
    }
    bias_filler {
      type: "constant"
      value: 0
    }
  }
}
layer {
  name: "relu3"
  type: "ReLU"
  bottom: "conv3"
  top: "relu3"
}
layer {
  name: "conv4"
  type: "Convolution"
  bottom: "relu3"
  top: "conv4"
  param {
    lr_mult: 1
    decay_mult: 1
  }
  param {
    lr_mult: 2
    decay_mult: 0
  }
  convolution_param {
    num_output: 384
    pad: 1
    kernel_size: 3
    group: 1
    weight_filler {
      type: "gaussian"
      std: 0.01
    }
    bias_filler {
      type: "constant"
      value: 1
    }
  }
}
layer {
  name: "relu4"
  type: "ReLU"
  bottom: "conv4"
  top: "relu4"
}
layer {
  name: "conv5"
  type: "Convolution"
  bottom: "relu4"
  top: "conv5"
  param {
    lr_mult: 1
    decay_mult: 1
  }
  param {
    lr_mult: 2
    decay_mult: 0
  }
  convolution_param {
    num_output: 256
    pad: 1
    kernel_size: 3
    group: 1
    weight_filler {
      type: "gaussian"
      std: 0.01
    }
    bias_filler {
      type: "constant"
      value: 1
    }
  }
}
layer {
  name: "relu5"
  type: "ReLU"
  bottom: "conv5"
  top: "relu5"
}
layer {
  name: "pool5"
  type: "Pooling"
  bottom: "relu5"
  top: "pool5"
  pooling_param {
    pool: MAX
    kernel_size: 3
    stride: 2
  }
}
layer {
  name: "fc6"
  type: "InnerProduct"
  bottom: "pool5"
  top: "fc6"
  param {
    lr_mult: 1
    decay_mult: 1
  }
  param {
    lr_mult: 2
    decay_mult: 0
  }
  inner_product_param {
    num_output: 4096
    weight_filler {
      type: "gaussian"
      std: 0.005
    }
    bias_filler {
      type: "constant"
      value: 1
    }
  }
}
layer {
  name: "relu6"
  type: "ReLU"
  bottom: "fc6"
  top: "relu6"
}
layer {
  name: "fc7"
  type: "InnerProduct"
  bottom: "relu6"
  top: "fc7"
  param {
    lr_mult: 1
    decay_mult: 1
  }
  param {
    lr_mult: 2
    decay_mult: 0
  }
  inner_product_param {
    num_output: 4096
    weight_filler {
      type: "gaussian"
      std: 0.005
    }
    bias_filler {
      type: "constant"
      value: 1
    }
  }
}
layer {
  name: "bn7"
  type: "BatchNorm"
  bottom: "fc7"
  top: "bn7"
  param {
    lr_mult: 0
  }
  param {
    lr_mult: 0
  }
  param {
    lr_mult: 0
  }
  batch_norm_param {
    use_global_stats: false
  }
}
layer {
  name: "relu7"
  type: "ReLU"
  bottom: "bn7"
  top: "relu7"
}
layer {
  name: "fc8"
  type: "InnerProduct"
  bottom: "relu7"
  top: "fc8"
  param {
    lr_mult: 1
    decay_mult: 1
  }
  param {
    lr_mult: 2
    decay_mult: 0
  }
  inner_product_param {
    num_output: 2
    weight_filler {
      type: "gaussian"
      std: 0.01
    }
    bias_filler {
      type: "constant"
      value: 0
    }
  }
}
layer {
  name: "loss"
  type: "SoftmaxWithLoss"
  bottom: "fc8"
  bottom: "label"
  top: "loss"
}
I0108 19:49:34.390338   346 layer_factory.hpp:77] Creating layer data
I0108 19:49:34.390362   346 net.cpp:94] Creating Layer data
I0108 19:49:34.390365   346 net.cpp:409] data -> data
I0108 19:49:34.390377   346 net.cpp:409] data -> label
I0108 19:49:34.390763   346 image_data_layer.cpp:41] Opening file deploy/alexnetBNnoLRN/quantiz/data/calib/calibration.txt
I0108 19:49:34.393745   346 image_data_layer.cpp:51] Shuffling data
I0108 19:49:34.393805   346 image_data_layer.cpp:56] A total of 200 images.
I0108 19:49:34.406826   346 image_data_layer.cpp:84] output data size: 10,3,227,227
I0108 19:49:34.438076   346 internal_thread.cpp:27] Starting internal thread(s) on GPU 0
I0108 19:49:34.438148   346 net.cpp:144] Setting up data
I0108 19:49:34.438153   346 net.cpp:151] Top shape: 10 3 227 227 (1545870)
I0108 19:49:34.438161   346 net.cpp:151] Top shape: 10 (10)
I0108 19:49:34.438165   346 net.cpp:159] Memory required for data: 6183520
I0108 19:49:34.438169   346 layer_factory.hpp:77] Creating layer conv1
I0108 19:49:34.438185   346 net.cpp:94] Creating Layer conv1
I0108 19:49:34.438192   346 net.cpp:435] conv1 <- data
I0108 19:49:34.438199   346 net.cpp:409] conv1 -> conv1
I0108 19:49:34.438767   346 net.cpp:144] Setting up conv1
I0108 19:49:34.438774   346 net.cpp:151] Top shape: 10 96 55 55 (2904000)
I0108 19:49:34.438779   346 net.cpp:159] Memory required for data: 17799520
I0108 19:49:34.438800   346 layer_factory.hpp:77] Creating layer bn1
I0108 19:49:34.438807   346 net.cpp:94] Creating Layer bn1
I0108 19:49:34.438810   346 net.cpp:435] bn1 <- conv1
I0108 19:49:34.438814   346 net.cpp:409] bn1 -> bn1
I0108 19:49:34.439301   346 net.cpp:144] Setting up bn1
I0108 19:49:34.439306   346 net.cpp:151] Top shape: 10 96 55 55 (2904000)
I0108 19:49:34.439309   346 net.cpp:159] Memory required for data: 29415520
I0108 19:49:34.439317   346 layer_factory.hpp:77] Creating layer relu1
I0108 19:49:34.439322   346 net.cpp:94] Creating Layer relu1
I0108 19:49:34.439325   346 net.cpp:435] relu1 <- bn1
I0108 19:49:34.439329   346 net.cpp:409] relu1 -> relu1
I0108 19:49:34.439347   346 net.cpp:144] Setting up relu1
I0108 19:49:34.439352   346 net.cpp:151] Top shape: 10 96 55 55 (2904000)
I0108 19:49:34.439355   346 net.cpp:159] Memory required for data: 41031520
I0108 19:49:34.439358   346 layer_factory.hpp:77] Creating layer pool1
I0108 19:49:34.439380   346 net.cpp:94] Creating Layer pool1
I0108 19:49:34.439383   346 net.cpp:435] pool1 <- relu1
I0108 19:49:34.439386   346 net.cpp:409] pool1 -> pool1
I0108 19:49:34.439412   346 net.cpp:144] Setting up pool1
I0108 19:49:34.439417   346 net.cpp:151] Top shape: 10 96 27 27 (699840)
I0108 19:49:34.439421   346 net.cpp:159] Memory required for data: 43830880
I0108 19:49:34.439424   346 layer_factory.hpp:77] Creating layer conv2
I0108 19:49:34.439430   346 net.cpp:94] Creating Layer conv2
I0108 19:49:34.439433   346 net.cpp:435] conv2 <- pool1
I0108 19:49:34.439438   346 net.cpp:409] conv2 -> conv2
I0108 19:49:34.445511   346 net.cpp:144] Setting up conv2
I0108 19:49:34.445525   346 net.cpp:151] Top shape: 10 256 27 27 (1866240)
I0108 19:49:34.445531   346 net.cpp:159] Memory required for data: 51295840
I0108 19:49:34.445538   346 layer_factory.hpp:77] Creating layer bn2
I0108 19:49:34.445546   346 net.cpp:94] Creating Layer bn2
I0108 19:49:34.445549   346 net.cpp:435] bn2 <- conv2
I0108 19:49:34.445554   346 net.cpp:409] bn2 -> bn2
I0108 19:49:34.445983   346 net.cpp:144] Setting up bn2
I0108 19:49:34.445988   346 net.cpp:151] Top shape: 10 256 27 27 (1866240)
I0108 19:49:34.445993   346 net.cpp:159] Memory required for data: 58760800
I0108 19:49:34.445999   346 layer_factory.hpp:77] Creating layer relu2
I0108 19:49:34.446004   346 net.cpp:94] Creating Layer relu2
I0108 19:49:34.446007   346 net.cpp:435] relu2 <- bn2
I0108 19:49:34.446012   346 net.cpp:409] relu2 -> relu2
I0108 19:49:34.446027   346 net.cpp:144] Setting up relu2
I0108 19:49:34.446031   346 net.cpp:151] Top shape: 10 256 27 27 (1866240)
I0108 19:49:34.446035   346 net.cpp:159] Memory required for data: 66225760
I0108 19:49:34.446038   346 layer_factory.hpp:77] Creating layer pool2
I0108 19:49:34.446043   346 net.cpp:94] Creating Layer pool2
I0108 19:49:34.446046   346 net.cpp:435] pool2 <- relu2
I0108 19:49:34.446050   346 net.cpp:409] pool2 -> pool2
I0108 19:49:34.446071   346 net.cpp:144] Setting up pool2
I0108 19:49:34.446077   346 net.cpp:151] Top shape: 10 256 13 13 (432640)
I0108 19:49:34.446081   346 net.cpp:159] Memory required for data: 67956320
I0108 19:49:34.446084   346 layer_factory.hpp:77] Creating layer conv3
I0108 19:49:34.446091   346 net.cpp:94] Creating Layer conv3
I0108 19:49:34.446094   346 net.cpp:435] conv3 <- pool2
I0108 19:49:34.446099   346 net.cpp:409] conv3 -> conv3
I0108 19:49:34.454066   346 net.cpp:144] Setting up conv3
I0108 19:49:34.454078   346 net.cpp:151] Top shape: 10 384 13 13 (648960)
I0108 19:49:34.454084   346 net.cpp:159] Memory required for data: 70552160
I0108 19:49:34.454090   346 layer_factory.hpp:77] Creating layer relu3
I0108 19:49:34.454097   346 net.cpp:94] Creating Layer relu3
I0108 19:49:34.454100   346 net.cpp:435] relu3 <- conv3
I0108 19:49:34.454104   346 net.cpp:409] relu3 -> relu3
I0108 19:49:34.454121   346 net.cpp:144] Setting up relu3
I0108 19:49:34.454125   346 net.cpp:151] Top shape: 10 384 13 13 (648960)
I0108 19:49:34.454129   346 net.cpp:159] Memory required for data: 73148000
I0108 19:49:34.454131   346 layer_factory.hpp:77] Creating layer conv4
I0108 19:49:34.454138   346 net.cpp:94] Creating Layer conv4
I0108 19:49:34.454140   346 net.cpp:435] conv4 <- relu3
I0108 19:49:34.454144   346 net.cpp:409] conv4 -> conv4
I0108 19:49:34.465184   346 net.cpp:144] Setting up conv4
I0108 19:49:34.465196   346 net.cpp:151] Top shape: 10 384 13 13 (648960)
I0108 19:49:34.465202   346 net.cpp:159] Memory required for data: 75743840
I0108 19:49:34.465210   346 layer_factory.hpp:77] Creating layer relu4
I0108 19:49:34.465216   346 net.cpp:94] Creating Layer relu4
I0108 19:49:34.465219   346 net.cpp:435] relu4 <- conv4
I0108 19:49:34.465224   346 net.cpp:409] relu4 -> relu4
I0108 19:49:34.465240   346 net.cpp:144] Setting up relu4
I0108 19:49:34.465242   346 net.cpp:151] Top shape: 10 384 13 13 (648960)
I0108 19:49:34.465245   346 net.cpp:159] Memory required for data: 78339680
I0108 19:49:34.465248   346 layer_factory.hpp:77] Creating layer conv5
I0108 19:49:34.465255   346 net.cpp:94] Creating Layer conv5
I0108 19:49:34.465256   346 net.cpp:435] conv5 <- relu4
I0108 19:49:34.465260   346 net.cpp:409] conv5 -> conv5
I0108 19:49:34.472837   346 net.cpp:144] Setting up conv5
I0108 19:49:34.472849   346 net.cpp:151] Top shape: 10 256 13 13 (432640)
I0108 19:49:34.472854   346 net.cpp:159] Memory required for data: 80070240
I0108 19:49:34.472860   346 layer_factory.hpp:77] Creating layer relu5
I0108 19:49:34.472882   346 net.cpp:94] Creating Layer relu5
I0108 19:49:34.472885   346 net.cpp:435] relu5 <- conv5
I0108 19:49:34.472889   346 net.cpp:409] relu5 -> relu5
I0108 19:49:34.472905   346 net.cpp:144] Setting up relu5
I0108 19:49:34.472908   346 net.cpp:151] Top shape: 10 256 13 13 (432640)
I0108 19:49:34.472910   346 net.cpp:159] Memory required for data: 81800800
I0108 19:49:34.472913   346 layer_factory.hpp:77] Creating layer pool5
I0108 19:49:34.472918   346 net.cpp:94] Creating Layer pool5
I0108 19:49:34.472920   346 net.cpp:435] pool5 <- relu5
I0108 19:49:34.472923   346 net.cpp:409] pool5 -> pool5
I0108 19:49:34.472942   346 net.cpp:144] Setting up pool5
I0108 19:49:34.472947   346 net.cpp:151] Top shape: 10 256 6 6 (92160)
I0108 19:49:34.472950   346 net.cpp:159] Memory required for data: 82169440
I0108 19:49:34.472954   346 layer_factory.hpp:77] Creating layer fc6
I0108 19:49:34.472966   346 net.cpp:94] Creating Layer fc6
I0108 19:49:34.472971   346 net.cpp:435] fc6 <- pool5
I0108 19:49:34.472975   346 net.cpp:409] fc6 -> fc6
I0108 19:49:34.773818   346 net.cpp:144] Setting up fc6
I0108 19:49:34.773838   346 net.cpp:151] Top shape: 10 4096 (40960)
I0108 19:49:34.773844   346 net.cpp:159] Memory required for data: 82333280
I0108 19:49:34.773869   346 layer_factory.hpp:77] Creating layer relu6
I0108 19:49:34.773876   346 net.cpp:94] Creating Layer relu6
I0108 19:49:34.773880   346 net.cpp:435] relu6 <- fc6
I0108 19:49:34.773885   346 net.cpp:409] relu6 -> relu6
I0108 19:49:34.773908   346 net.cpp:144] Setting up relu6
I0108 19:49:34.773911   346 net.cpp:151] Top shape: 10 4096 (40960)
I0108 19:49:34.773913   346 net.cpp:159] Memory required for data: 82497120
I0108 19:49:34.773916   346 layer_factory.hpp:77] Creating layer fc7
I0108 19:49:34.773922   346 net.cpp:94] Creating Layer fc7
I0108 19:49:34.773926   346 net.cpp:435] fc7 <- relu6
I0108 19:49:34.773928   346 net.cpp:409] fc7 -> fc7
I0108 19:49:34.907919   346 net.cpp:144] Setting up fc7
I0108 19:49:34.907938   346 net.cpp:151] Top shape: 10 4096 (40960)
I0108 19:49:34.907944   346 net.cpp:159] Memory required for data: 82660960
I0108 19:49:34.907953   346 layer_factory.hpp:77] Creating layer bn7
I0108 19:49:34.907963   346 net.cpp:94] Creating Layer bn7
I0108 19:49:34.907968   346 net.cpp:435] bn7 <- fc7
I0108 19:49:34.907974   346 net.cpp:409] bn7 -> bn7
I0108 19:49:34.908390   346 net.cpp:144] Setting up bn7
I0108 19:49:34.908396   346 net.cpp:151] Top shape: 10 4096 (40960)
I0108 19:49:34.908416   346 net.cpp:159] Memory required for data: 82824800
I0108 19:49:34.908421   346 layer_factory.hpp:77] Creating layer relu7
I0108 19:49:34.908427   346 net.cpp:94] Creating Layer relu7
I0108 19:49:34.908429   346 net.cpp:435] relu7 <- bn7
I0108 19:49:34.908432   346 net.cpp:409] relu7 -> relu7
I0108 19:49:34.908447   346 net.cpp:144] Setting up relu7
I0108 19:49:34.908452   346 net.cpp:151] Top shape: 10 4096 (40960)
I0108 19:49:34.908454   346 net.cpp:159] Memory required for data: 82988640
I0108 19:49:34.908457   346 layer_factory.hpp:77] Creating layer fc8
I0108 19:49:34.908463   346 net.cpp:94] Creating Layer fc8
I0108 19:49:34.908466   346 net.cpp:435] fc8 <- relu7
I0108 19:49:34.908470   346 net.cpp:409] fc8 -> fc8
I0108 19:49:34.908628   346 net.cpp:144] Setting up fc8
I0108 19:49:34.908634   346 net.cpp:151] Top shape: 10 2 (20)
I0108 19:49:34.908638   346 net.cpp:159] Memory required for data: 82988720
I0108 19:49:34.908641   346 layer_factory.hpp:77] Creating layer loss
I0108 19:49:34.908653   346 net.cpp:94] Creating Layer loss
I0108 19:49:34.908656   346 net.cpp:435] loss <- fc8
I0108 19:49:34.908660   346 net.cpp:435] loss <- label
I0108 19:49:34.908664   346 net.cpp:409] loss -> loss
I0108 19:49:34.908674   346 layer_factory.hpp:77] Creating layer loss
…
I0108 19:49:35.903800   346 net.cpp:323] The NetState phase (0) differed from the phase (1) specified by a rule in layer accuracy-top1
I0108 19:49:35.903803   346 net.cpp:52] Initializing net from parameters:
state {
  phase: TRAIN
}
layer {
  name: "data"
  type: "ImageData"
  top: "data"
  top: "label"
  include {
    phase: TRAIN
  }
  transform_param {
    crop_size: 227
    mean_value: 106
    mean_value: 116
    mean_value: 124
  }
  image_data_param {
    source: "deploy/alexnetBNnoLRN/quantiz/data/calib/calibration.txt"
    batch_size: 10
    shuffle: true
    root_folder: "deploy/alexnetBNnoLRN/quantiz/data/calib/"
  }
}
layer {
  name: "data_fixed"
  type: "FixedNeuron"
  bottom: "data"
  top: "data"
  param {
    lr_mult: 0
    decay_mult: 0
  }
  fixed_param {
    fixed_method: OVER_FLOW
    bit_width: 8
    follow_data_layer: true
  }
}
layer {
  name: "conv1"
  type: "ConvolutionFixed"
  bottom: "data"
  top: "bn1"
  param {
    lr_mult: 1
    decay_mult: 1
  }
  param {
    lr_mult: 1
    decay_mult: 0
  }
  convolution_param {
    num_output: 96
    bias_term: true
    pad: 1
    kernel_size: 11
    stride: 4
    weight_filler {
      type: "gaussian"
      std: 0.01
    }
    bias_filler {
      type: "constant"
      value: 0
    }
  }
  fixed_param {
    fixed_method: DIFF_S
    bit_width: 8
  }
}
layer {
  name: "relu1"
  type: "ReLU"
  bottom: "bn1"
  top: "relu1"
}
layer {
  name: "pool1"
  type: "Pooling"
  bottom: "relu1"
  top: "pool1"
  pooling_param {
    pool: MAX
    kernel_size: 3
    stride: 2
  }
}
layer {
  name: "pool1_fixed"
  type: "FixedNeuron"
  bottom: "pool1"
  top: "pool1"
  param {
    lr_mult: 0
    decay_mult: 0
  }
  fixed_param {
    fixed_method: DIFF_S
    bit_width: 8
  }
}
layer {
  name: "conv2"
  type: "ConvolutionFixed"
  bottom: "pool1"
  top: "bn2"
  param {
    lr_mult: 1
    decay_mult: 1
  }
  param {
    lr_mult: 1
    decay_mult: 0
  }
  convolution_param {
    num_output: 256
    bias_term: true
    pad: 2
    kernel_size: 5
    group: 1
    weight_filler {
      type: "gaussian"
      std: 0.01
    }
    bias_filler {
      type: "constant"
      value: 1
    }
  }
  fixed_param {
    fixed_method: DIFF_S
    bit_width: 8
  }
}
layer {
  name: "relu2"
  type: "ReLU"
  bottom: "bn2"
  top: "relu2"
}
layer {
  name: "pool2"
  type: "Pooling"
  bottom: "relu2"
  top: "pool2"
  pooling_param {
    pool: MAX
    kernel_size: 3
    stride: 2
  }
}
layer {
  name: "pool2_fixed"
  type: "FixedNeuron"
  bottom: "pool2"
  top: "pool2"
  param {
    lr_mult: 0
    decay_mult: 0
  }
  fixed_param {
    fixed_method: DIFF_S
    bit_width: 8
  }
}
layer {
  name: "conv3"
  type: "ConvolutionFixed"
  bottom: "pool2"
  top: "conv3"
  param {
    lr_mult: 1
    decay_mult: 1
  }
  param {
    lr_mult: 2
    decay_mult: 0
  }
  convolution_param {
    num_output: 384
    pad: 1
    kernel_size: 3
    weight_filler {
      type: "gaussian"
      std: 0.01
    }
    bias_filler {
      type: "constant"
      value: 0
    }
  }
  fixed_param {
    fixed_method: DIFF_S
    bit_width: 8
  }
}
layer {
  name: "relu3"
  type: "ReLU"
  bottom: "conv3"
  top: "relu3"
}
layer {
  name: "relu3_fixed"
  type: "FixedNeuron"
  bottom: "relu3"
  top: "relu3"
  param {
    lr_mult: 0
    decay_mult: 0
  }
  fixed_param {
    fixed_method: DIFF_S
    bit_width: 8
  }
}
layer {
  name: "conv4"
  type: "ConvolutionFixed"
  bottom: "relu3"
  top: "conv4"
  param {
    lr_mult: 1
    decay_mult: 1
  }
  param {
    lr_mult: 2
    decay_mult: 0
  }
  convolution_param {
    num_output: 384
    pad: 1
    kernel_size: 3
    group: 1
    weight_filler {
      type: "gaussian"
      std: 0.01
    }
    bias_filler {
      type: "constant"
      value: 1
    }
  }
  fixed_param {
    fixed_method: DIFF_S
    bit_width: 8
  }
}
layer {
  name: "relu4"
  type: "ReLU"
  bottom: "conv4"
  top: "relu4"
}
layer {
  name: "relu4_fixed"
  type: "FixedNeuron"
  bottom: "relu4"
  top: "relu4"
  param {
    lr_mult: 0
    decay_mult: 0
  }
  fixed_param {
    fixed_method: DIFF_S
    bit_width: 8
  }
}
layer {
  name: "conv5"
  type: "ConvolutionFixed"
  bottom: "relu4"
  top: "conv5"
  param {
    lr_mult: 1
    decay_mult: 1
  }
  param {
    lr_mult: 2
    decay_mult: 0
  }
  convolution_param {
    num_output: 256
    pad: 1
    kernel_size: 3
    group: 1
    weight_filler {
      type: "gaussian"
      std: 0.01
    }
    bias_filler {
      type: "constant"
      value: 1
    }
  }
  fixed_param {
    fixed_method: DIFF_S
    bit_width: 8
  }
}
layer {
  name: "relu5"
  type: "ReLU"
  bottom: "conv5"
  top: "relu5"
}
layer {
  name: "pool5"
  type: "Pooling"
  bottom: "relu5"
  top: "pool5"
  pooling_param {
    pool: MAX
    kernel_size: 3
    stride: 2
  }
}
layer {
  name: "pool5_fixed"
  type: "FixedNeuron"
  bottom: "pool5"
  top: "pool5"
  param {
    lr_mult: 0
    decay_mult: 0
  }
  fixed_param {
    fixed_method: DIFF_S
    bit_width: 8
  }
}
layer {
  name: "fc6"
  type: "InnerProductFixed"
  bottom: "pool5"
  top: "fc6"
  param {
    lr_mult: 1
    decay_mult: 1
  }
  param {
    lr_mult: 2
    decay_mult: 0
  }
  inner_product_param {
    num_output: 4096
    weight_filler {
      type: "gaussian"
      std: 0.005
    }
    bias_filler {
      type: "constant"
      value: 1
    }
  }
  fixed_param {
    fixed_method: DIFF_S
    bit_width: 8
  }
}
layer {
  name: "relu6"
  type: "ReLU"
  bottom: "fc6"
  top: "relu6"
}
layer {
  name: "relu6_fixed"
  type: "FixedNeuron"
  bottom: "relu6"
  top: "relu6"
  param {
    lr_mult: 0
    decay_mult: 0
  }
  fixed_param {
    fixed_method: DIFF_S
    bit_width: 8
  }
}
layer {
  name: "fc7"
  type: "InnerProductFixed"
  bottom: "relu6"
  top: "bn7"
  param {
    lr_mult: 1
    decay_mult: 1
  }
  param {
    lr_mult: 1
    decay_mult: 0
  }
  inner_product_param {
    num_output: 4096
    bias_term: true
    weight_filler {
      type: "gaussian"
      std: 0.005
    }
    bias_filler {
      type: "constant"
      value: 1
    }
  }
  fixed_param {
    fixed_method: DIFF_S
    bit_width: 8
  }
}
layer {
  name: "relu7"
  type: "ReLU"
  bottom: "bn7"
  top: "relu7"
}
layer {
  name: "relu7_fixed"
  type: "FixedNeuron"
  bottom: "relu7"
  top: "relu7"
  param {
    lr_mult: 0
    decay_mult: 0
  }
  fixed_param {
    fixed_method: DIFF_S
    bit_width: 8
  }
}
layer {
  name: "fc8"
  type: "InnerProductFixed"
  bottom: "relu7"
  top: "fc8"
  param {
    lr_mult: 1
    decay_mult: 1
  }
  param {
    lr_mult: 2
    decay_mult: 0
  }
  inner_product_param {
    num_output: 2
    weight_filler {
      type: "gaussian"
      std: 0.01
    }
    bias_filler {
      type: "constant"
      value: 0
    }
  }
  fixed_param {
    fixed_method: DIFF_S
    bit_width: 8
  }
}
layer {
  name: "fc8_fixed"
  type: "FixedNeuron"
  bottom: "fc8"
  top: "fc8"
  param {
    lr_mult: 0
    decay_mult: 0
  }
  fixed_param {
    fixed_method: DIFF_S
    bit_width: 8
  }
}
layer {
  name: "loss"
  type: "SoftmaxWithLoss"
  bottom: "fc8"
  bottom: "label"
  top: "loss"
}
I0108 19:49:35.903970   346 layer_factory.hpp:77] Creating layer data
I0108 19:49:35.903985   346 net.cpp:94] Creating Layer data
I0108 19:49:35.903990   346 net.cpp:409] data -> data
I0108 19:49:35.903995   346 net.cpp:409] data -> label
I0108 19:49:35.904004   346 image_data_layer.cpp:41] Opening file deploy/alexnetBNnoLRN/quantiz/data/calib/calibration.txt
I0108 19:49:35.904090   346 image_data_layer.cpp:51] Shuffling data
I0108 19:49:35.904103   346 image_data_layer.cpp:56] A total of 200 images.
I0108 19:49:35.905489   346 image_data_layer.cpp:84] output data size: 10,3,227,227
I0108 19:49:35.927109   346 internal_thread.cpp:27] Starting internal thread(s) on GPU 0
I0108 19:49:35.927167   346 net.cpp:144] Setting up data
I0108 19:49:35.927172   346 net.cpp:151] Top shape: 10 3 227 227 (1545870)
I0108 19:49:35.927181   346 net.cpp:151] Top shape: 10 (10)
I0108 19:49:35.927184   346 net.cpp:159] Memory required for data: 6183520
I0108 19:49:35.927188   346 layer_factory.hpp:77] Creating layer data_fixed
I0108 19:49:35.927206   346 net.cpp:94] Creating Layer data_fixed
I0108 19:49:35.927209   346 net.cpp:435] data_fixed <- data
I0108 19:49:35.927215   346 net.cpp:396] data_fixed -> data (in-place)
I0108 19:49:35.927314   346 net.cpp:144] Setting up data_fixed
I0108 19:49:35.927320   346 net.cpp:151] Top shape: 10 3 227 227 (1545870)
I0108 19:49:35.927323   346 net.cpp:159] Memory required for data: 12367000
I0108 19:49:35.927332   346 layer_factory.hpp:77] Creating layer conv1
I0108 19:49:35.927356   346 net.cpp:94] Creating Layer conv1
I0108 19:49:35.927376   346 net.cpp:435] conv1 <- data
I0108 19:49:35.927379   346 net.cpp:409] conv1 -> bn1
I0108 19:49:35.927866   346 layer_factory.hpp:77] Creating layer conv1
I0108 19:49:35.928390   346 net.cpp:144] Setting up conv1
I0108 19:49:35.928395   346 net.cpp:151] Top shape: 10 96 55 55 (2904000)
I0108 19:49:35.928400   346 net.cpp:159] Memory required for data: 23983000
I0108 19:49:35.928409   346 layer_factory.hpp:77] Creating layer relu1
I0108 19:49:35.928426   346 net.cpp:94] Creating Layer relu1
I0108 19:49:35.928428   346 net.cpp:435] relu1 <- bn1
I0108 19:49:35.928432   346 net.cpp:409] relu1 -> relu1
I0108 19:49:35.928448   346 net.cpp:144] Setting up relu1
I0108 19:49:35.928450   346 net.cpp:151] Top shape: 10 96 55 55 (2904000)
I0108 19:49:35.928454   346 net.cpp:159] Memory required for data: 35599000
I0108 19:49:35.928457   346 layer_factory.hpp:77] Creating layer pool1
I0108 19:49:35.928463   346 net.cpp:94] Creating Layer pool1
I0108 19:49:35.928465   346 net.cpp:435] pool1 <- relu1
I0108 19:49:35.928469   346 net.cpp:409] pool1 -> pool1
I0108 19:49:35.928491   346 net.cpp:144] Setting up pool1
I0108 19:49:35.928495   346 net.cpp:151] Top shape: 10 96 27 27 (699840)
I0108 19:49:35.928499   346 net.cpp:159] Memory required for data: 38398360
I0108 19:49:35.928519   346 layer_factory.hpp:77] Creating layer pool1_fixed
I0108 19:49:35.928524   346 net.cpp:94] Creating Layer pool1_fixed
I0108 19:49:35.928526   346 net.cpp:435] pool1_fixed <- pool1
I0108 19:49:35.928531   346 net.cpp:396] pool1_fixed -> pool1 (in-place)
I0108 19:49:35.928551   346 net.cpp:144] Setting up pool1_fixed
I0108 19:49:35.928555   346 net.cpp:151] Top shape: 10 96 27 27 (699840)
I0108 19:49:35.928560   346 net.cpp:159] Memory required for data: 41197720
I0108 19:49:35.928565   346 layer_factory.hpp:77] Creating layer conv2
I0108 19:49:35.928570   346 net.cpp:94] Creating Layer conv2
I0108 19:49:35.928573   346 net.cpp:435] conv2 <- pool1
I0108 19:49:35.928578   346 net.cpp:409] conv2 -> bn2
I0108 19:49:35.934391   346 layer_factory.hpp:77] Creating layer conv2
I0108 19:49:35.940013   346 net.cpp:144] Setting up conv2
I0108 19:49:35.940026   346 net.cpp:151] Top shape: 10 256 27 27 (1866240)
I0108 19:49:35.940032   346 net.cpp:159] Memory required for data: 48662680
I0108 19:49:35.940055   346 layer_factory.hpp:77] Creating layer relu2
I0108 19:49:35.940060   346 net.cpp:94] Creating Layer relu2
I0108 19:49:35.940063   346 net.cpp:435] relu2 <- bn2
I0108 19:49:35.940068   346 net.cpp:409] relu2 -> relu2
I0108 19:49:35.940081   346 net.cpp:144] Setting up relu2
I0108 19:49:35.940083   346 net.cpp:151] Top shape: 10 256 27 27 (1866240)
I0108 19:49:35.940086   346 net.cpp:159] Memory required for data: 56127640
I0108 19:49:35.940089   346 layer_factory.hpp:77] Creating layer pool2
I0108 19:49:35.940094   346 net.cpp:94] Creating Layer pool2
I0108 19:49:35.940097   346 net.cpp:435] pool2 <- relu2
I0108 19:49:35.940100   346 net.cpp:409] pool2 -> pool2
I0108 19:49:35.940119   346 net.cpp:144] Setting up pool2
I0108 19:49:35.940124   346 net.cpp:151] Top shape: 10 256 13 13 (432640)
I0108 19:49:35.940129   346 net.cpp:159] Memory required for data: 57858200
I0108 19:49:35.940130   346 layer_factory.hpp:77] Creating layer pool2_fixed
I0108 19:49:35.940136   346 net.cpp:94] Creating Layer pool2_fixed
I0108 19:49:35.940138   346 net.cpp:435] pool2_fixed <- pool2
I0108 19:49:35.940142   346 net.cpp:396] pool2_fixed -> pool2 (in-place)
I0108 19:49:35.940160   346 net.cpp:144] Setting up pool2_fixed
I0108 19:49:35.940163   346 net.cpp:151] Top shape: 10 256 13 13 (432640)
I0108 19:49:35.940166   346 net.cpp:159] Memory required for data: 59588760
I0108 19:49:35.940169   346 layer_factory.hpp:77] Creating layer conv3
I0108 19:49:35.940176   346 net.cpp:94] Creating Layer conv3
I0108 19:49:35.940178   346 net.cpp:435] conv3 <- pool2
I0108 19:49:35.940181   346 net.cpp:409] conv3 -> conv3
I0108 19:49:35.947952   346 layer_factory.hpp:77] Creating layer conv3
I0108 19:49:35.955802   346 net.cpp:144] Setting up conv3
I0108 19:49:35.955816   346 net.cpp:151] Top shape: 10 384 13 13 (648960)
I0108 19:49:35.955821   346 net.cpp:159] Memory required for data: 62184600
I0108 19:49:35.955830   346 layer_factory.hpp:77] Creating layer relu3
I0108 19:49:35.955835   346 net.cpp:94] Creating Layer relu3
I0108 19:49:35.955838   346 net.cpp:435] relu3 <- conv3
I0108 19:49:35.955842   346 net.cpp:409] relu3 -> relu3
I0108 19:49:35.955857   346 net.cpp:144] Setting up relu3
I0108 19:49:35.955858   346 net.cpp:151] Top shape: 10 384 13 13 (648960)
I0108 19:49:35.955862   346 net.cpp:159] Memory required for data: 64780440
I0108 19:49:35.955864   346 layer_factory.hpp:77] Creating layer relu3_fixed
I0108 19:49:35.955868   346 net.cpp:94] Creating Layer relu3_fixed
I0108 19:49:35.955871   346 net.cpp:435] relu3_fixed <- relu3
I0108 19:49:35.955874   346 net.cpp:396] relu3_fixed -> relu3 (in-place)
I0108 19:49:35.955907   346 net.cpp:144] Setting up relu3_fixed
I0108 19:49:35.955909   346 net.cpp:151] Top shape: 10 384 13 13 (648960)
I0108 19:49:35.955914   346 net.cpp:159] Memory required for data: 67376280
I0108 19:49:35.955916   346 layer_factory.hpp:77] Creating layer conv4
I0108 19:49:35.955922   346 net.cpp:94] Creating Layer conv4
I0108 19:49:35.955925   346 net.cpp:435] conv4 <- relu3
I0108 19:49:35.955929   346 net.cpp:409] conv4 -> conv4
I0108 19:49:35.967362   346 layer_factory.hpp:77] Creating layer conv4
I0108 19:49:35.979430   346 net.cpp:144] Setting up conv4
I0108 19:49:35.979444   346 net.cpp:151] Top shape: 10 384 13 13 (648960)
I0108 19:49:35.979457   346 net.cpp:159] Memory required for data: 69972120
I0108 19:49:35.979482   346 layer_factory.hpp:77] Creating layer relu4
I0108 19:49:35.979488   346 net.cpp:94] Creating Layer relu4
I0108 19:49:35.979492   346 net.cpp:435] relu4 <- conv4
I0108 19:49:35.979497   346 net.cpp:409] relu4 -> relu4
I0108 19:49:35.979511   346 net.cpp:144] Setting up relu4
I0108 19:49:35.979513   346 net.cpp:151] Top shape: 10 384 13 13 (648960)
I0108 19:49:35.979517   346 net.cpp:159] Memory required for data: 72567960
I0108 19:49:35.979519   346 layer_factory.hpp:77] Creating layer relu4_fixed
I0108 19:49:35.979524   346 net.cpp:94] Creating Layer relu4_fixed
I0108 19:49:35.979526   346 net.cpp:435] relu4_fixed <- relu4
I0108 19:49:35.979530   346 net.cpp:396] relu4_fixed -> relu4 (in-place)
I0108 19:49:35.979548   346 net.cpp:144] Setting up relu4_fixed
I0108 19:49:35.979552   346 net.cpp:151] Top shape: 10 384 13 13 (648960)
I0108 19:49:35.979555   346 net.cpp:159] Memory required for data: 75163800
I0108 19:49:35.979558   346 layer_factory.hpp:77] Creating layer conv5
I0108 19:49:35.979566   346 net.cpp:94] Creating Layer conv5
I0108 19:49:35.979569   346 net.cpp:435] conv5 <- relu4
I0108 19:49:35.979573   346 net.cpp:409] conv5 -> conv5
I0108 19:49:35.987439   346 layer_factory.hpp:77] Creating layer conv5
I0108 19:49:35.995756   346 net.cpp:144] Setting up conv5
I0108 19:49:35.995769   346 net.cpp:151] Top shape: 10 256 13 13 (432640)
I0108 19:49:35.995776   346 net.cpp:159] Memory required for data: 76894360
I0108 19:49:35.995784   346 layer_factory.hpp:77] Creating layer relu5
I0108 19:49:35.995790   346 net.cpp:94] Creating Layer relu5
I0108 19:49:35.995793   346 net.cpp:435] relu5 <- conv5
I0108 19:49:35.995800   346 net.cpp:409] relu5 -> relu5
I0108 19:49:35.995813   346 net.cpp:144] Setting up relu5
I0108 19:49:35.995815   346 net.cpp:151] Top shape: 10 256 13 13 (432640)
I0108 19:49:35.995818   346 net.cpp:159] Memory required for data: 78624920
I0108 19:49:35.995821   346 layer_factory.hpp:77] Creating layer pool5
I0108 19:49:35.995826   346 net.cpp:94] Creating Layer pool5
I0108 19:49:35.995828   346 net.cpp:435] pool5 <- relu5
I0108 19:49:35.995831   346 net.cpp:409] pool5 -> pool5
I0108 19:49:35.995851   346 net.cpp:144] Setting up pool5
I0108 19:49:35.995855   346 net.cpp:151] Top shape: 10 256 6 6 (92160)
I0108 19:49:35.995859   346 net.cpp:159] Memory required for data: 78993560
I0108 19:49:35.995862   346 layer_factory.hpp:77] Creating layer pool5_fixed
I0108 19:49:35.995867   346 net.cpp:94] Creating Layer pool5_fixed
I0108 19:49:35.995868   346 net.cpp:435] pool5_fixed <- pool5
I0108 19:49:35.995872   346 net.cpp:396] pool5_fixed -> pool5 (in-place)
I0108 19:49:35.995890   346 net.cpp:144] Setting up pool5_fixed
I0108 19:49:35.995894   346 net.cpp:151] Top shape: 10 256 6 6 (92160)
I0108 19:49:35.995898   346 net.cpp:159] Memory required for data: 79362200
I0108 19:49:35.995900   346 layer_factory.hpp:77] Creating layer fc6
I0108 19:49:35.995905   346 net.cpp:94] Creating Layer fc6
I0108 19:49:35.995908   346 net.cpp:435] fc6 <- pool5
I0108 19:49:35.995911   346 net.cpp:409] fc6 -> fc6
I0108 19:49:36.298830   346 layer_factory.hpp:77] Creating layer fc6
I0108 19:49:36.594101   346 net.cpp:144] Setting up fc6
I0108 19:49:36.594125   346 net.cpp:151] Top shape: 10 4096 (40960)
I0108 19:49:36.594130   346 net.cpp:159] Memory required for data: 79526040
I0108 19:49:36.594158   346 layer_factory.hpp:77] Creating layer relu6
I0108 19:49:36.594166   346 net.cpp:94] Creating Layer relu6
I0108 19:49:36.594168   346 net.cpp:435] relu6 <- fc6
I0108 19:49:36.594174   346 net.cpp:409] relu6 -> relu6
I0108 19:49:36.594192   346 net.cpp:144] Setting up relu6
I0108 19:49:36.594194   346 net.cpp:151] Top shape: 10 4096 (40960)
I0108 19:49:36.594197   346 net.cpp:159] Memory required for data: 79689880
I0108 19:49:36.594199   346 layer_factory.hpp:77] Creating layer relu6_fixed
I0108 19:49:36.594206   346 net.cpp:94] Creating Layer relu6_fixed
I0108 19:49:36.594209   346 net.cpp:435] relu6_fixed <- relu6
I0108 19:49:36.594213   346 net.cpp:396] relu6_fixed -> relu6 (in-place)
I0108 19:49:36.594229   346 net.cpp:144] Setting up relu6_fixed
I0108 19:49:36.594234   346 net.cpp:151] Top shape: 10 4096 (40960)
I0108 19:49:36.594238   346 net.cpp:159] Memory required for data: 79853720
I0108 19:49:36.594240   346 layer_factory.hpp:77] Creating layer fc7
I0108 19:49:36.594254   346 net.cpp:94] Creating Layer fc7
I0108 19:49:36.594256   346 net.cpp:435] fc7 <- relu6
I0108 19:49:36.594259   346 net.cpp:409] fc7 -> bn7
I0108 19:49:36.730239   346 layer_factory.hpp:77] Creating layer fc7
I0108 19:49:36.862727   346 net.cpp:144] Setting up fc7
I0108 19:49:36.862751   346 net.cpp:151] Top shape: 10 4096 (40960)
I0108 19:49:36.862756   346 net.cpp:159] Memory required for data: 80017560
I0108 19:49:36.862782   346 layer_factory.hpp:77] Creating layer relu7
I0108 19:49:36.862789   346 net.cpp:94] Creating Layer relu7
I0108 19:49:36.862793   346 net.cpp:435] relu7 <- bn7
I0108 19:49:36.862798   346 net.cpp:409] relu7 -> relu7
I0108 19:49:36.862818   346 net.cpp:144] Setting up relu7
I0108 19:49:36.862819   346 net.cpp:151] Top shape: 10 4096 (40960)
I0108 19:49:36.862823   346 net.cpp:159] Memory required for data: 80181400
I0108 19:49:36.862825   346 layer_factory.hpp:77] Creating layer relu7_fixed
I0108 19:49:36.862831   346 net.cpp:94] Creating Layer relu7_fixed
I0108 19:49:36.862833   346 net.cpp:435] relu7_fixed <- relu7
I0108 19:49:36.862836   346 net.cpp:396] relu7_fixed -> relu7 (in-place)
I0108 19:49:36.862855   346 net.cpp:144] Setting up relu7_fixed
I0108 19:49:36.862859   346 net.cpp:151] Top shape: 10 4096 (40960)
I0108 19:49:36.862862   346 net.cpp:159] Memory required for data: 80345240
I0108 19:49:36.862865   346 layer_factory.hpp:77] Creating layer fc8
I0108 19:49:36.862871   346 net.cpp:94] Creating Layer fc8
I0108 19:49:36.862874   346 net.cpp:435] fc8 <- relu7
I0108 19:49:36.862877   346 net.cpp:409] fc8 -> fc8
I0108 19:49:36.862996   346 layer_factory.hpp:77] Creating layer fc8
I0108 19:49:36.863150   346 net.cpp:144] Setting up fc8
I0108 19:49:36.863155   346 net.cpp:151] Top shape: 10 2 (20)
I0108 19:49:36.863158   346 net.cpp:159] Memory required for data: 80345320
I0108 19:49:36.863162   346 layer_factory.hpp:77] Creating layer fc8_fixed
I0108 19:49:36.863168   346 net.cpp:94] Creating Layer fc8_fixed
I0108 19:49:36.863169   346 net.cpp:435] fc8_fixed <- fc8
I0108 19:49:36.863173   346 net.cpp:396] fc8_fixed -> fc8 (in-place)
I0108 19:49:36.863193   346 net.cpp:144] Setting up fc8_fixed
I0108 19:49:36.863196   346 net.cpp:151] Top shape: 10 2 (20)
I0108 19:49:36.863199   346 net.cpp:159] Memory required for data: 80345400
I0108 19:49:36.863204   346 layer_factory.hpp:77] Creating layer loss
I0108 19:49:36.863209   346 net.cpp:94] Creating Layer loss
I0108 19:49:36.863210   346 net.cpp:435] loss <- fc8
I0108 19:49:36.863214   346 net.cpp:435] loss <- label
I0108 19:49:36.863217   346 net.cpp:409] loss -> loss
I0108 19:49:36.863224   346 layer_factory.hpp:77] Creating layer loss
…
I0108 19:49:40.524137   346 net.cpp:284] Network initialization done.
I0108 19:49:40.619904   346 net.cpp:323] The NetState phase (1) differed from the phase (0) specified by a rule in layer data
I0108 19:49:40.619931   346 net.cpp:52] Initializing net from parameters:
layer {
  name: "data"
  type: "Data"
  top: "data"
  top: "label"
  include {
    phase: TEST
  }
  transform_param {
    mirror: false
    crop_size: 227
    mean_value: 106
    mean_value: 116
    mean_value: 124
  }
  data_param {
    source: "input/lmdb/valid_lmdb"
    batch_size: 50
    backend: LMDB
  }
}
layer {
  name: "data_fixed"
  type: "FixedNeuron"
  bottom: "data"
  top: "data"
  param {
    lr_mult: 0
    decay_mult: 0
  }
  fixed_param {
    fixed_method: OVER_FLOW
    bit_width: 8
    follow_data_layer: true
  }
}
layer {
  name: "conv1"
  type: "ConvolutionFixed"
  bottom: "data"
  top: "bn1"
  param {
    lr_mult: 1
    decay_mult: 1
  }
  param {
    lr_mult: 1
    decay_mult: 0
  }
  convolution_param {
    num_output: 96
    bias_term: true
    pad: 1
    kernel_size: 11
    stride: 4
    weight_filler {
      type: "gaussian"
      std: 0.01
    }
    bias_filler {
      type: "constant"
      value: 0
    }
  }
  fixed_param {
    fixed_method: DIFF_S
    bit_width: 8
  }
}
layer {
  name: "relu1"
  type: "ReLU"
  bottom: "bn1"
  top: "relu1"
}
layer {
  name: "pool1"
  type: "Pooling"
  bottom: "relu1"
  top: "pool1"
  pooling_param {
    pool: MAX
    kernel_size: 3
    stride: 2
  }
}
layer {
  name: "pool1_fixed"
  type: "FixedNeuron"
  bottom: "pool1"
  top: "pool1"
  param {
    lr_mult: 0
    decay_mult: 0
  }
  fixed_param {
    fixed_method: DIFF_S
    bit_width: 8
  }
}
layer {
  name: "conv2"
  type: "ConvolutionFixed"
  bottom: "pool1"
  top: "bn2"
  param {
    lr_mult: 1
    decay_mult: 1
  }
  param {
    lr_mult: 1
    decay_mult: 0
  }
  convolution_param {
    num_output: 256
    bias_term: true
    pad: 2
    kernel_size: 5
    group: 1
    weight_filler {
      type: "gaussian"
      std: 0.01
    }
    bias_filler {
      type: "constant"
      value: 1
    }
  }
  fixed_param {
    fixed_method: DIFF_S
    bit_width: 8
  }
}
layer {
  name: "relu2"
  type: "ReLU"
  bottom: "bn2"
  top: "relu2"
}
layer {
  name: "pool2"
  type: "Pooling"
  bottom: "relu2"
  top: "pool2"
  pooling_param {
    pool: MAX
    kernel_size: 3
    stride: 2
  }
}
layer {
  name: "pool2_fixed"
  type: "FixedNeuron"
  bottom: "pool2"
  top: "pool2"
  param {
    lr_mult: 0
    decay_mult: 0
  }
  fixed_param {
    fixed_method: DIFF_S
    bit_width: 8
  }
}
layer {
  name: "conv3"
  type: "ConvolutionFixed"
  bottom: "pool2"
  top: "conv3"
  param {
    lr_mult: 1
    decay_mult: 1
  }
  param {
    lr_mult: 2
    decay_mult: 0
  }
  convolution_param {
    num_output: 384
    pad: 1
    kernel_size: 3
    weight_filler {
      type: "gaussian"
      std: 0.01
    }
    bias_filler {
      type: "constant"
      value: 0
    }
  }
  fixed_param {
    fixed_method: DIFF_S
    bit_width: 8
  }
}
layer {
  name: "relu3"
  type: "ReLU"
  bottom: "conv3"
  top: "relu3"
}
layer {
  name: "relu3_fixed"
  type: "FixedNeuron"
  bottom: "relu3"
  top: "relu3"
  param {
    lr_mult: 0
    decay_mult: 0
  }
  fixed_param {
    fixed_method: DIFF_S
    bit_width: 8
  }
}
layer {
  name: "conv4"
  type: "ConvolutionFixed"
  bottom: "relu3"
  top: "conv4"
  param {
    lr_mult: 1
    decay_mult: 1
  }
  param {
    lr_mult: 2
    decay_mult: 0
  }
  convolution_param {
    num_output: 384
    pad: 1
    kernel_size: 3
    group: 1
    weight_filler {
      type: "gaussian"
      std: 0.01
    }
    bias_filler {
      type: "constant"
      value: 1
    }
  }
  fixed_param {
    fixed_method: DIFF_S
    bit_width: 8
  }
}
layer {
  name: "relu4"
  type: "ReLU"
  bottom: "conv4"
  top: "relu4"
}
layer {
  name: "relu4_fixed"
  type: "FixedNeuron"
  bottom: "relu4"
  top: "relu4"
  param {
    lr_mult: 0
    decay_mult: 0
  }
  fixed_param {
    fixed_method: DIFF_S
    bit_width: 8
  }
}
layer {
  name: "conv5"
  type: "ConvolutionFixed"
  bottom: "relu4"
  top: "conv5"
  param {
    lr_mult: 1
    decay_mult: 1
  }
  param {
    lr_mult: 2
    decay_mult: 0
  }
  convolution_param {
    num_output: 256
    pad: 1
    kernel_size: 3
    group: 1
    weight_filler {
      type: "gaussian"
      std: 0.01
    }
    bias_filler {
      type: "constant"
      value: 1
    }
  }
  fixed_param {
    fixed_method: DIFF_S
    bit_width: 8
  }
}
layer {
  name: "relu5"
  type: "ReLU"
  bottom: "conv5"
  top: "relu5"
}
layer {
  name: "pool5"
  type: "Pooling"
  bottom: "relu5"
  top: "pool5"
  pooling_param {
    pool: MAX
    kernel_size: 3
    stride: 2
  }
}
layer {
  name: "pool5_fixed"
  type: "FixedNeuron"
  bottom: "pool5"
  top: "pool5"
  param {
    lr_mult: 0
    decay_mult: 0
  }
  fixed_param {
    fixed_method: DIFF_S
    bit_width: 8
  }
}
layer {
  name: "fc6"
  type: "InnerProductFixed"
  bottom: "pool5"
  top: "fc6"
  param {
    lr_mult: 1
    decay_mult: 1
  }
  param {
    lr_mult: 2
    decay_mult: 0
  }
  inner_product_param {
    num_output: 4096
    weight_filler {
      type: "gaussian"
      std: 0.005
    }
    bias_filler {
      type: "constant"
      value: 1
    }
  }
  fixed_param {
    fixed_method: DIFF_S
    bit_width: 8
  }
}
layer {
  name: "relu6"
  type: "ReLU"
  bottom: "fc6"
  top: "relu6"
}
layer {
  name: "relu6_fixed"
  type: "FixedNeuron"
  bottom: "relu6"
  top: "relu6"
  param {
    lr_mult: 0
    decay_mult: 0
  }
  fixed_param {
    fixed_method: DIFF_S
    bit_width: 8
  }
}
layer {
  name: "fc7"
  type: "InnerProductFixed"
  bottom: "relu6"
  top: "bn7"
  param {
    lr_mult: 1
    decay_mult: 1
  }
  param {
    lr_mult: 1
    decay_mult: 0
  }
  inner_product_param {
    num_output: 4096
    bias_term: true
    weight_filler {
      type: "gaussian"
      std: 0.005
    }
    bias_filler {
      type: "constant"
      value: 1
    }
  }
  fixed_param {
    fixed_method: DIFF_S
    bit_width: 8
  }
}
layer {
  name: "relu7"
  type: "ReLU"
  bottom: "bn7"
  top: "relu7"
}
layer {
  name: "relu7_fixed"
  type: "FixedNeuron"
  bottom: "relu7"
  top: "relu7"
  param {
    lr_mult: 0
    decay_mult: 0
  }
  fixed_param {
    fixed_method: DIFF_S
    bit_width: 8
  }
}
layer {
  name: "fc8"
  type: "InnerProductFixed"
  bottom: "relu7"
  top: "fc8"
  param {
    lr_mult: 1
    decay_mult: 1
  }
  param {
    lr_mult: 2
    decay_mult: 0
  }
  inner_product_param {
    num_output: 2
    weight_filler {
      type: "gaussian"
      std: 0.01
    }
    bias_filler {
      type: "constant"
      value: 0
    }
  }
  fixed_param {
    fixed_method: DIFF_S
    bit_width: 8
  }
}
layer {
  name: "fc8_fixed"
  type: "FixedNeuron"
  bottom: "fc8"
  top: "fc8"
  param {
    lr_mult: 0
    decay_mult: 0
  }
  fixed_param {
    fixed_method: DIFF_S
    bit_width: 8
  }
}
layer {
  name: "accuracy"
  type: "Accuracy"
  bottom: "fc8"
  bottom: "label"
  top: "accuracy"
  include {
    phase: TEST
  }
}
layer {
  name: "loss"
  type: "SoftmaxWithLoss"
  bottom: "fc8"
  bottom: "label"
  top: "loss"
}
layer {
  name: "accuracy-top1"
  type: "Accuracy"
  bottom: "fc8"
  bottom: "label"
  top: "top-1"
  include {
    phase: TEST
  }
}
I0108 19:49:40.620194   346 layer_factory.hpp:77] Creating layer data
I0108 19:49:40.620247   346 internal_thread.cpp:27] Starting internal thread(s) on GPU 0
I0108 19:49:40.620908   346 net.cpp:94] Creating Layer data
I0108 19:49:40.620915   346 net.cpp:409] data -> data
I0108 19:49:40.620924   346 net.cpp:409] data -> label
I0108 19:49:40.622578   380 db_lmdb.cpp:35] Opened lmdb input/lmdb/valid_lmdb
I0108 19:49:40.622598   380 db_lmdb.cpp:38] Items count: 4000
I0108 19:49:40.622617   380 data_reader.cpp:124] TEST: reading data using 1 channel(s)
I0108 19:49:40.622805   346 data_layer.cpp:78] ReshapePrefetch 50, 3, 227, 227
I0108 19:49:40.623003   346 data_layer.cpp:83] output data size: 50,3,227,227
I0108 19:49:40.731137   346 internal_thread.cpp:27] Starting internal thread(s) on GPU 0
I0108 19:49:40.731204   346 net.cpp:144] Setting up data
I0108 19:49:40.731210   346 net.cpp:151] Top shape: 50 3 227 227 (7729350)
I0108 19:49:40.731218   346 net.cpp:151] Top shape: 50 (50)
I0108 19:49:40.731222   346 net.cpp:159] Memory required for data: 30917600
I0108 19:49:40.731227   346 layer_factory.hpp:77] Creating layer label_data_1_split
I0108 19:49:40.731256   346 net.cpp:94] Creating Layer label_data_1_split
I0108 19:49:40.731261   346 net.cpp:435] label_data_1_split <- label
I0108 19:49:40.731268   346 net.cpp:409] label_data_1_split -> label_data_1_split_0
I0108 19:49:40.731276   346 net.cpp:409] label_data_1_split -> label_data_1_split_1
I0108 19:49:40.731281   346 net.cpp:409] label_data_1_split -> label_data_1_split_2
I0108 19:49:40.731331   346 net.cpp:144] Setting up label_data_1_split
I0108 19:49:40.731336   346 net.cpp:151] Top shape: 50 (50)
I0108 19:49:40.731339   346 net.cpp:151] Top shape: 50 (50)
I0108 19:49:40.731343   346 net.cpp:151] Top shape: 50 (50)
I0108 19:49:40.731346   346 net.cpp:159] Memory required for data: 30918200
I0108 19:49:40.731348   346 layer_factory.hpp:77] Creating layer data_fixed
I0108 19:49:40.731355   346 net.cpp:94] Creating Layer data_fixed
I0108 19:49:40.731359   346 net.cpp:435] data_fixed <- data
I0108 19:49:40.731362   346 net.cpp:396] data_fixed -> data (in-place)
I0108 19:49:40.731403   346 net.cpp:144] Setting up data_fixed
I0108 19:49:40.731407   346 net.cpp:151] Top shape: 50 3 227 227 (7729350)
I0108 19:49:40.731412   346 net.cpp:159] Memory required for data: 61835600
I0108 19:49:40.731421   346 layer_factory.hpp:77] Creating layer conv1
I0108 19:49:40.731431   346 net.cpp:94] Creating Layer conv1
I0108 19:49:40.731434   346 net.cpp:435] conv1 <- data
I0108 19:49:40.731439   346 net.cpp:409] conv1 -> bn1
I0108 19:49:40.731920   346 layer_factory.hpp:77] Creating layer conv1
I0108 19:49:40.732434   346 net.cpp:144] Setting up conv1
I0108 19:49:40.732440   346 net.cpp:151] Top shape: 50 96 55 55 (14520000)
I0108 19:49:40.732445   346 net.cpp:159] Memory required for data: 119915600
I0108 19:49:40.732453   346 layer_factory.hpp:77] Creating layer relu1
I0108 19:49:40.732460   346 net.cpp:94] Creating Layer relu1
I0108 19:49:40.732462   346 net.cpp:435] relu1 <- bn1
I0108 19:49:40.732467   346 net.cpp:409] relu1 -> relu1
I0108 19:49:40.732482   346 net.cpp:144] Setting up relu1
I0108 19:49:40.732487   346 net.cpp:151] Top shape: 50 96 55 55 (14520000)
I0108 19:49:40.732492   346 net.cpp:159] Memory required for data: 177995600
I0108 19:49:40.732496   346 layer_factory.hpp:77] Creating layer pool1
I0108 19:49:40.732501   346 net.cpp:94] Creating Layer pool1
I0108 19:49:40.732503   346 net.cpp:435] pool1 <- relu1
I0108 19:49:40.732507   346 net.cpp:409] pool1 -> pool1
I0108 19:49:40.732528   346 net.cpp:144] Setting up pool1
I0108 19:49:40.732533   346 net.cpp:151] Top shape: 50 96 27 27 (3499200)
I0108 19:49:40.732537   346 net.cpp:159] Memory required for data: 191992400
I0108 19:49:40.732540   346 layer_factory.hpp:77] Creating layer pool1_fixed
I0108 19:49:40.732545   346 net.cpp:94] Creating Layer pool1_fixed
I0108 19:49:40.732548   346 net.cpp:435] pool1_fixed <- pool1
I0108 19:49:40.732553   346 net.cpp:396] pool1_fixed -> pool1 (in-place)
I0108 19:49:40.732573   346 net.cpp:144] Setting up pool1_fixed
I0108 19:49:40.732578   346 net.cpp:151] Top shape: 50 96 27 27 (3499200)
I0108 19:49:40.732581   346 net.cpp:159] Memory required for data: 205989200
I0108 19:49:40.732585   346 layer_factory.hpp:77] Creating layer conv2
I0108 19:49:40.732592   346 net.cpp:94] Creating Layer conv2
I0108 19:49:40.732595   346 net.cpp:435] conv2 <- pool1
I0108 19:49:40.732599   346 net.cpp:409] conv2 -> bn2
I0108 19:49:40.739195   346 layer_factory.hpp:77] Creating layer conv2
I0108 19:49:40.748041   346 net.cpp:144] Setting up conv2
I0108 19:49:40.748065   346 net.cpp:151] Top shape: 50 256 27 27 (9331200)
I0108 19:49:40.748080   346 net.cpp:159] Memory required for data: 243314000
I0108 19:49:40.748102   346 layer_factory.hpp:77] Creating layer relu2
I0108 19:49:40.748116   346 net.cpp:94] Creating Layer relu2
I0108 19:49:40.748121   346 net.cpp:435] relu2 <- bn2
I0108 19:49:40.748131   346 net.cpp:409] relu2 -> relu2
I0108 19:49:40.748163   346 net.cpp:144] Setting up relu2
I0108 19:49:40.748168   346 net.cpp:151] Top shape: 50 256 27 27 (9331200)
I0108 19:49:40.748175   346 net.cpp:159] Memory required for data: 280638800
I0108 19:49:40.748179   346 layer_factory.hpp:77] Creating layer pool2
I0108 19:49:40.748190   346 net.cpp:94] Creating Layer pool2
I0108 19:49:40.748195   346 net.cpp:435] pool2 <- relu2
I0108 19:49:40.748203   346 net.cpp:409] pool2 -> pool2
I0108 19:49:40.748236   346 net.cpp:144] Setting up pool2
I0108 19:49:40.748241   346 net.cpp:151] Top shape: 50 256 13 13 (2163200)
I0108 19:49:40.748247   346 net.cpp:159] Memory required for data: 289291600
I0108 19:49:40.748252   346 layer_factory.hpp:77] Creating layer pool2_fixed
I0108 19:49:40.748263   346 net.cpp:94] Creating Layer pool2_fixed
I0108 19:49:40.748267   346 net.cpp:435] pool2_fixed <- pool2
I0108 19:49:40.748273   346 net.cpp:396] pool2_fixed -> pool2 (in-place)
I0108 19:49:40.748312   346 net.cpp:144] Setting up pool2_fixed
I0108 19:49:40.748317   346 net.cpp:151] Top shape: 50 256 13 13 (2163200)
I0108 19:49:40.748322   346 net.cpp:159] Memory required for data: 297944400
I0108 19:49:40.748329   346 layer_factory.hpp:77] Creating layer conv3
I0108 19:49:40.748347   346 net.cpp:94] Creating Layer conv3
I0108 19:49:40.748353   346 net.cpp:435] conv3 <- pool2
I0108 19:49:40.748359   346 net.cpp:409] conv3 -> conv3
I0108 19:49:40.757263   346 layer_factory.hpp:77] Creating layer conv3
I0108 19:49:40.769575   346 net.cpp:144] Setting up conv3
I0108 19:49:40.769616   346 net.cpp:151] Top shape: 50 384 13 13 (3244800)
I0108 19:49:40.769631   346 net.cpp:159] Memory required for data: 310923600
I0108 19:49:40.769654   346 layer_factory.hpp:77] Creating layer relu3
I0108 19:49:40.769672   346 net.cpp:94] Creating Layer relu3
I0108 19:49:40.769680   346 net.cpp:435] relu3 <- conv3
I0108 19:49:40.769695   346 net.cpp:409] relu3 -> relu3
I0108 19:49:40.769753   346 net.cpp:144] Setting up relu3
I0108 19:49:40.769758   346 net.cpp:151] Top shape: 50 384 13 13 (3244800)
I0108 19:49:40.769765   346 net.cpp:159] Memory required for data: 323902800
I0108 19:49:40.769769   346 layer_factory.hpp:77] Creating layer relu3_fixed
I0108 19:49:40.769783   346 net.cpp:94] Creating Layer relu3_fixed
I0108 19:49:40.769786   346 net.cpp:435] relu3_fixed <- relu3
I0108 19:49:40.769793   346 net.cpp:396] relu3_fixed -> relu3 (in-place)
I0108 19:49:40.769841   346 net.cpp:144] Setting up relu3_fixed
I0108 19:49:40.769845   346 net.cpp:151] Top shape: 50 384 13 13 (3244800)
I0108 19:49:40.769851   346 net.cpp:159] Memory required for data: 336882000
I0108 19:49:40.769860   346 layer_factory.hpp:77] Creating layer conv4
I0108 19:49:40.769877   346 net.cpp:94] Creating Layer conv4
I0108 19:49:40.769882   346 net.cpp:435] conv4 <- relu3
I0108 19:49:40.769891   346 net.cpp:409] conv4 -> conv4
I0108 19:49:40.785379   346 layer_factory.hpp:77] Creating layer conv4
I0108 19:49:40.799824   346 net.cpp:144] Setting up conv4
I0108 19:49:40.799844   346 net.cpp:151] Top shape: 50 384 13 13 (3244800)
I0108 19:49:40.799852   346 net.cpp:159] Memory required for data: 349861200
I0108 19:49:40.799861   346 layer_factory.hpp:77] Creating layer relu4
I0108 19:49:40.799868   346 net.cpp:94] Creating Layer relu4
I0108 19:49:40.799871   346 net.cpp:435] relu4 <- conv4
I0108 19:49:40.799877   346 net.cpp:409] relu4 -> relu4
I0108 19:49:40.799892   346 net.cpp:144] Setting up relu4
I0108 19:49:40.799894   346 net.cpp:151] Top shape: 50 384 13 13 (3244800)
I0108 19:49:40.799898   346 net.cpp:159] Memory required for data: 362840400
I0108 19:49:40.799901   346 layer_factory.hpp:77] Creating layer relu4_fixed
I0108 19:49:40.799907   346 net.cpp:94] Creating Layer relu4_fixed
I0108 19:49:40.799911   346 net.cpp:435] relu4_fixed <- relu4
I0108 19:49:40.799913   346 net.cpp:396] relu4_fixed -> relu4 (in-place)
I0108 19:49:40.799932   346 net.cpp:144] Setting up relu4_fixed
I0108 19:49:40.799937   346 net.cpp:151] Top shape: 50 384 13 13 (3244800)
I0108 19:49:40.799940   346 net.cpp:159] Memory required for data: 375819600
I0108 19:49:40.799943   346 layer_factory.hpp:77] Creating layer conv5
I0108 19:49:40.799968   346 net.cpp:94] Creating Layer conv5
I0108 19:49:40.799969   346 net.cpp:435] conv5 <- relu4
I0108 19:49:40.799973   346 net.cpp:409] conv5 -> conv5
I0108 19:49:40.809368   346 layer_factory.hpp:77] Creating layer conv5
I0108 19:49:40.817008   346 net.cpp:144] Setting up conv5
I0108 19:49:40.817020   346 net.cpp:151] Top shape: 50 256 13 13 (2163200)
I0108 19:49:40.817028   346 net.cpp:159] Memory required for data: 384472400
I0108 19:49:40.817052   346 layer_factory.hpp:77] Creating layer relu5
I0108 19:49:40.817059   346 net.cpp:94] Creating Layer relu5
I0108 19:49:40.817062   346 net.cpp:435] relu5 <- conv5
I0108 19:49:40.817067   346 net.cpp:409] relu5 -> relu5
I0108 19:49:40.817082   346 net.cpp:144] Setting up relu5
I0108 19:49:40.817085   346 net.cpp:151] Top shape: 50 256 13 13 (2163200)
I0108 19:49:40.817088   346 net.cpp:159] Memory required for data: 393125200
I0108 19:49:40.817091   346 layer_factory.hpp:77] Creating layer pool5
I0108 19:49:40.817095   346 net.cpp:94] Creating Layer pool5
I0108 19:49:40.817097   346 net.cpp:435] pool5 <- relu5
I0108 19:49:40.817101   346 net.cpp:409] pool5 -> pool5
I0108 19:49:40.817121   346 net.cpp:144] Setting up pool5
I0108 19:49:40.817124   346 net.cpp:151] Top shape: 50 256 6 6 (460800)
I0108 19:49:40.817127   346 net.cpp:159] Memory required for data: 394968400
I0108 19:49:40.817131   346 layer_factory.hpp:77] Creating layer pool5_fixed
I0108 19:49:40.817134   346 net.cpp:94] Creating Layer pool5_fixed
I0108 19:49:40.817137   346 net.cpp:435] pool5_fixed <- pool5
I0108 19:49:40.817140   346 net.cpp:396] pool5_fixed -> pool5 (in-place)
I0108 19:49:40.817157   346 net.cpp:144] Setting up pool5_fixed
I0108 19:49:40.817160   346 net.cpp:151] Top shape: 50 256 6 6 (460800)
I0108 19:49:40.817163   346 net.cpp:159] Memory required for data: 396811600
I0108 19:49:40.817167   346 layer_factory.hpp:77] Creating layer fc6
I0108 19:49:40.817171   346 net.cpp:94] Creating Layer fc6
I0108 19:49:40.817190   346 net.cpp:435] fc6 <- pool5
I0108 19:49:40.817193   346 net.cpp:409] fc6 -> fc6
I0108 19:49:41.122954   346 layer_factory.hpp:77] Creating layer fc6
I0108 19:49:41.429373   346 net.cpp:144] Setting up fc6
I0108 19:49:41.429399   346 net.cpp:151] Top shape: 50 4096 (204800)
I0108 19:49:41.429406   346 net.cpp:159] Memory required for data: 397630800
I0108 19:49:41.429435   346 layer_factory.hpp:77] Creating layer relu6
I0108 19:49:41.429440   346 net.cpp:94] Creating Layer relu6
I0108 19:49:41.429445   346 net.cpp:435] relu6 <- fc6
I0108 19:49:41.429450   346 net.cpp:409] relu6 -> relu6
I0108 19:49:41.429468   346 net.cpp:144] Setting up relu6
I0108 19:49:41.429471   346 net.cpp:151] Top shape: 50 4096 (204800)
I0108 19:49:41.429474   346 net.cpp:159] Memory required for data: 398450000
I0108 19:49:41.429477   346 layer_factory.hpp:77] Creating layer relu6_fixed
I0108 19:49:41.429482   346 net.cpp:94] Creating Layer relu6_fixed
I0108 19:49:41.429484   346 net.cpp:435] relu6_fixed <- relu6
I0108 19:49:41.429488   346 net.cpp:396] relu6_fixed -> relu6 (in-place)
I0108 19:49:41.429507   346 net.cpp:144] Setting up relu6_fixed
I0108 19:49:41.429510   346 net.cpp:151] Top shape: 50 4096 (204800)
I0108 19:49:41.429513   346 net.cpp:159] Memory required for data: 399269200
I0108 19:49:41.429517   346 layer_factory.hpp:77] Creating layer fc7
I0108 19:49:41.429522   346 net.cpp:94] Creating Layer fc7
I0108 19:49:41.429525   346 net.cpp:435] fc7 <- relu6
I0108 19:49:41.429528   346 net.cpp:409] fc7 -> bn7
I0108 19:49:41.565892   346 layer_factory.hpp:77] Creating layer fc7
I0108 19:49:41.700418   346 net.cpp:144] Setting up fc7
I0108 19:49:41.700443   346 net.cpp:151] Top shape: 50 4096 (204800)
I0108 19:49:41.700451   346 net.cpp:159] Memory required for data: 400088400
I0108 19:49:41.700461   346 layer_factory.hpp:77] Creating layer relu7
I0108 19:49:41.700467   346 net.cpp:94] Creating Layer relu7
I0108 19:49:41.700471   346 net.cpp:435] relu7 <- bn7
I0108 19:49:41.700476   346 net.cpp:409] relu7 -> relu7
I0108 19:49:41.700493   346 net.cpp:144] Setting up relu7
I0108 19:49:41.700496   346 net.cpp:151] Top shape: 50 4096 (204800)
I0108 19:49:41.700500   346 net.cpp:159] Memory required for data: 400907600
I0108 19:49:41.700501   346 layer_factory.hpp:77] Creating layer relu7_fixed
I0108 19:49:41.700507   346 net.cpp:94] Creating Layer relu7_fixed
I0108 19:49:41.700510   346 net.cpp:435] relu7_fixed <- relu7
I0108 19:49:41.700513   346 net.cpp:396] relu7_fixed -> relu7 (in-place)
I0108 19:49:41.700531   346 net.cpp:144] Setting up relu7_fixed
I0108 19:49:41.700538   346 net.cpp:151] Top shape: 50 4096 (204800)
I0108 19:49:41.700541   346 net.cpp:159] Memory required for data: 401726800
I0108 19:49:41.700546   346 layer_factory.hpp:77] Creating layer fc8
I0108 19:49:41.700567   346 net.cpp:94] Creating Layer fc8
I0108 19:49:41.700572   346 net.cpp:435] fc8 <- relu7
I0108 19:49:41.700577   346 net.cpp:409] fc8 -> fc8
I0108 19:49:41.700680   346 layer_factory.hpp:77] Creating layer fc8
I0108 19:49:41.700834   346 net.cpp:144] Setting up fc8
I0108 19:49:41.700837   346 net.cpp:151] Top shape: 50 2 (100)
I0108 19:49:41.700841   346 net.cpp:159] Memory required for data: 401727200
I0108 19:49:41.700845   346 layer_factory.hpp:77] Creating layer fc8_fixed
I0108 19:49:41.700850   346 net.cpp:94] Creating Layer fc8_fixed
I0108 19:49:41.700853   346 net.cpp:435] fc8_fixed <- fc8
I0108 19:49:41.700857   346 net.cpp:396] fc8_fixed -> fc8 (in-place)
I0108 19:49:41.700877   346 net.cpp:144] Setting up fc8_fixed
I0108 19:49:41.700881   346 net.cpp:151] Top shape: 50 2 (100)
I0108 19:49:41.700884   346 net.cpp:159] Memory required for data: 401727600
I0108 19:49:41.700888   346 layer_factory.hpp:77] Creating layer fc8_fc8_fixed_0_split
I0108 19:49:41.700893   346 net.cpp:94] Creating Layer fc8_fc8_fixed_0_split
I0108 19:49:41.700896   346 net.cpp:435] fc8_fc8_fixed_0_split <- fc8
I0108 19:49:41.700901   346 net.cpp:409] fc8_fc8_fixed_0_split -> fc8_fc8_fixed_0_split_0
I0108 19:49:41.700904   346 net.cpp:409] fc8_fc8_fixed_0_split -> fc8_fc8_fixed_0_split_1
I0108 19:49:41.700909   346 net.cpp:409] fc8_fc8_fixed_0_split -> fc8_fc8_fixed_0_split_2
I0108 19:49:41.700935   346 net.cpp:144] Setting up fc8_fc8_fixed_0_split
I0108 19:49:41.700940   346 net.cpp:151] Top shape: 50 2 (100)
I0108 19:49:41.700944   346 net.cpp:151] Top shape: 50 2 (100)
I0108 19:49:41.700947   346 net.cpp:151] Top shape: 50 2 (100)
I0108 19:49:41.700950   346 net.cpp:159] Memory required for data: 401728800
I0108 19:49:41.700953   346 layer_factory.hpp:77] Creating layer accuracy
I0108 19:49:41.700959   346 net.cpp:94] Creating Layer accuracy
I0108 19:49:41.700963   346 net.cpp:435] accuracy <- fc8_fc8_fixed_0_split_0
I0108 19:49:41.700966   346 net.cpp:435] accuracy <- label_data_1_split_0
I0108 19:49:41.700970   346 net.cpp:409] accuracy -> accuracy
…
