…
I0108 18:22:29.914201   249 net.cpp:323] The NetState phase (0) differed from the phase (1) specified by a rule in layer accuracy-top1
I0108 18:22:29.914206   249 net.cpp:52] Initializing net from parameters: 
name: "alexnetBNnoLRN m2 (as m3 but less DROP and less BN)"
state {
  phase: TRAIN
}
layer {
  name: "data"
  type: "Data"
  top: "data"
  top: "label"
  include {
    phase: TRAIN
  }
  transform_param {
    mirror: true
    crop_size: 227
    mean_value: 106
    mean_value: 116
    mean_value: 124
  }
  data_param {
    source: "input/lmdb/train_lmdb"
    batch_size: 256
    backend: LMDB
  }
}
layer {
  name: "conv1"
  type: "Convolution"
  bottom: "data"
  top: "conv1"
  param {
    lr_mult: 1
    decay_mult: 1
  }
  param {
    lr_mult: 2
    decay_mult: 0
  }
  convolution_param {
    num_output: 96
    pad: 1
    kernel_size: 11
    stride: 4
    weight_filler {
      type: "gaussian"
      std: 0.01
    }
    bias_filler {
      type: "constant"
      value: 0
    }
  }
}
layer {
  name: "bn1"
  type: "BatchNorm"
  bottom: "conv1"
  top: "bn1"
  param {
    lr_mult: 0
  }
  param {
    lr_mult: 0
  }
  param {
    lr_mult: 0
  }
  batch_norm_param {
    use_global_stats: false
  }
}
layer {
  name: "relu1"
  type: "ReLU"
  bottom: "bn1"
  top: "relu1"
}
layer {
  name: "pool1"
  type: "Pooling"
  bottom: "relu1"
  top: "pool1"
  pooling_param {
    pool: MAX
    kernel_size: 3
    stride: 2
  }
}
layer {
  name: "conv2"
  type: "Convolution"
  bottom: "pool1"
  top: "conv2"
  param {
    lr_mult: 1
    decay_mult: 1
  }
  param {
    lr_mult: 2
    decay_mult: 0
  }
  convolution_param {
    num_output: 256
    pad: 2
    kernel_size: 5
    group: 1
    weight_filler {
      type: "gaussian"
      std: 0.01
    }
    bias_filler {
      type: "constant"
      value: 1
    }
  }
}
layer {
  name: "bn2"
  type: "BatchNorm"
  bottom: "conv2"
  top: "bn2"
  param {
    lr_mult: 0
  }
  param {
    lr_mult: 0
  }
  param {
    lr_mult: 0
  }
  batch_norm_param {
    use_global_stats: false
  }
}
layer {
  name: "relu2"
  type: "ReLU"
  bottom: "bn2"
  top: "relu2"
}
layer {
  name: "pool2"
  type: "Pooling"
  bottom: "relu2"
  top: "pool2"
  pooling_param {
    pool: MAX
    kernel_size: 3
    stride: 2
  }
}
layer {
  name: "conv3"
  type: "Convolution"
  bottom: "pool2"
  top: "conv3"
  param {
    lr_mult: 1
    decay_mult: 1
  }
  param {
    lr_mult: 2
    decay_mult: 0
  }
  convolution_param {
    num_output: 384
    pad: 1
    kernel_size: 3
    weight_filler {
      type: "gaussian"
      std: 0.01
    }
    bias_filler {
      type: "constant"
      value: 0
    }
  }
}
layer {
  name: "relu3"
  type: "ReLU"
  bottom: "conv3"
  top: "relu3"
}
layer {
  name: "conv4"
  type: "Convolution"
  bottom: "relu3"
  top: "conv4"
  param {
    lr_mult: 1
    decay_mult: 1
  }
  param {
    lr_mult: 2
    decay_mult: 0
  }
  convolution_param {
    num_output: 384
    pad: 1
    kernel_size: 3
    group: 1
    weight_filler {
      type: "gaussian"
      std: 0.01
    }
    bias_filler {
      type: "constant"
      value: 1
    }
  }
}
layer {
  name: "relu4"
  type: "ReLU"
  bottom: "conv4"
  top: "relu4"
}
layer {
  name: "conv5"
  type: "Convolution"
  bottom: "relu4"
  top: "conv5"
  param {
    lr_mult: 1
    decay_mult: 1
  }
  param {
    lr_mult: 2
    decay_mult: 0
  }
  convolution_param {
    num_output: 256
    pad: 1
    kernel_size: 3
    group: 1
    weight_filler {
      type: "gaussian"
      std: 0.01
    }
    bias_filler {
      type: "constant"
      value: 1
    }
  }
}
layer {
  name: "relu5"
  type: "ReLU"
  bottom: "conv5"
  top: "relu5"
}
layer {
  name: "pool5"
  type: "Pooling"
  bottom: "relu5"
  top: "pool5"
  pooling_param {
    pool: MAX
    kernel_size: 3
    stride: 2
  }
}
layer {
  name: "fc6"
  type: "InnerProduct"
  bottom: "pool5"
  top: "fc6"
  param {
    lr_mult: 1
    decay_mult: 1
  }
  param {
    lr_mult: 2
    decay_mult: 0
  }
  inner_product_param {
    num_output: 4096
    weight_filler {
      type: "gaussian"
      std: 0.005
    }
    bias_filler {
      type: "constant"
      value: 1
    }
  }
}
layer {
  name: "relu6"
  type: "ReLU"
  bottom: "fc6"
  top: "relu6"
}
layer {
  name: "drop6"
  type: "Dropout"
  bottom: "relu6"
  top: "drop6"
  dropout_param {
    dropout_ratio: 0.5
  }
}
layer {
  name: "fc7"
  type: "InnerProduct"
  bottom: "drop6"
  top: "fc7"
  param {
    lr_mult: 1
    decay_mult: 1
  }
  param {
    lr_mult: 2
    decay_mult: 0
  }
  inner_product_param {
    num_output: 4096
    weight_filler {
      type: "gaussian"
      std: 0.005
    }
    bias_filler {
      type: "constant"
      value: 1
    }
  }
}
layer {
  name: "bn7"
  type: "BatchNorm"
  bottom: "fc7"
  top: "bn7"
  param {
    lr_mult: 0
  }
  param {
    lr_mult: 0
  }
  param {
    lr_mult: 0
  }
  batch_norm_param {
    use_global_stats: false
  }
}
layer {
  name: "relu7"
  type: "ReLU"
  bottom: "bn7"
  top: "relu7"
}
layer {
  name: "drop7"
  type: "Dropout"
  bottom: "relu7"
  top: "drop7"
  dropout_param {
    dropout_ratio: 0.5
  }
}
layer {
  name: "fc8"
  type: "InnerProduct"
  bottom: "drop7"
  top: "fc8"
  param {
    lr_mult: 1
    decay_mult: 1
  }
  param {
    lr_mult: 2
    decay_mult: 0
  }
  inner_product_param {
    num_output: 2
    weight_filler {
      type: "gaussian"
      std: 0.01
    }
    bias_filler {
      type: "constant"
      value: 0
    }
  }
}
layer {
  name: "loss"
  type: "SoftmaxWithLoss"
  bottom: "fc8"
  bottom: "label"
  top: "loss"
}
I0108 18:22:29.914433   249 layer_factory.hpp:77] Creating layer data
I0108 18:22:29.914602   249 internal_thread.cpp:27] Starting internal thread(s) on GPU 0
I0108 18:22:29.915477   249 net.cpp:94] Creating Layer data
I0108 18:22:29.915489   249 net.cpp:409] data -> data
I0108 18:22:29.915500   249 net.cpp:409] data -> label
I0108 18:22:29.917578   281 db_lmdb.cpp:35] Opened lmdb input/lmdb/train_lmdb
I0108 18:22:29.917600   281 db_lmdb.cpp:38] Items count: 20000
I0108 18:22:29.917623   281 data_reader.cpp:124] TRAIN: reading data using 1 channel(s)
I0108 18:22:29.917946   249 data_layer.cpp:78] ReshapePrefetch 256, 3, 227, 227
I0108 18:22:29.918040   249 data_layer.cpp:83] output data size: 256,3,227,227
I0108 18:22:30.390493   249 internal_thread.cpp:27] Starting internal thread(s) on GPU 0
I0108 18:22:30.390556   249 net.cpp:144] Setting up data
I0108 18:22:30.390563   249 net.cpp:151] Top shape: 256 3 227 227 (39574272)
I0108 18:22:30.390573   249 net.cpp:151] Top shape: 256 (256)
I0108 18:22:30.390578   249 net.cpp:159] Memory required for data: 158298112
I0108 18:22:30.390583   249 layer_factory.hpp:77] Creating layer conv1
I0108 18:22:30.390602   249 net.cpp:94] Creating Layer conv1
I0108 18:22:30.390607   249 net.cpp:435] conv1 <- data
I0108 18:22:30.390614   249 net.cpp:409] conv1 -> conv1
I0108 18:22:30.391192   249 net.cpp:144] Setting up conv1
I0108 18:22:30.391199   249 net.cpp:151] Top shape: 256 96 55 55 (74342400)
I0108 18:22:30.391206   249 net.cpp:159] Memory required for data: 455667712
I0108 18:22:30.391216   249 layer_factory.hpp:77] Creating layer bn1
I0108 18:22:30.391237   249 net.cpp:94] Creating Layer bn1
I0108 18:22:30.391242   249 net.cpp:435] bn1 <- conv1
I0108 18:22:30.391247   249 net.cpp:409] bn1 -> bn1
I0108 18:22:30.391758   249 net.cpp:144] Setting up bn1
I0108 18:22:30.391765   249 net.cpp:151] Top shape: 256 96 55 55 (74342400)
I0108 18:22:30.391770   249 net.cpp:159] Memory required for data: 753037312
I0108 18:22:30.391780   249 layer_factory.hpp:77] Creating layer relu1
I0108 18:22:30.391786   249 net.cpp:94] Creating Layer relu1
I0108 18:22:30.391790   249 net.cpp:435] relu1 <- bn1
I0108 18:22:30.391794   249 net.cpp:409] relu1 -> relu1
I0108 18:22:30.391814   249 net.cpp:144] Setting up relu1
I0108 18:22:30.391820   249 net.cpp:151] Top shape: 256 96 55 55 (74342400)
I0108 18:22:30.391825   249 net.cpp:159] Memory required for data: 1050406912
I0108 18:22:30.391829   249 layer_factory.hpp:77] Creating layer pool1
I0108 18:22:30.391834   249 net.cpp:94] Creating Layer pool1
I0108 18:22:30.391839   249 net.cpp:435] pool1 <- relu1
I0108 18:22:30.391844   249 net.cpp:409] pool1 -> pool1
I0108 18:22:30.391868   249 net.cpp:144] Setting up pool1
I0108 18:22:30.391873   249 net.cpp:151] Top shape: 256 96 27 27 (17915904)
I0108 18:22:30.391878   249 net.cpp:159] Memory required for data: 1122070528
I0108 18:22:30.391882   249 layer_factory.hpp:77] Creating layer conv2
I0108 18:22:30.391891   249 net.cpp:94] Creating Layer conv2
I0108 18:22:30.391896   249 net.cpp:435] conv2 <- pool1
I0108 18:22:30.391901   249 net.cpp:409] conv2 -> conv2
I0108 18:22:30.406942   249 net.cpp:144] Setting up conv2
I0108 18:22:30.406956   249 net.cpp:151] Top shape: 256 256 27 27 (47775744)
I0108 18:22:30.406965   249 net.cpp:159] Memory required for data: 1313173504
I0108 18:22:30.406975   249 layer_factory.hpp:77] Creating layer bn2
I0108 18:22:30.407001   249 net.cpp:94] Creating Layer bn2
I0108 18:22:30.407008   249 net.cpp:435] bn2 <- conv2
I0108 18:22:30.407016   249 net.cpp:409] bn2 -> bn2
I0108 18:22:30.407574   249 net.cpp:144] Setting up bn2
I0108 18:22:30.407582   249 net.cpp:151] Top shape: 256 256 27 27 (47775744)
I0108 18:22:30.407588   249 net.cpp:159] Memory required for data: 1504276480
I0108 18:22:30.407596   249 layer_factory.hpp:77] Creating layer relu2
I0108 18:22:30.407603   249 net.cpp:94] Creating Layer relu2
I0108 18:22:30.407606   249 net.cpp:435] relu2 <- bn2
I0108 18:22:30.407610   249 net.cpp:409] relu2 -> relu2
I0108 18:22:30.407629   249 net.cpp:144] Setting up relu2
I0108 18:22:30.407634   249 net.cpp:151] Top shape: 256 256 27 27 (47775744)
I0108 18:22:30.407639   249 net.cpp:159] Memory required for data: 1695379456
I0108 18:22:30.407644   249 layer_factory.hpp:77] Creating layer pool2
I0108 18:22:30.407649   249 net.cpp:94] Creating Layer pool2
I0108 18:22:30.407653   249 net.cpp:435] pool2 <- relu2
I0108 18:22:30.407657   249 net.cpp:409] pool2 -> pool2
I0108 18:22:30.407799   249 net.cpp:144] Setting up pool2
I0108 18:22:30.407807   249 net.cpp:151] Top shape: 256 256 13 13 (11075584)
I0108 18:22:30.407814   249 net.cpp:159] Memory required for data: 1739681792
I0108 18:22:30.407817   249 layer_factory.hpp:77] Creating layer conv3
I0108 18:22:30.407932   249 net.cpp:94] Creating Layer conv3
I0108 18:22:30.407958   249 net.cpp:435] conv3 <- pool2
I0108 18:22:30.407972   249 net.cpp:409] conv3 -> conv3
I0108 18:22:30.428419   249 net.cpp:144] Setting up conv3
I0108 18:22:30.428447   249 net.cpp:151] Top shape: 256 384 13 13 (16613376)
I0108 18:22:30.428459   249 net.cpp:159] Memory required for data: 1806135296
I0108 18:22:30.428472   249 layer_factory.hpp:77] Creating layer relu3
I0108 18:22:30.428483   249 net.cpp:94] Creating Layer relu3
I0108 18:22:30.428490   249 net.cpp:435] relu3 <- conv3
I0108 18:22:30.428499   249 net.cpp:409] relu3 -> relu3
I0108 18:22:30.428534   249 net.cpp:144] Setting up relu3
I0108 18:22:30.428542   249 net.cpp:151] Top shape: 256 384 13 13 (16613376)
I0108 18:22:30.428550   249 net.cpp:159] Memory required for data: 1872588800
I0108 18:22:30.428555   249 layer_factory.hpp:77] Creating layer conv4
I0108 18:22:30.428586   249 net.cpp:94] Creating Layer conv4
I0108 18:22:30.428593   249 net.cpp:435] conv4 <- relu3
I0108 18:22:30.428601   249 net.cpp:409] conv4 -> conv4
I0108 18:22:30.444350   249 net.cpp:144] Setting up conv4
I0108 18:22:30.444397   249 net.cpp:151] Top shape: 256 384 13 13 (16613376)
I0108 18:22:30.444419   249 net.cpp:159] Memory required for data: 1939042304
I0108 18:22:30.444449   249 layer_factory.hpp:77] Creating layer relu4
I0108 18:22:30.444466   249 net.cpp:94] Creating Layer relu4
I0108 18:22:30.444475   249 net.cpp:435] relu4 <- conv4
I0108 18:22:30.444486   249 net.cpp:409] relu4 -> relu4
I0108 18:22:30.444530   249 net.cpp:144] Setting up relu4
I0108 18:22:30.444535   249 net.cpp:151] Top shape: 256 384 13 13 (16613376)
I0108 18:22:30.444540   249 net.cpp:159] Memory required for data: 2005495808
I0108 18:22:30.444545   249 layer_factory.hpp:77] Creating layer conv5
I0108 18:22:30.444561   249 net.cpp:94] Creating Layer conv5
I0108 18:22:30.444567   249 net.cpp:435] conv5 <- relu4
I0108 18:22:30.444573   249 net.cpp:409] conv5 -> conv5
I0108 18:22:30.457613   249 net.cpp:144] Setting up conv5
I0108 18:22:30.457634   249 net.cpp:151] Top shape: 256 256 13 13 (11075584)
I0108 18:22:30.457643   249 net.cpp:159] Memory required for data: 2049798144
I0108 18:22:30.457653   249 layer_factory.hpp:77] Creating layer relu5
I0108 18:22:30.457661   249 net.cpp:94] Creating Layer relu5
I0108 18:22:30.457666   249 net.cpp:435] relu5 <- conv5
I0108 18:22:30.457674   249 net.cpp:409] relu5 -> relu5
I0108 18:22:30.457693   249 net.cpp:144] Setting up relu5
I0108 18:22:30.457697   249 net.cpp:151] Top shape: 256 256 13 13 (11075584)
I0108 18:22:30.457701   249 net.cpp:159] Memory required for data: 2094100480
I0108 18:22:30.457705   249 layer_factory.hpp:77] Creating layer pool5
I0108 18:22:30.457712   249 net.cpp:94] Creating Layer pool5
I0108 18:22:30.457715   249 net.cpp:435] pool5 <- relu5
I0108 18:22:30.457720   249 net.cpp:409] pool5 -> pool5
I0108 18:22:30.457741   249 net.cpp:144] Setting up pool5
I0108 18:22:30.457763   249 net.cpp:151] Top shape: 256 256 6 6 (2359296)
I0108 18:22:30.457768   249 net.cpp:159] Memory required for data: 2103537664
I0108 18:22:30.457772   249 layer_factory.hpp:77] Creating layer fc6
I0108 18:22:30.457784   249 net.cpp:94] Creating Layer fc6
I0108 18:22:30.457790   249 net.cpp:435] fc6 <- pool5
I0108 18:22:30.457794   249 net.cpp:409] fc6 -> fc6
I0108 18:22:30.787001   249 net.cpp:144] Setting up fc6
I0108 18:22:30.787026   249 net.cpp:151] Top shape: 256 4096 (1048576)
I0108 18:22:30.787034   249 net.cpp:159] Memory required for data: 2107731968
I0108 18:22:30.787060   249 layer_factory.hpp:77] Creating layer relu6
I0108 18:22:30.787070   249 net.cpp:94] Creating Layer relu6
I0108 18:22:30.787075   249 net.cpp:435] relu6 <- fc6
I0108 18:22:30.787081   249 net.cpp:409] relu6 -> relu6
I0108 18:22:30.787099   249 net.cpp:144] Setting up relu6
I0108 18:22:30.787103   249 net.cpp:151] Top shape: 256 4096 (1048576)
I0108 18:22:30.787107   249 net.cpp:159] Memory required for data: 2111926272
I0108 18:22:30.787111   249 layer_factory.hpp:77] Creating layer drop6
I0108 18:22:30.787115   249 net.cpp:94] Creating Layer drop6
I0108 18:22:30.787118   249 net.cpp:435] drop6 <- relu6
I0108 18:22:30.787122   249 net.cpp:409] drop6 -> drop6
I0108 18:22:30.787159   249 net.cpp:144] Setting up drop6
I0108 18:22:30.787165   249 net.cpp:151] Top shape: 256 4096 (1048576)
I0108 18:22:30.787169   249 net.cpp:159] Memory required for data: 2116120576
I0108 18:22:30.787173   249 layer_factory.hpp:77] Creating layer fc7
I0108 18:22:30.787180   249 net.cpp:94] Creating Layer fc7
I0108 18:22:30.787184   249 net.cpp:435] fc7 <- drop6
I0108 18:22:30.787187   249 net.cpp:409] fc7 -> fc7
I0108 18:22:30.923853   249 net.cpp:144] Setting up fc7
I0108 18:22:30.923878   249 net.cpp:151] Top shape: 256 4096 (1048576)
I0108 18:22:30.923887   249 net.cpp:159] Memory required for data: 2120314880
I0108 18:22:30.923914   249 layer_factory.hpp:77] Creating layer bn7
I0108 18:22:30.923944   249 net.cpp:94] Creating Layer bn7
I0108 18:22:30.923950   249 net.cpp:435] bn7 <- fc7
I0108 18:22:30.923956   249 net.cpp:409] bn7 -> bn7
I0108 18:22:30.924407   249 net.cpp:144] Setting up bn7
I0108 18:22:30.924414   249 net.cpp:151] Top shape: 256 4096 (1048576)
I0108 18:22:30.924419   249 net.cpp:159] Memory required for data: 2124509184
I0108 18:22:30.924427   249 layer_factory.hpp:77] Creating layer relu7
I0108 18:22:30.924432   249 net.cpp:94] Creating Layer relu7
I0108 18:22:30.924437   249 net.cpp:435] relu7 <- bn7
I0108 18:22:30.924440   249 net.cpp:409] relu7 -> relu7
I0108 18:22:30.924456   249 net.cpp:144] Setting up relu7
I0108 18:22:30.924461   249 net.cpp:151] Top shape: 256 4096 (1048576)
I0108 18:22:30.924466   249 net.cpp:159] Memory required for data: 2128703488
I0108 18:22:30.924469   249 layer_factory.hpp:77] Creating layer drop7
I0108 18:22:30.924482   249 net.cpp:94] Creating Layer drop7
I0108 18:22:30.924487   249 net.cpp:435] drop7 <- relu7
I0108 18:22:30.924492   249 net.cpp:409] drop7 -> drop7
I0108 18:22:30.924516   249 net.cpp:144] Setting up drop7
I0108 18:22:30.924522   249 net.cpp:151] Top shape: 256 4096 (1048576)
I0108 18:22:30.924527   249 net.cpp:159] Memory required for data: 2132897792
I0108 18:22:30.924530   249 layer_factory.hpp:77] Creating layer fc8
I0108 18:22:30.924536   249 net.cpp:94] Creating Layer fc8
I0108 18:22:30.924556   249 net.cpp:435] fc8 <- drop7
I0108 18:22:30.924561   249 net.cpp:409] fc8 -> fc8
I0108 18:22:30.924713   249 net.cpp:144] Setting up fc8
I0108 18:22:30.924718   249 net.cpp:151] Top shape: 256 2 (512)
I0108 18:22:30.924723   249 net.cpp:159] Memory required for data: 2132899840
I0108 18:22:30.924728   249 layer_factory.hpp:77] Creating layer loss
I0108 18:22:30.924739   249 net.cpp:94] Creating Layer loss
I0108 18:22:30.924746   249 net.cpp:435] loss <- fc8
I0108 18:22:30.924751   249 net.cpp:435] loss <- label
I0108 18:22:30.924755   249 net.cpp:409] loss -> loss
I0108 18:22:30.924767   249 layer_factory.hpp:77] Creating layer loss
…
I0108 18:22:30.925374   249 net.cpp:323] The NetState phase (1) differed from the phase (0) specified by a rule in layer data
I0108 18:22:30.925388   249 net.cpp:52] Initializing net from parameters: 
name: "alexnetBNnoLRN m2 (as m3 but less DROP and less BN)"
state {
  phase: TEST
}
layer {
  name: "data"
  type: "Data"
  top: "data"
  top: "label"
  include {
    phase: TEST
  }
  transform_param {
    mirror: false
    crop_size: 227
    mean_value: 106
    mean_value: 116
    mean_value: 124
  }
  data_param {
    source: "input/lmdb/valid_lmdb"
    batch_size: 50
    backend: LMDB
  }
}
layer {
  name: "conv1"
  type: "Convolution"
  bottom: "data"
  top: "conv1"
  param {
    lr_mult: 1
    decay_mult: 1
  }
  param {
    lr_mult: 2
    decay_mult: 0
  }
  convolution_param {
    num_output: 96
    pad: 1
    kernel_size: 11
    stride: 4
    weight_filler {
      type: "gaussian"
      std: 0.01
    }
    bias_filler {
      type: "constant"
      value: 0
    }
  }
}
layer {
  name: "bn1"
  type: "BatchNorm"
  bottom: "conv1"
  top: "bn1"
  param {
    lr_mult: 0
  }
  param {
    lr_mult: 0
  }
  param {
    lr_mult: 0
  }
  batch_norm_param {
    use_global_stats: false
  }
}
layer {
  name: "relu1"
  type: "ReLU"
  bottom: "bn1"
  top: "relu1"
}
layer {
  name: "pool1"
  type: "Pooling"
  bottom: "relu1"
  top: "pool1"
  pooling_param {
    pool: MAX
    kernel_size: 3
    stride: 2
  }
}
layer {
  name: "conv2"
  type: "Convolution"
  bottom: "pool1"
  top: "conv2"
  param {
    lr_mult: 1
    decay_mult: 1
  }
  param {
    lr_mult: 2
    decay_mult: 0
  }
  convolution_param {
    num_output: 256
    pad: 2
    kernel_size: 5
    group: 1
    weight_filler {
      type: "gaussian"
      std: 0.01
    }
    bias_filler {
      type: "constant"
      value: 1
    }
  }
}
layer {
  name: "bn2"
  type: "BatchNorm"
  bottom: "conv2"
  top: "bn2"
  param {
    lr_mult: 0
  }
  param {
    lr_mult: 0
  }
  param {
    lr_mult: 0
  }
  batch_norm_param {
    use_global_stats: false
  }
}
layer {
  name: "relu2"
  type: "ReLU"
  bottom: "bn2"
  top: "relu2"
}
layer {
  name: "pool2"
  type: "Pooling"
  bottom: "relu2"
  top: "pool2"
  pooling_param {
    pool: MAX
    kernel_size: 3
    stride: 2
  }
}
layer {
  name: "conv3"
  type: "Convolution"
  bottom: "pool2"
  top: "conv3"
  param {
    lr_mult: 1
    decay_mult: 1
  }
  param {
    lr_mult: 2
    decay_mult: 0
  }
  convolution_param {
    num_output: 384
    pad: 1
    kernel_size: 3
    weight_filler {
      type: "gaussian"
      std: 0.01
    }
    bias_filler {
      type: "constant"
      value: 0
    }
  }
}
layer {
  name: "relu3"
  type: "ReLU"
  bottom: "conv3"
  top: "relu3"
}
layer {
  name: "conv4"
  type: "Convolution"
  bottom: "relu3"
  top: "conv4"
  param {
    lr_mult: 1
    decay_mult: 1
  }
  param {
    lr_mult: 2
    decay_mult: 0
  }
  convolution_param {
    num_output: 384
    pad: 1
    kernel_size: 3
    group: 1
    weight_filler {
      type: "gaussian"
      std: 0.01
    }
    bias_filler {
      type: "constant"
      value: 1
    }
  }
}
layer {
  name: "relu4"
  type: "ReLU"
  bottom: "conv4"
  top: "relu4"
}
layer {
  name: "conv5"
  type: "Convolution"
  bottom: "relu4"
  top: "conv5"
  param {
    lr_mult: 1
    decay_mult: 1
  }
  param {
    lr_mult: 2
    decay_mult: 0
  }
  convolution_param {
    num_output: 256
    pad: 1
    kernel_size: 3
    group: 1
    weight_filler {
      type: "gaussian"
      std: 0.01
    }
    bias_filler {
      type: "constant"
      value: 1
    }
  }
}
layer {
  name: "relu5"
  type: "ReLU"
  bottom: "conv5"
  top: "relu5"
}
layer {
  name: "pool5"
  type: "Pooling"
  bottom: "relu5"
  top: "pool5"
  pooling_param {
    pool: MAX
    kernel_size: 3
    stride: 2
  }
}
layer {
  name: "fc6"
  type: "InnerProduct"
  bottom: "pool5"
  top: "fc6"
  param {
    lr_mult: 1
    decay_mult: 1
  }
  param {
    lr_mult: 2
    decay_mult: 0
  }
  inner_product_param {
    num_output: 4096
    weight_filler {
      type: "gaussian"
      std: 0.005
    }
    bias_filler {
      type: "constant"
      value: 1
    }
  }
}
layer {
  name: "relu6"
  type: "ReLU"
  bottom: "fc6"
  top: "relu6"
}
layer {
  name: "drop6"
  type: "Dropout"
  bottom: "relu6"
  top: "drop6"
  dropout_param {
    dropout_ratio: 0.5
  }
}
layer {
  name: "fc7"
  type: "InnerProduct"
  bottom: "drop6"
  top: "fc7"
  param {
    lr_mult: 1
    decay_mult: 1
  }
  param {
    lr_mult: 2
    decay_mult: 0
  }
  inner_product_param {
    num_output: 4096
    weight_filler {
      type: "gaussian"
      std: 0.005
    }
    bias_filler {
      type: "constant"
      value: 1
    }
  }
}
layer {
  name: "bn7"
  type: "BatchNorm"
  bottom: "fc7"
  top: "bn7"
  param {
    lr_mult: 0
  }
  param {
    lr_mult: 0
  }
  param {
    lr_mult: 0
  }
  batch_norm_param {
    use_global_stats: false
  }
}
layer {
  name: "relu7"
  type: "ReLU"
  bottom: "bn7"
  top: "relu7"
}
layer {
  name: "drop7"
  type: "Dropout"
  bottom: "relu7"
  top: "drop7"
  dropout_param {
    dropout_ratio: 0.5
  }
}
layer {
  name: "fc8"
  type: "InnerProduct"
  bottom: "drop7"
  top: "fc8"
  param {
    lr_mult: 1
    decay_mult: 1
  }
  param {
    lr_mult: 2
    decay_mult: 0
  }
  inner_product_param {
    num_output: 2
    weight_filler {
      type: "gaussian"
      std: 0.01
    }
    bias_filler {
      type: "constant"
      value: 0
    }
  }
}
layer {
  name: "accuracy"
  type: "Accuracy"
  bottom: "fc8"
  bottom: "label"
  top: "accuracy"
  include {
    phase: TEST
  }
}
layer {
  name: "loss"
  type: "SoftmaxWithLoss"
  bottom: "fc8"
  bottom: "label"
  top: "loss"
}
layer {
  name: "accuracy-top1"
  type: "Accuracy"
  bottom: "fc8"
  bottom: "label"
  top: "top-1"
  include {
    phase: TEST
  }
}
I0108 18:22:30.925604   249 layer_factory.hpp:77] Creating layer data
I0108 18:22:30.925647   249 internal_thread.cpp:27] Starting internal thread(s) on GPU 0
I0108 18:22:30.926374   249 net.cpp:94] Creating Layer data
I0108 18:22:30.926386   249 net.cpp:409] data -> data
I0108 18:22:30.926395   249 net.cpp:409] data -> label
I0108 18:22:30.928886   311 db_lmdb.cpp:35] Opened lmdb input/lmdb/valid_lmdb
I0108 18:22:30.928910   311 db_lmdb.cpp:38] Items count: 4000
I0108 18:22:30.928931   311 data_reader.cpp:124] TEST: reading data using 1 channel(s)
I0108 18:22:30.929258   249 data_layer.cpp:78] ReshapePrefetch 50, 3, 227, 227
I0108 18:22:30.929361   249 data_layer.cpp:83] output data size: 50,3,227,227
I0108 18:22:31.027362   249 internal_thread.cpp:27] Starting internal thread(s) on GPU 0
I0108 18:22:31.027426   249 net.cpp:144] Setting up data
I0108 18:22:31.027433   249 net.cpp:151] Top shape: 50 3 227 227 (7729350)
I0108 18:22:31.027443   249 net.cpp:151] Top shape: 50 (50)
I0108 18:22:31.027447   249 net.cpp:159] Memory required for data: 30917600
I0108 18:22:31.027452   249 layer_factory.hpp:77] Creating layer label_data_1_split
I0108 18:22:31.027464   249 net.cpp:94] Creating Layer label_data_1_split
I0108 18:22:31.027469   249 net.cpp:435] label_data_1_split <- label
I0108 18:22:31.027477   249 net.cpp:409] label_data_1_split -> label_data_1_split_0
I0108 18:22:31.027485   249 net.cpp:409] label_data_1_split -> label_data_1_split_1
I0108 18:22:31.027490   249 net.cpp:409] label_data_1_split -> label_data_1_split_2
I0108 18:22:31.027544   249 net.cpp:144] Setting up label_data_1_split
I0108 18:22:31.027549   249 net.cpp:151] Top shape: 50 (50)
I0108 18:22:31.027552   249 net.cpp:151] Top shape: 50 (50)
I0108 18:22:31.027572   249 net.cpp:151] Top shape: 50 (50)
I0108 18:22:31.027576   249 net.cpp:159] Memory required for data: 30918200
I0108 18:22:31.027580   249 layer_factory.hpp:77] Creating layer conv1
I0108 18:22:31.027591   249 net.cpp:94] Creating Layer conv1
I0108 18:22:31.027609   249 net.cpp:435] conv1 <- data
I0108 18:22:31.027614   249 net.cpp:409] conv1 -> conv1
I0108 18:22:31.028194   249 net.cpp:144] Setting up conv1
I0108 18:22:31.028203   249 net.cpp:151] Top shape: 50 96 55 55 (14520000)
I0108 18:22:31.028208   249 net.cpp:159] Memory required for data: 88998200
I0108 18:22:31.028219   249 layer_factory.hpp:77] Creating layer bn1
I0108 18:22:31.028228   249 net.cpp:94] Creating Layer bn1
I0108 18:22:31.028231   249 net.cpp:435] bn1 <- conv1
I0108 18:22:31.028237   249 net.cpp:409] bn1 -> bn1
I0108 18:22:31.028779   249 net.cpp:144] Setting up bn1
I0108 18:22:31.028785   249 net.cpp:151] Top shape: 50 96 55 55 (14520000)
I0108 18:22:31.028791   249 net.cpp:159] Memory required for data: 147078200
I0108 18:22:31.028800   249 layer_factory.hpp:77] Creating layer relu1
I0108 18:22:31.028806   249 net.cpp:94] Creating Layer relu1
I0108 18:22:31.028810   249 net.cpp:435] relu1 <- bn1
I0108 18:22:31.028815   249 net.cpp:409] relu1 -> relu1
I0108 18:22:31.028832   249 net.cpp:144] Setting up relu1
I0108 18:22:31.028837   249 net.cpp:151] Top shape: 50 96 55 55 (14520000)
I0108 18:22:31.028842   249 net.cpp:159] Memory required for data: 205158200
I0108 18:22:31.028846   249 layer_factory.hpp:77] Creating layer pool1
I0108 18:22:31.028852   249 net.cpp:94] Creating Layer pool1
I0108 18:22:31.028856   249 net.cpp:435] pool1 <- relu1
I0108 18:22:31.028861   249 net.cpp:409] pool1 -> pool1
I0108 18:22:31.028885   249 net.cpp:144] Setting up pool1
I0108 18:22:31.028892   249 net.cpp:151] Top shape: 50 96 27 27 (3499200)
I0108 18:22:31.028896   249 net.cpp:159] Memory required for data: 219155000
I0108 18:22:31.028899   249 layer_factory.hpp:77] Creating layer conv2
I0108 18:22:31.028908   249 net.cpp:94] Creating Layer conv2
I0108 18:22:31.028914   249 net.cpp:435] conv2 <- pool1
I0108 18:22:31.028919   249 net.cpp:409] conv2 -> conv2
I0108 18:22:31.034940   249 net.cpp:144] Setting up conv2
I0108 18:22:31.034957   249 net.cpp:151] Top shape: 50 256 27 27 (9331200)
I0108 18:22:31.034966   249 net.cpp:159] Memory required for data: 256479800
I0108 18:22:31.034976   249 layer_factory.hpp:77] Creating layer bn2
I0108 18:22:31.035001   249 net.cpp:94] Creating Layer bn2
I0108 18:22:31.035008   249 net.cpp:435] bn2 <- conv2
I0108 18:22:31.035015   249 net.cpp:409] bn2 -> bn2
I0108 18:22:31.035601   249 net.cpp:144] Setting up bn2
I0108 18:22:31.035609   249 net.cpp:151] Top shape: 50 256 27 27 (9331200)
I0108 18:22:31.035614   249 net.cpp:159] Memory required for data: 293804600
I0108 18:22:31.035622   249 layer_factory.hpp:77] Creating layer relu2
I0108 18:22:31.035629   249 net.cpp:94] Creating Layer relu2
I0108 18:22:31.035634   249 net.cpp:435] relu2 <- bn2
I0108 18:22:31.035638   249 net.cpp:409] relu2 -> relu2
I0108 18:22:31.035656   249 net.cpp:144] Setting up relu2
I0108 18:22:31.035662   249 net.cpp:151] Top shape: 50 256 27 27 (9331200)
I0108 18:22:31.035667   249 net.cpp:159] Memory required for data: 331129400
I0108 18:22:31.035672   249 layer_factory.hpp:77] Creating layer pool2
I0108 18:22:31.035678   249 net.cpp:94] Creating Layer pool2
I0108 18:22:31.035682   249 net.cpp:435] pool2 <- relu2
I0108 18:22:31.035687   249 net.cpp:409] pool2 -> pool2
I0108 18:22:31.035712   249 net.cpp:144] Setting up pool2
I0108 18:22:31.035717   249 net.cpp:151] Top shape: 50 256 13 13 (2163200)
I0108 18:22:31.035722   249 net.cpp:159] Memory required for data: 339782200
I0108 18:22:31.035725   249 layer_factory.hpp:77] Creating layer conv3
I0108 18:22:31.035734   249 net.cpp:94] Creating Layer conv3
I0108 18:22:31.035738   249 net.cpp:435] conv3 <- pool2
I0108 18:22:31.035743   249 net.cpp:409] conv3 -> conv3
I0108 18:22:31.044960   249 net.cpp:144] Setting up conv3
I0108 18:22:31.044983   249 net.cpp:151] Top shape: 50 384 13 13 (3244800)
I0108 18:22:31.044993   249 net.cpp:159] Memory required for data: 352761400
I0108 18:22:31.045002   249 layer_factory.hpp:77] Creating layer relu3
I0108 18:22:31.045013   249 net.cpp:94] Creating Layer relu3
I0108 18:22:31.045018   249 net.cpp:435] relu3 <- conv3
I0108 18:22:31.045043   249 net.cpp:409] relu3 -> relu3
I0108 18:22:31.045079   249 net.cpp:144] Setting up relu3
I0108 18:22:31.045085   249 net.cpp:151] Top shape: 50 384 13 13 (3244800)
I0108 18:22:31.045090   249 net.cpp:159] Memory required for data: 365740600
I0108 18:22:31.045094   249 layer_factory.hpp:77] Creating layer conv4
I0108 18:22:31.045104   249 net.cpp:94] Creating Layer conv4
I0108 18:22:31.045110   249 net.cpp:435] conv4 <- relu3
I0108 18:22:31.045115   249 net.cpp:409] conv4 -> conv4
I0108 18:22:31.060756   249 net.cpp:144] Setting up conv4
I0108 18:22:31.060814   249 net.cpp:151] Top shape: 50 384 13 13 (3244800)
I0108 18:22:31.060833   249 net.cpp:159] Memory required for data: 378719800
I0108 18:22:31.060858   249 layer_factory.hpp:77] Creating layer relu4
I0108 18:22:31.060873   249 net.cpp:94] Creating Layer relu4
I0108 18:22:31.060879   249 net.cpp:435] relu4 <- conv4
I0108 18:22:31.060889   249 net.cpp:409] relu4 -> relu4
I0108 18:22:31.060928   249 net.cpp:144] Setting up relu4
I0108 18:22:31.060932   249 net.cpp:151] Top shape: 50 384 13 13 (3244800)
I0108 18:22:31.060937   249 net.cpp:159] Memory required for data: 391699000
I0108 18:22:31.060941   249 layer_factory.hpp:77] Creating layer conv5
I0108 18:22:31.060954   249 net.cpp:94] Creating Layer conv5
I0108 18:22:31.060958   249 net.cpp:435] conv5 <- relu4
I0108 18:22:31.060984   249 net.cpp:409] conv5 -> conv5
I0108 18:22:31.069483   249 net.cpp:144] Setting up conv5
I0108 18:22:31.069505   249 net.cpp:151] Top shape: 50 256 13 13 (2163200)
I0108 18:22:31.069516   249 net.cpp:159] Memory required for data: 400351800
I0108 18:22:31.069527   249 layer_factory.hpp:77] Creating layer relu5
I0108 18:22:31.069540   249 net.cpp:94] Creating Layer relu5
I0108 18:22:31.069548   249 net.cpp:435] relu5 <- conv5
I0108 18:22:31.069558   249 net.cpp:409] relu5 -> relu5
I0108 18:22:31.069595   249 net.cpp:144] Setting up relu5
I0108 18:22:31.069602   249 net.cpp:151] Top shape: 50 256 13 13 (2163200)
I0108 18:22:31.069607   249 net.cpp:159] Memory required for data: 409004600
I0108 18:22:31.069612   249 layer_factory.hpp:77] Creating layer pool5
I0108 18:22:31.069628   249 net.cpp:94] Creating Layer pool5
I0108 18:22:31.069633   249 net.cpp:435] pool5 <- relu5
I0108 18:22:31.069638   249 net.cpp:409] pool5 -> pool5
I0108 18:22:31.069664   249 net.cpp:144] Setting up pool5
I0108 18:22:31.069669   249 net.cpp:151] Top shape: 50 256 6 6 (460800)
I0108 18:22:31.069674   249 net.cpp:159] Memory required for data: 410847800
I0108 18:22:31.069676   249 layer_factory.hpp:77] Creating layer fc6
I0108 18:22:31.069684   249 net.cpp:94] Creating Layer fc6
I0108 18:22:31.069701   249 net.cpp:435] fc6 <- pool5
I0108 18:22:31.069705   249 net.cpp:409] fc6 -> fc6
I0108 18:22:31.369611   249 net.cpp:144] Setting up fc6
I0108 18:22:31.369633   249 net.cpp:151] Top shape: 50 4096 (204800)
I0108 18:22:31.369642   249 net.cpp:159] Memory required for data: 411667000
I0108 18:22:31.369653   249 layer_factory.hpp:77] Creating layer relu6
I0108 18:22:31.369660   249 net.cpp:94] Creating Layer relu6
I0108 18:22:31.369664   249 net.cpp:435] relu6 <- fc6
I0108 18:22:31.369673   249 net.cpp:409] relu6 -> relu6
I0108 18:22:31.369697   249 net.cpp:144] Setting up relu6
I0108 18:22:31.369700   249 net.cpp:151] Top shape: 50 4096 (204800)
I0108 18:22:31.369704   249 net.cpp:159] Memory required for data: 412486200
I0108 18:22:31.369707   249 layer_factory.hpp:77] Creating layer drop6
I0108 18:22:31.369712   249 net.cpp:94] Creating Layer drop6
I0108 18:22:31.369731   249 net.cpp:435] drop6 <- relu6
I0108 18:22:31.369735   249 net.cpp:409] drop6 -> drop6
I0108 18:22:31.369757   249 net.cpp:144] Setting up drop6
I0108 18:22:31.369762   249 net.cpp:151] Top shape: 50 4096 (204800)
I0108 18:22:31.369766   249 net.cpp:159] Memory required for data: 413305400
I0108 18:22:31.369769   249 layer_factory.hpp:77] Creating layer fc7
I0108 18:22:31.369777   249 net.cpp:94] Creating Layer fc7
I0108 18:22:31.369781   249 net.cpp:435] fc7 <- drop6
I0108 18:22:31.369784   249 net.cpp:409] fc7 -> fc7
I0108 18:22:31.501052   249 net.cpp:144] Setting up fc7
I0108 18:22:31.501078   249 net.cpp:151] Top shape: 50 4096 (204800)
I0108 18:22:31.501087   249 net.cpp:159] Memory required for data: 414124600
I0108 18:22:31.501098   249 layer_factory.hpp:77] Creating layer bn7
I0108 18:22:31.501111   249 net.cpp:94] Creating Layer bn7
I0108 18:22:31.501114   249 net.cpp:435] bn7 <- fc7
I0108 18:22:31.501121   249 net.cpp:409] bn7 -> bn7
I0108 18:22:31.501622   249 net.cpp:144] Setting up bn7
I0108 18:22:31.501631   249 net.cpp:151] Top shape: 50 4096 (204800)
I0108 18:22:31.501636   249 net.cpp:159] Memory required for data: 414943800
I0108 18:22:31.501644   249 layer_factory.hpp:77] Creating layer relu7
I0108 18:22:31.501650   249 net.cpp:94] Creating Layer relu7
I0108 18:22:31.501653   249 net.cpp:435] relu7 <- bn7
I0108 18:22:31.501659   249 net.cpp:409] relu7 -> relu7
I0108 18:22:31.501675   249 net.cpp:144] Setting up relu7
I0108 18:22:31.501682   249 net.cpp:151] Top shape: 50 4096 (204800)
I0108 18:22:31.501686   249 net.cpp:159] Memory required for data: 415763000
I0108 18:22:31.501689   249 layer_factory.hpp:77] Creating layer drop7
I0108 18:22:31.501695   249 net.cpp:94] Creating Layer drop7
I0108 18:22:31.501699   249 net.cpp:435] drop7 <- relu7
I0108 18:22:31.501704   249 net.cpp:409] drop7 -> drop7
I0108 18:22:31.501727   249 net.cpp:144] Setting up drop7
I0108 18:22:31.501732   249 net.cpp:151] Top shape: 50 4096 (204800)
I0108 18:22:31.501737   249 net.cpp:159] Memory required for data: 416582200
I0108 18:22:31.501741   249 layer_factory.hpp:77] Creating layer fc8
I0108 18:22:31.501749   249 net.cpp:94] Creating Layer fc8
I0108 18:22:31.501752   249 net.cpp:435] fc8 <- drop7
I0108 18:22:31.501775   249 net.cpp:409] fc8 -> fc8
I0108 18:22:31.501931   249 net.cpp:144] Setting up fc8
I0108 18:22:31.501937   249 net.cpp:151] Top shape: 50 2 (100)
I0108 18:22:31.501941   249 net.cpp:159] Memory required for data: 416582600
I0108 18:22:31.501947   249 layer_factory.hpp:77] Creating layer fc8_fc8_0_split
I0108 18:22:31.501953   249 net.cpp:94] Creating Layer fc8_fc8_0_split
I0108 18:22:31.501957   249 net.cpp:435] fc8_fc8_0_split <- fc8
I0108 18:22:31.501962   249 net.cpp:409] fc8_fc8_0_split -> fc8_fc8_0_split_0
I0108 18:22:31.501967   249 net.cpp:409] fc8_fc8_0_split -> fc8_fc8_0_split_1
I0108 18:22:31.501973   249 net.cpp:409] fc8_fc8_0_split -> fc8_fc8_0_split_2
I0108 18:22:31.502004   249 net.cpp:144] Setting up fc8_fc8_0_split
I0108 18:22:31.502010   249 net.cpp:151] Top shape: 50 2 (100)
I0108 18:22:31.502014   249 net.cpp:151] Top shape: 50 2 (100)
I0108 18:22:31.502019   249 net.cpp:151] Top shape: 50 2 (100)
I0108 18:22:31.502023   249 net.cpp:159] Memory required for data: 416583800
I0108 18:22:31.502027   249 layer_factory.hpp:77] Creating layer accuracy
I0108 18:22:31.502035   249 net.cpp:94] Creating Layer accuracy
I0108 18:22:31.502041   249 net.cpp:435] accuracy <- fc8_fc8_0_split_0
I0108 18:22:31.502046   249 net.cpp:435] accuracy <- label_data_1_split_0
I0108 18:22:31.502051   249 net.cpp:409] accuracy -> accuracy
…
